ml-models/TCN-Prediction/checkpoint/model_lastest.pth (torch, 104773 bytes, 28 tensors)

bias f4 [32]
00000000: 49fa 87be b73d 94be 033b 12bb a394 f9be
00000010: f009 b4be b638 4cbe 935b 87be a31d 1f3e
00000020: ff79 9bbe 40c1 dcbe 582b 78be 2b75 ce3e
00000030: 5b6f ae3e c420 82be 4ab1 45be 00d2 ca3d
00000040: 0661 3d3d f5c9 b13e 036e ab3e 84b4 88bc
00000050: 53b3 85be b6e2 79be ecb1 39bc 6a57 8f3d
00000060: bdf1 25be f70a 2b3e c0f9 d03e 5509 edbe
00000070: 5ce3 a33e a683 04bc cee8 83be bd4b d43e
-0.2655814 -0.28953335 -0.0022313006 -0.48746213 -0.35163832 -0.19943509 -0.26437053 0.1553865
-0.30366513 -0.43116188 -0.24235284 0.40323767 0.34069332 -0.25415623 -0.19305912 0.099033356
0.046235107 0.34724393 0.3348237 -0.016687639 -0.26113376 -0.2440289 -0.011333924 0.06999095
-0.16205497 0.16703402 0.40815544 -0.46296182 0.320094 -0.008088028 -0.25763553 0.41464034

weight_g f4 [32, 1, 1]
00000000: f0e2 153f 5ffd de3e c196 553f f187 903f
00000010: bc0a 303f 8b0f 043f f0b5 1d3f 2c5d 1c40
00000020: 8d3f 093f abb1 5f3f 1ded 133f b5d8 8b3f
00000030: 3058 263f e3bb 103f 5f21 ef3e 0828 a740
00000040: 3888 e73f a41b 473f 812a 743f a668 373f
00000050: 25d7 223f 95e4 9b3e 6e70 613f 488d 1340
00000060: 6367 1d3f 2116 4140 0953 413f cf69 6b3f
00000070: c3ef 703f c6e6 8d3f ace4 063f 4d50 593f
0.58549404 0.43552682 0.8343316 1.1291486 0.6876638 0.51586217 0.6160574 2.4431868
0.53612596 0.87380475 0.5778368 1.0925509 0.64978313 0.5653669 0.46705148 5.2236366
1.8088446 0.7777655 0.95377356 0.71644056 0.63609535 0.30447832 0.8806218 2.3054981
0.6148588 3.0169756 0.75517327 0.91958326 0.9411585 1.1086051 0.52692676 0.84888154

weight_v f4 [32, 4, 2]
00000000: 3b60 6c3e f2c5 933c 9d31 10be 1681 5abe
00000010: cd74 49be 6fc1 b63d 903a 9ebe f74e 923e
00000020: e40e 793d f88e 63be cac0 023e 3999 8f3d
00000030: d780 1b3e ae66 a9bd 015a 153e 43bc 813e
00000040: 42e1 3e3e 4086 47be 2c41 923e ca6f 2c3e
00000050: 4e59 d93d eba7 ba3d caa2 daba 95ae 5538
00000060: 8af6 fabb 1508 183f bf44 aebe 8b39 0fbe
00000070: 3272 5bb8 07e0 12ba bc5c 83b7 dc6b af39
00000080: a1ab 8b3e 37bb 92bd f9e1 97be db27 dc3d
00000090: 711d 813e a0ae 843e 2580 b4be 7f8e 49be
000000a0: cbea e13d 5212 fcbd f844 833e a605 5cbd
000000b0: 70ea 5dbe bd2e 153e db5c e7bc 74de a2be
000000c0: 5949 cd3d 3b76 a3be 68df 12be 4770 873e
000000d0: ef73 993e 21c9 00be e35e 823d a3d4 843e
000000e0: b593 1dbf 77f5 ab3c 6b62 14bf 70fd b53d
000000f0: 936b 523e 5c3f 573e e5dc e6bd fd7f 8bbd
00000100: 585b 493e 8c64 9c3e 83e9 3f3d e034 4f3e
00000110: b1f6 86be b9a8 95bc 7673 1d3e 8da0 0cbe
00000120: 53b0 883d e527 673f 5caf 0ebe f17b 93bd
00000130: 23d7 c7ba 7c41 103c 1df8 8eb8 25c5 00ba
00000140: fccd 29be 04f4 d7bd c97f f03d f998 60bb
00000150: 1dfd 50bc 6723 b03e 3abf b13e fff5 52be
00000160: e37d 93be 9734 95be c091 f63d d71e 9abc
00000170: 9f1d 4abb 753c 17bb 9ba5 a73a 6560 63ba
00000180: 64e2 3cbf b40c 4f3c e922 b6bb 910e 30be
00000190: 94ec 9f3b 6026 87bb b3c1 0938 2121 823c
000001a0: 78e4 66bb d637 98be 2488 5bbd d086 18be
000001b0: 7dd9 b4be 6041 67be da9e be3d 7a04 173e
000001c0: 7238 a23d 7157 8a3b 7a38 03be 6751 553e
000001d0: 276d abbe 111f be3d 6e43 3f3d d8c2 2ebe
000001e0: b539 75be 6c9d b3be db39 43be be25 e2bd
000001f0: 57ca 72bc acd6 9ebb 7202 ee3b c1e2 8039
00000200: f505 f13d 63e0 02bf dc9d b6bd c8ec 89be
00000210: 94ab f93c 1807 b23d be6c 8f3b a4a7 333c
00000220: 28e6 0cbf 5512 0c3a 6b50 47be 5cff 91be
00000230: 6780 b939 45bd 15be c22c 60ba adc0 93bd
00000240: 86f7 95be 6cbb 86be 3b64 c23d 35fd d3bc
00000250: d6c5 d3bb c083 b6bb 42b9 76ba 8699 abba
00000260: ec20 8bbe 2bd3 ba3e 8968 a1be 9444 033d
00000270: 8c6f 053d 1e02 863d 9620 9dba 5bca e03b
00000280: eb62 9f3e c955 d03d aa0a 83be 666c e3bd
00000290: 6a60 febc f890 a43e 4ca8 54be 520b 8d3e
000002a0: ccec c13d 5c3a 52be 56d5 07be 2ee3 ce3c
000002b0: 09f5 5bbb be41 8abd 2b01 053e f672 33bd
000002c0: 2047 b63e dd22 8abe ef71 dd3e 2e33 c43d
000002d0: 677a a1be 6e19 6f3e dfac 1e3d 6d76 363b
000002e0: d266 f0be fa53 013e 7fab 04bf 84ae 32be
000002f0: 83f8 6a3c 0d33 a33d 2320 a8bc 96a3 e0bc
00000300: 8502 13be 7b42 a7be 2c33 25be e674 0ebd
00000310: 277d b3be e781 5abe 9cf1 0b3e 904f 43be
00000320: 49f9 57be 66df aabe cd80 1fbe 5109 b0bc
00000330: 8a02 933d 3d1a ef3d e1a8 c23c 2da8 62bc
00000340: 48c4 31bd bb44 6fbf 1e53 92bd f901 8cbd
00000350: abf0 e03b ab20 d0bd 975b 9c39 2083 89b7
00000360: 948d d13f ba5e c9bc 7de2 2cbc 3fc6 a83b
00000370: a84e dabd a3de 29b9 70ad 30ba 7960 6cb9
00000380: a4e5 c8be 088f 83b8 6ca0 abbe 5a26 7cbe
00000390: 20c6 223e 7f8c 91be e77d 1d3d 2cc1 72bb
000003a0: 3ef1 a0be c725 9a3e 0246 8fbd 8ae1 f23d
000003b0: d3dd 213c 1f51 6abd a156 4cbb bbf6 673c
000003c0: c109 fbbb c4a2 f0bd 7f43 48be 3428 573e
000003d0: cba5 873d fcbb 9a3e 4c66 4abe c50e 5d3e
000003e0: d67c 08bf 4285 a93c da42 1e3d 4e9c 99be
000003f0: 9adb 2c3b fb33 febd e800 c9bc 4b63 5ebd
0.23083584 0.018038724 -0.14081426 -0.21338305 -0.19673462 0.08923613 -0.30904055 0.2857587
0.060805216 -0.22222507 0.12768856 0.07011647 0.15185867 -0.08271538 0.14585115 0.25338945
0.18640617 -0.19484806 0.28565347 0.16839519 0.10612737 0.09114059 -0.0016680595 5.094575e-05
-0.0076587843 0.5938733 -0.34036824 -0.13986795 -5.232002e-05 -0.00056028407 -1.56596e-05 0.00033458963
0.2727938 -0.07164615 -0.2966459 0.10749789 0.25217775 0.25914478 -0.35254017 -0.19683264
0.11031111 -0.12308182 0.25638556 -0.053716324 -0.21671462 0.1456861 -0.02824252 -0.31810343
0.100237556 -0.3192614 -0.14343035 0.26452848 0.29971263 -0.12576725 0.063657545 0.2594348
-0.6155351 0.02099107 -0.57962674 0.0888623 0.20548849 0.21020263 -0.11272601 -0.06811521
0.19663751 0.3054546 0.046853554 0.20235014 -0.26360086 -0.01826893 0.15376076 -0.1373312
0.06674256 0.9029525 -0.13934082 -0.07201374 -0.0015246611 0.008804675 -6.817302e-05 -0.00049121893
-0.16582483 -0.10544589 0.11743123 -0.0034270866 -0.012755659 0.3440201 0.34716207 -0.20601653
-0.2880698 -0.29141685 0.12039518 -0.018813534 -0.003084041 -0.0023076807 0.0012790443 -0.00086737267
-0.73782945 0.012637306 -0.005558361 -0.17193057 0.004880497 -0.0041244477 3.284374e-05 0.015884938
-0.0035231393 -0.297301 -0.05359663 -0.14895177 -0.3532218 -0.22583532 0.09307642 0.14747801
0.07920922 0.0042218496 -0.12814513 0.20831834 -0.33481714 0.09283269 0.046695165 -0.17066514
-0.23947795 -0.3508104 -0.19065039 -0.11042355 -0.014818749 -0.004847368 0.007263475 0.00024583007
0.11768714 -0.51123637 -0.08916828 -0.26938462 0.030477323 0.08692759 0.0043769768 0.010965262
-0.5503869 0.0005343308 -0.19464271 -0.28515136 0.00035381617 -0.14622982 -0.00085515913 -0.07214484
-0.29290408 -0.26314867 0.09491774 -0.025877574 -0.006462793 -0.005569905 -0.0009411761 -0.0013092018
-0.27173555 0.36489233 -0.31525066 0.032047823 0.032577083 0.065433726 -0.0011987861 0.00686006
0.31130156 0.10172612 -0.25594074 -0.1110466 -0.031051833 0.32141852 -0.20767325 0.275477
0.094689935 -0.20530075 -0.13264975 0.025254812 -0.00335628 -0.067508206 0.12988727 -0.043810807
0.3560114 -0.26979724 0.43250987 0.09580074 -0.31538698 0.23349544 0.03873908 0.0027841583
-0.46953446 0.12629691 -0.5182418 -0.17449385 0.014341476 0.079687215 -0.020523136 -0.027421754
-0.1435643 -0.32667908 -0.16132802 -0.03477945 -0.3505642 -0.21338616 0.13666385 -0.1907332
-0.21091188 -0.33373564 -0.15576477 -0.021488817 0.07178219 0.116749264 0.023762168 -0.013834042
-0.04340008 -0.9346425 -0.071447596 -0.06836314 0.0068646274 -0.10162481 0.00029822878 -1.6392733e-05
1.6371331 -0.024581302 -0.010552046 0.005150586 -0.10659534 -0.00016200035 -0.00067397114 -0.00022542653
-0.39237702 -6.2732084e-05 -0.3352083 -0.24624005 0.15895891 -0.28427503 0.038450148 -0.003704141
-0.31434053 0.30106947 -0.06995775 0.118594244 0.009879547 -0.05720627 -0.0031179565 0.014157946
-0.007661075 -0.11749795 -0.19556998 0.2101143 0.066234194 0.30221546 -0.19765586 0.21587665
-0.53315485 0.020693425 0.038637973 -0.30002064 0.002637601 -0.12412258 -0.024536565 -0.054293912

weight f4 [32, 4, 2]
00000000: 3b60 6c3e f2c5 933c 9d31 10be 1681 5abe
00000010: cd74 49be 6fc1 b63d 903a 9ebe f74e 923e
00000020: e40e 793d f88e 63be cac0 023e 3999 8f3d
00000030: d680 1b3e ae66 a9bd 015a 153e 43bc 813e
00000040: e210 b13e b815 b9be 8fab 073f 1cf5 9f3e
00000050: 8c9e 493e cd25 2d3e 30d0 4abb c237 c638
00000060: b9ca 4abc 1db3 753f 8ad1 0cbf 8977 67be
00000070: 0f53 b1b8 c45d 6dba b84b d4b7 03c0 0d3a
00000080: a1ab 8b3e 37bb 92bd f9e1 97be db27 dc3d
00000090: 711d 813e a0ae 843e 2580 b4be 7f8e 49be
000000a0: cbea e13d 5212 fcbd f844 833e a605 5cbd
000000b0: 70ea 5dbe bd2e 153e db5c e7bc 74de a2be
000000c0: 5949 cd3d 3b76 a3be 68df 12be 4770 873e
000000d0: ef73 993e 20c9 00be e35e 823d a3d4 843e
000000e0: 3dae d3bf 1d00 673d f454 c7bf cc79 743e
000000f0: 6f55 0d3f 7a93 103f 8310 9bbe 9a65 3bbe
00000100: 585b 493e 8c64 9c3e 83e9 3f3d e034 4f3e
00000110: b1f6 86be b9a8 95bc 7673 1d3e 8da0 0cbe
00000120: 72f9 813d 13cd 5b3f 13ad 07be 4f3d 8cbd
00000130: 1e06 beba 722b 093c 42f2 87b8 afe3 f4b9
00000140: fccd 29be 03f4 d7bd c97f f03d f998 60bb
00000150: 1cfd 50bc 6723 b03e 3abf b13e fff5 52be
00000160: 1276 3cbf a2a6 3ebf b087 9d3e 64ee 44bd
00000170: 1021 01bc e83e c1bb 0737 563b 9b44 11bb
00000180: 9fef 21bf 7982 313c 9a26 9cbb 4ef0 16be
00000190: 8c1b 893b 62bc 67bb 9e34 ec37 9f20 5f3c
000001a0: 78e4 66bb d637 98be 2488 5bbd d086 18be
000001b0: 7dd9 b4be 6041 67be da9e be3d 7a04 173e
000001c0: 7238 a23d 7157 8a3b 7a38 03be 6751 553e
000001d0: 276d abbe 101f be3d 6d43 3f3d d8c2 2ebe
000001e0: 7e35 27c0 9ef1 74c0 cf1d 05c0 5233 9abf
000001f0: 728c 25be 599c 58bd ec49 a23d 7dc3 2f3b
00000200: ff90 b43e ae18 c4bf 65cf 88be 43a8 4ebf
00000210: 5d0b bb3d 4d5f 853e dce5 563c 5d97 063d
00000220: 9998 23bf a6a2 223a cc6b 67be 0d84 a9be
00000230: 2c62 d739 45dc 2dbe ad24 82ba bf8d abbd
00000240: 4b2c 30bf ab46 1ebf 575c 643e 8b08 79bd
00000250: 7ec7 78bc 8c68 56bc 39eb 10bb 0996 49bb
00000260: e839 b2be 7353 ef3e 56c4 cebe 0f28 283d
00000270: fcee 2a3d beaa ab3d 6848 c9ba f3fa 0f3c
00000280: 53a6 9e3e 455f cf3d 9c6f 82be 4c5f e2bd
00000290: 6d33 fdbc 3fce a33e abac 53be 6e64 8c3e
000002a0: ccec c13d 5c3a 52be 56d5 07be 2ee3 ce3c
000002b0: 09f5 5bbb be41 8abd 2b01 053e f672 33bd
000002c0: 1a31 d83e 5ad6 a3be bb52 033f 45b4 e83d
000002d0: ad85 bfbe ecca 8d3e a632 3c3d 3469 583b
000002e0: 0b02 bcbf b348 ca3e d582 cfbf 4abd 0bbf
000002f0: bdc2 373d 4443 7f3e e07b 83bd 41ae afbd
00000300: 8502 13be 7b42 a7be 2c33 25be e674 0ebd
00000310: 267d b3be e681 5abe 9cf1 0b3e 904f 43be
00000320: 0911 b6bf d10b 10c0 2d76 86bf 3366 14be
00000330: 0fdc f73e 6a90 493f 4419 243e 8f12 bfbd
00000340: a1da 0dbd 5dee 3ebf 2487 69bd 4072 5fbd
00000350: 547f b33b d414 a6bd 508a 7939 ad76 5bb7
00000360: 2ce2 6a3f 19b6 61bc 62c8 c1bb f42c 3d3b
00000370: 26b2 74bd 3c67 beb8 b408 c6b9 9079 04b9
00000380: 5c6a 0fbf 44d5 bbb8 450a f5be e900 b4be
00000390: 8f66 683e b5ce cfbe ecdb 603d ea4b adbb
000003a0: d4c1 41bf b393 393f 587c 2cbe 8133 923e
000003b0: a4de c23c ca0b 0dbe 5200 f6bb 2fa1 0b3d
000003c0: c009 fbbb c4a2 f0bd 7f43 48be 3428 573e
000003d0: cba5 873d fdbb 9a3e 4c66 4abe c60e 5d3e
000003e0: 7550 38bf 19ec e43c aab7 553d f06f cfbe
000003f0: cf6d 693b a1a3 2bbe f6b7 07bd 4c28 96bd
0.23083584 0.018038724 -0.14081426 -0.21338305 -0.19673462 0.08923613 -0.30904055 0.2857587
0.060805216 -0.22222507 0.12768856 0.07011647 0.15185866 -0.08271538 0.14585115 0.25338945
0.34583193 -0.36149383 0.5299615 0.3124169 0.19689387 0.16908951 -0.0030946843 9.4517614e-05
-0.012377434 0.9597643 -0.5500723 -0.22604193 -8.4554886e-05 -0.00090548047 -2.5307629e-05 0.0005407335
0.2727938 -0.07164615 -0.2966459 0.10749789 0.25217775 0.25914478 -0.35254017 -0.19683264
0.11031111 -0.12308182 0.25638556 -0.053716324 -0.21671462 0.1456861 -0.02824252 -0.31810343
0.100237556 -0.3192614 -0.14343035 0.26452848 0.29971263 -0.12576723 0.063657545 0.2594348
-1.6537548 0.056396592 -1.5572801 0.23874587 0.55208486 0.5647503 -0.30286035 -0.18300477
0.19663751 0.3054546 0.046853554 0.20235014 -0.26360086 -0.01826893 0.15376076 -0.1373312
0.06346406 0.85859793 -0.13249616 -0.06847631 -0.0014497673 0.008372175 -6.482426e-05 -0.00046708944
-0.16582483 -0.105445884 0.11743123 -0.0034270866 -0.0127556585 0.3440201 0.34716207 -0.20601653
-0.7361766 -0.7447301 0.30767584 -0.04807891 -0.007881418 -0.0058973916 0.0032686607 -0.0022166136
-0.6325626 0.01083433 -0.004765344 -0.14740106 0.004184192 -0.0035360088 2.8157894e-05 0.013618617
-0.0035231393 -0.297301 -0.05359663 -0.14895177 -0.3532218 -0.22583532 0.09307642 0.14747801
0.07920922 0.0042218496 -0.12814513 0.20831834 -0.33481714 0.092832685 0.04669516 -0.17066514
-2.61264 -3.8272471 -2.0799444 -1.2046912 -0.16166857 -0.05288348 0.07924256 0.00268194
0.35266873 -1.5320032 -0.2672073 -0.80725497 0.09133027 0.2604927 0.013116326 0.032859195
-0.6390472 0.0006204046 -0.22599715 -0.3310856 0.0004108114 -0.16978557 -0.0009929143 -0.08376645
-0.68817586 -0.6182658 0.2230085 -0.060799163 -0.015184281 -0.013086449 -0.002211286 -0.0030759594
-0.34809804 0.46743354 -0.40384167 0.041053828 0.04173182 0.08382176 -0.0015356662 0.008787858
0.3098627 0.10125593 -0.25475776 -0.11053333 -0.03090831 0.3199329 -0.20671336 0.27420372
0.094689935 -0.20530075 -0.13264975 0.025254812 -0.00335628 -0.067508206 0.12988727 -0.043810807
0.42224962 -0.31999475 0.5129811 0.11362509 -0.37406674 0.2769388 0.04594674 0.003302169
-1.4688123 0.3950859 -1.6211802 -0.5458571 0.04486345 0.24928004 -0.06420112 -0.08578158
-0.1435643 -0.32667908 -0.16132802 -0.03477945 -0.35056418 -0.21338615 0.13666385 -0.1907332
-1.4223949 -2.2507212 -1.0504814 -0.14492111 0.4841008 0.78735983 0.16025263 -0.09329712
-0.03463233 -0.74582464 -0.057013646 -0.054552317 0.005477825 -0.081094414 0.00023798016 -1.3081049e-05
0.9175136 -0.013776326 -0.00591378 0.0028865905 -0.059740208 -9.079135e-05 -0.00037771987 -0.00012633787
-0.56021667 -8.956579e-05 -0.47859398 -0.35156944 0.22695373 -0.40587392 0.054897234 -0.0052885907
-0.75686383 0.72490996 -0.16844308 0.2855492 0.023787804 -0.13774028 -0.0075073624 0.034089264
-0.0076610744 -0.11749795 -0.19556998 0.2101143 0.066234194 0.3022155 -0.19765586 0.21587667
-0.7199777 0.027944611 0.05217711 -0.4051509 0.003561843 -0.16761638 -0.033134423 -0.07331905

bias f4 [32]
00000000: 9279 aa3c 58ad 3dbb 71e8 32bd 3135 c33d
00000010: c886 583d 3be9 613e 1087 403e 5016 a93d
00000020: acd5 e8bd f888 a13c 87a0 043e d693 21bc
00000030: 30cd f13d 5ece 2ebd 98a2 bdbd b502 9bbd
00000040: aaf8 65bc 27ae 95bd f298 033c 57e0 793d
00000050: 1bda 31bd ece6 c93d 487f d6bd fc7c bfbd
00000060: 008b d8bc 940a 98bd 38d3 bdbd bf92 413e
00000070: b61b b23d 4033 abbd 887c ad3b b8a2 f4bd
0.020809922 -0.0028942432 -0.043678705 0.0953163 0.052862912 0.22061627 0.18801522 0.08256209
-0.1136888 0.019718632 0.12951861 -0.009861907 0.118067145 -0.042677276 -0.09259528 -0.07568876
-0.014036337 -0.073086075 0.0080320705 0.061004963 -0.043420892 0.09858498 -0.10473496 -0.09350011
-0.026433468 -0.074238926 -0.092688024 0.18903635 0.08696692 -0.083593845 0.0052943863 -0.11945099

weight_g f4 [32, 1, 1]
00000000: 5749 1a3f f9bf 3b3f 4793 4540 4448 b83f
00000010: 1e79 073f 3995 d43f bec5 8b3f 026b 013f
00000020: 960b 053f a92d 5c3f a4c2 c23f 6bc1 2b3f
00000030: e3a6 3940 3739 073f 769d 183f 482d 183f
00000040: 0a1e 113f 2c00 123f 2c40 093f 7e6e aa3f
00000050: b817 203f 042c 083f e3ca 1b3f 6de8 0d3f
00000060: 23c3 063f ca68 093f c67a 0b3f fd55 2640
00000070: b8a5 803f 1209 163f cea7 113f 3ede 193f
0.6026816 0.733398 3.087114 1.4397054 0.52919185 1.6608039 1.0919721 0.50553906
0.51970804 0.8600717 1.521565 0.6709201 2.900811 0.5282168 0.59615266 0.59444094
0.5668646 0.5703151 0.53613544 1.331497 0.6253619 0.5319216 0.60856456 0.5543278
0.52641505 0.5367552 0.5448421 2.5989983 1.0050573 0.5860759 0.56896675 0.6010474

weight_v f4 [32, 32, 2]
00000000: bbbf f2bd 0975 ffbd 0127 023e 0c07 9f3d
00000010: 38c6 c9bd 4182 13bd 3847 8bbd d1b3 1bbe
00000020: 9fcf d33d a5a2 1dbe 7b8b 0abe bf58 953d
00000030: 942e b33d f4d4 80bd 35d2 1dbe db5d f6bd
00000040: 0f28 0abe b6e4 18be cfb3 0cbe 93b6 0c3e
00000050: 70e1 13be 27c8 0fbe 1986 993d 1121 8f3d
00000060: b9cc c0bd f064 04bd 20d6 d5bd b76a 9cbd
00000070: cdcb e8bd 5b73 a8bd dcbf 79bd 79bd b03d
00000080: 0146 26bd b6df ddbd c213 52bd 626b bdbc
00000090: 9614 2b3d 94ac 98bc 9433 0c3c 8e8f f3bd
000000a0: ff98 bb3d 74e7 55bd 03b8 b03d cdbb 0a3e
000000b0: a704 0fbe 22a5 1abe e2a7 1cbe 5c89 543d
000000c0: 3672 fb3d f4e2 5a3d 8212 10be 9716 fbbd
000000d0: 4cc9 5cbd 61ba b7bc fcb7 68bd 7a81 e3bd
000000e0: 075e bcbd 2eb5 6d3d 1f26 d0bd efa8 b53d
000000f0: e12f bbbd d62d 9c3d 4428 84bb 596a 9cbc
00000100: 087b 292f 2b46 d011 f472 3315 522a c487
00000110: 1ce2 27be 8212 a9bd 50d5 3cbd c17e 28bd
00000120: 8a63 9894 75d1 493b e959 1839 606b b912
00000130: 42f4 4832 ffcb 7229 d9d1 98bc d138 f5bd
00000140: 0922 0b94 c049 d88a ea32 89bd 416a 13be
00000150: da4a e205 2b0f 6e15 99ce 93bd 2779 b3bb
00000160: f302 73bd 3777 dcbc 7579 c085 b99e 0011
00000170: 34a5 06b4 ec17 9c3a 24bd 63bd 032e 5fbd
00000180: fbfd 8cbd 4509 20be 3a70 3fbd 3aa5 f3bd
00000190: 1e6e 4ebd 69d8 2bbd 4224 31be 0170 d5bd
000001a0: f9a0 4d3b 1876 719a 6190 4b2f 5c5c dd93
000001b0: 26e4 38bd edc3 94bd 706c 8bbd fd5c 04bd
000001c0: b51b 0038 ccac 4739 df75 9ebd 5eae 06be
000001d0: 302b 24be 6b01 6ebe 3fb3 87bd 8512 44bd
000001e0: f178 9fbd 035f f6bb 7749 fcbc 0fb3 babd
000001f0: a93c 0837 de21 3836 1be8 b0bd 7cb3 58bd
00000200: c804 1d00 545b 1d80 ec5c 0d00 b815 1c80
00000210: 218a 463d fd6d 69be 597c fe3e 2a96 863f
00000220: 4403 1c80 a400 1d00 e458 1c80 5075 1b00
00000230: 3054 1d00 b07e 1d80 70b0 01bd 9bd4 953d
00000240: c803 1d80 cc3d 1d80 3d3a cf3e 6f5f f13e
00000250: ac7d 1400 2406 1c80 c352 0d3b 3a95 56bf
00000260: fb4c e8bb 1519 3b3c fc19 1d00 3056 1d00
00000270: d44f 1380 d051 1d80 ddfa dc3d 43b0 43be
00000280: 60f6 8c3d dcb9 9cbe 8625 8dbc ffe9 6e3c
00000290: 4b48 e93c 22d1 4ebf 67db 30be a385 633d
000002a0: 30f0 1b80 b886 0d80 c806 1d80 4804 1d00
000002b0: 0703 cf3c 0180 0cbe 3b5f bcbd 92a0 753d
000002c0: fcd6 0c00 6458 1c80 d9ea e33c d18b 53be
000002d0: 0725 023b 98c7 51bf a0c9 fe3e 08e7 003f
000002e0: f59f 003d 96e2 ca3c 6fe0 d2be 672b 4f3d
000002f0: 345c 1d00 204a 1d80 905f 743b 2a6d 7e3c
00000300: 70eb 6c00 60ec 6c00 d8bb 7100 c079 6000
00000310: e207 69be 6c4e 593e 426a 973f 8df2 52be
00000320: 7881 6000 80db 5f00 38e9 6c80 78f5 6c80
00000330: 38f5 6c80 e87d 6000 5ceb 6abd c7d1 0fbf
00000340: 9078 6080 900d 6980 6cf8 2f3f 8153 8a3c
00000350: b8ef 6c80 68f2 6c80 694b 92bc 9f39 ecbb
00000360: 49c7 b83c 6dca 20bd 8891 6080 e86a 6080
00000370: d8e4 6c00 906f 6c00 af04 22bf 8d67 27bf
00000380: a0bc 70bf 0cbc a33d 9129 ae3c b54c 14bd
00000390: 0b66 f6bc ebc7 e9bb d6d2 e33d 903c 0cbe
000003a0: 6087 6000 d0ed 6c00 a810 6000 4864 6c00
000003b0: e1de 50be 652b c53d 8f1b a1bb a503 4cbf
000003c0: 6061 6c80 a053 5e80 6870 0dbf 0d0d 34bf
000003d0: c5e2 323c 2fdd df3c a94f 1d3f 5d7c b83f
000003e0: 7991 d63c ec45 19bc 7603 bc3d 6ee1 0dbe
000003f0: e881 6080 d8e7 6c00 0a96 b9bc 2598 d23a
-0.11852976 -0.124734946 0.12710191 0.07765016 -0.0985226 -0.03601289 -0.06800693 -0.15205313
0.10342335 -0.15394075 -0.1352977 0.072923176 0.087491184 -0.062906176 -0.15412219 -0.1202962
-0.13491844 -0.14930996 -0.13740467 0.13741522 -0.14441466 -0.14041196 0.0749628 0.06988729
-0.09414048 -0.032322824 -0.10441232 -0.07637542 -0.11366997 -0.08225127 -0.060973987 0.08629889
-0.040594105 -0.10833685 -0.051288374 -0.023122493 0.04176768 -0.01863698 0.008557219 -0.11892615
0.09160041 -0.052222684 0.086288475 0.13548203 -0.13966618 -0.15102056 -0.15298417 0.05188881
0.122776434 0.053439096 -0.1406956 -0.12260168 -0.05390291 -0.02242774 -0.056816086 -0.1110868
-0.09197622 0.058034115 -0.10163521 0.08870112 -0.091399916 0.0762593 -0.0040331203 -0.01909368
1.541417e-10 3.2859858e-28 3.6239444e-26 -2.9515676e-34 -0.16394848 -0.08255483 -0.04610187 -0.041136507
-1.5387339e-26 0.0030795012 0.00014529344 1.1701611e-27 1.169707e-08 5.3911733e-14 -0.01865475 -0.119737275
-7.024419e-27 -2.0827785e-32 -0.06699164 -0.14396001 2.1280434e-35 4.8075683e-26 -0.0721714 -0.005477089
-0.059328984 -0.026912315 -1.810021e-35 1.014633e-28 -1.2539823e-07 0.0011908985 -0.0556003 -0.05448724
-0.068843804 -0.15628536 -0.046737887 -0.11896749 -0.050397985 -0.04195443 -0.17298988 -0.10421754
0.0031376465 -4.9933027e-23 1.8514036e-10 -5.5879317e-27 -0.045139454 -0.072639324 -0.06807792 -0.032315243
3.0543382e-05 0.00019042491 -0.07737326 -0.13152453 -0.160321 -0.23242728 -0.06625985 -0.047869224
-0.077867396 -0.0075186505 -0.03079675 -0.09116184 8.120355e-06 2.743785e-06 -0.086380206 -0.052905545
2.664945e-39 -2.695992e-39 1.227196e-39 -2.579185e-39 0.048471574 -0.22795863 0.49704245 1.0514576
-2.572565e-39 2.663459e-39 -2.603282e-39 2.521642e-39 2.69343e-39 -2.708676e-39 -0.031662405 0.07315942
-2.664586e-39 -2.685398e-39 0.4047412 0.47143123 1.881792e-39 -2.573597e-39 0.0021564222 -0.8382145
-0.007089255 0.011419554 2.672551e-39 2.694148e-39 -1.773511e-39 -2.692578e-39 0.10790036 -0.19110207
0.0688293 -0.3061055 -0.017229807 0.014582156 0.028476855 -0.8078786 -0.17271195 0.055547368
-2.565721e-39 -1.24219e-39 -2.665662e-39 2.664765e-39 0.025269998 -0.13720705 -0.09197851 0.059967585
1.179148e-39 -2.603102e-39 0.027821945 -0.20658804 0.0019858496 -0.8194518 0.49763203 0.50352526
0.031402547 0.024766248 -0.41186854 0.0505785 2.696306e-39 -2.68982e-39 0.0037288405 0.015528956
1.0002693e-38 1.0003029e-38 1.0444797e-38 8.859883e-39 -0.22756913 0.21221322 1.1829302 -0.20600338
8.862652e-39 8.803114e-39 -1.0001897e-38 -1.0006291e-38 -1.0006201e-38 8.861374e-39 -0.057353362 -0.5617947
-8.859457e-39 -9.647592e-39 0.68738437 0.01688552 -1.0004228e-38 -1.0005193e-38 -0.017858224 -0.0072090174
0.022555964 -0.03925555 -8.868414e-39 -8.854558e-39 1.0000327e-38 9.958255e-39 -0.63288397 -0.6539238
-0.9403782 0.079948515 0.021260055 -0.036205966 -0.030077955 -0.007134428 0.11124198 -0.13694978
8.864771e-39 1.0003545e-38 8.822183e-39 9.954208e-39 -0.20397522 0.096274175 -0.0049166153 -0.7969306
-9.953165e-39 -8.662536e-39 -0.55249643 -0.70332414 0.010918324 0.027327148 0.61449677 1.4412953
0.026192414 -0.00935505 0.091803476 -0.13855526 -8.862809e-39 1.0001403e-38 -0.022654552 0.0016067071

weight f4 [32, 32, 2]
00000000: 5bea b6bd c67d c0bd de24 c43d eea8 6f3d
00000010: 540a 98bd ff4c debc a0e5 51bd 18a6 eabd
00000020: 6b9a 9f3d d08f edbd b2ca d0bd 0b12 613d
00000030: 4204 873d 6a27 42bd 7fd7 edbd 34a4 b9bd
00000040: dd34 d0bd 606a e6bd 120b d4bd 3e0f d43d
00000050: 71dc debd 22af d8bd 985d 673d 54b3 573d
00000060: 2047 91bd ce85 c7bc 1e21 a1bd bab9 6bbd
00000070: 726a afbd 5cdc 7dbd c130 3cbd 3b2d 853d
00000080: 6994 fabc 8c2f a7bd f54b 1ebd 14bb 8ebc
00000090: 78e9 003d c815 66bc d349 d33b f486 b7bd
000000a0: a65b 8d3d 2c2e 21bd 1e29 853d 8413 d13d
000000b0: 8288 d7bd 2a0e e9bd e915 ecbd 6026 203d
000000c0: 0c78 bd3d 49ef 243d 301f d9bd 0233 bdbd
000000d0: c15d 26bd 3371 8abc 835b 2fbd f16d abbd
000000e0: 1df0 8dbd e71d 333d ffd7 9cbd 41e2 883d
000000f0: 700c 8dbd fb5d 6b3d 5f2a 47bb 2cb9 6bbc
00000100: bcc1 572f 4592 0412 7472 6415 49ba f987
00000110: 28b9 55be ab3c d7bd c464 70bd 9380 56bd
00000120: 87ff c194 4876 803b 45f3 4139 350c ec12
00000130: f6d2 7f32 c28b 9a29 f48b c2bc ec16 1cbe
00000140: 701f 3194 27ac 098b 20a9 aebd 93aa 3bbe
00000150: 5a0a 1006 c387 9715 512a bcbd 577a e4bb
00000160: bcae 9abd e454 0cbd 6e07 f585 44bd 2311
00000170: eb68 2bb4 ddb6 c63a 0cf6 90bd 250f 8ebd
00000180: 567d b3bd cfbb 4bbe c7b5 73bd 0716 1bbe
00000190: cc65 83bd 69c4 5abd 7882 61be a6db 07be
000001a0: 38e3 823b 20b2 999a c292 812f bee6 0c94
000001b0: 0e60 6bbd a162 bdbd 287e b1bd 3081 28bd
000001c0: 7b16 2338 1732 7e39 44ba c9bd 9674 2bbe
000001d0: 97fe 50be 027f 97be b2c0 acbd fd9b 79bd
000001e0: 1304 cbbd 2fd2 1cbc 2b96 20bd 5cad edbd
000001f0: a16f 2d37 ba68 6a36 e435 e1bd 73ef 89bd
00000200: 7d12 2900 fc8c 2980 e0e9 1200 20c0 2780
00000210: ef80 8c3d e331 a5be 9118 343f 747d be3f
00000220: 02a6 2780 a00c 2900 331f 2880 17dd 2600
00000230: e182 2900 07bf 2980 f78e 37bd dc10 d43d
00000240: 1211 2980 2f63 2980 e8a6 123f edd0 2a3f
00000250: 9400 1d00 14aa 2780 6706 483b 78db 97bf
00000260: 5c65 24bc 1668 843c 8030 2900 b585 2900
00000270: 5b55 1b80 847f 2980 6762 1c3e 6b7c 8abe
00000280: a383 c73d 59d3 ddbe 5fc6 c7bc 7c13 a93c
00000290: 3617 253d 865c 92bf 8651 7abe 9d03 a13d
000002a0: 018b 2780 0925 1380 5115 2980 c811 2900
000002b0: d67f 123d 19dc 46be e64e 05be b2d3 ad3d
000002c0: 4e2c 1200 7d1e 2880 3e4b 213d 4fb5 95be
000002d0: fb33 383b 4775 94bf 424f 343f e671 363f
000002e0: 4d0d 363d 3594 0f3d 063c 15bf 689c 923d
000002f0: 398e 2900 a274 2980 85f0 ac3b d30d b43c
00000300: 943f 3700 0e40 3700 b4b0 3900 acef 3000
00000310: a267 ecbd e273 dc3d 7d9b 193f 7300 d6bd
00000320: 97f3 3000 679f 3000 743e 3780 ab44 3780
00000330: 8a44 3780 c8f1 3000 1c52 eebc dbe6 91be
00000340: 12ef 3080 7949 3580 ab84 b23e 3954 0c3c
00000350: c041 3780 1d43 3780 aa69 14bc 35a5 6fbb
00000360: 2f74 3b3c 691e a3bc bcfb 3080 25e8 3080
00000370: 3c3c 3700 be00 3700 385d a4be 0dd4 a9be
00000380: f038 f4be f11a 263d 1daf 303c 6472 96bc
00000390: 57f7 79bc 722a 6dbb 491f 673d 5d44 8ebd
000003a0: 95f6 3000 c940 3700 5dba 3000 05fb 3600
000003b0: 13e5 d3bd 3806 483d b870 23bb d7f7 cebe
000003c0: 8cf9 3680 a1d8 2f80 aa7c 8fbe 6da8 b6be
000003d0: d379 b53b f41a 633c bf96 9f3e 2d28 3b3f
000003e0: caac 593c 0b7e 9bbb 5abc 3e3d 52ef 8fbd
000003f0: cff3 3080 c23d 3700 ee45 3cbc baa4 553a
-0.089314185 -0.093989894 0.09577344 0.058510713 -0.07423845 -0.027136324 -0.051244378 -0.11457461
0.07793125 -0.11599696 -0.10194911 0.054948848 0.06592609 -0.04740087 -0.11613368 -0.090645224
-0.10166333 -0.11250758 -0.10353674 0.1035447 -0.108818896 -0.10580279 0.056485742 0.052661255
-0.07093644 -0.024355795 -0.07867645 -0.05755017 -0.08565225 -0.06197773 -0.045944933 0.06502768
-0.030588346 -0.08163366 -0.038646657 -0.01742319 0.031472653 -0.014043279 0.0064480095 -0.08961287
0.06902246 -0.039350674 0.06501983 0.102088004 -0.10524084 -0.11379655 -0.115276165 0.039099097
0.09251413 0.040267263 -0.10601652 -0.092382446 -0.040616754 -0.01689968 -0.04281188 -0.08370579
-0.069305636 0.04372969 -0.076583855 0.066837795 -0.06887138 0.057462674 -0.0030390245 -0.01438741
1.9622964e-10 4.1832147e-28 4.613452e-26 -3.7574845e-34 -0.20871413 -0.10509618 -0.058689848 -0.05236871
-1.9588808e-26 0.00392035 0.00018496539 1.4896703e-27 1.48909205e-08 6.863218e-14 -0.023748375 -0.15243119
-8.942416e-27 -2.6514753e-32 -0.08528352 -0.18326788 2.7090995e-35 6.120261e-26 -0.09187759 -0.006972592
-0.07552859 -0.034260646 -2.3042419e-35 1.2916755e-28 -1.5963785e-07 0.0015160699 -0.0707818 -0.06936482
-0.0876414 -0.19895862 -0.05949953 -0.15145122 -0.064159006 -0.053409968 -0.22022426 -0.13267383
0.0039943717 -6.3567093e-23 2.356924e-10 -7.1136996e-27 -0.05746465 -0.092473276 -0.086666405 -0.041138828
3.8883165e-05 0.00024241988 -0.098499805 -0.16743693 -0.20409618 -0.29589087 -0.08435191 -0.060939778
-0.099128865 -0.009571596 -0.03920571 -0.11605331 1.0337594e-05 3.4929676e-06 -0.10996607 -0.067351244
3.771888e-39 -3.815831e-39 1.736937e-39 -3.650506e-39 0.0686053 -0.32264623 0.70349985 1.4882035
-3.641137e-39 3.769784e-39 -3.684612e-39 3.569061e-39 3.812206e-39 -3.833783e-39 -0.044814076 0.10354778
-3.771379e-39 -3.800836e-39 0.5728593 0.66725045 2.663437e-39 -3.642597e-39 0.0030521394 -1.1863852
-0.010033932 0.016162913 3.782654e-39 3.81322e-39 -2.510178e-39 -3.811e-39 0.15271913 -0.27048048
0.097419046 -0.43325308 -0.024386583 0.020639174 0.04030534 -1.1434486 -0.24445161 0.07862017
-3.63145e-39 -1.75816e-39 -3.772902e-39 3.771634e-39 0.035766445 -0.19419898 -0.13018379 0.08487643
1.668932e-39 -3.684357e-39 0.039378397 -0.2923989 0.0028107155 -1.159829 0.7043344 0.71267545
0.04444628 0.03505345 -0.58294713 0.071587384 3.816275e-39 -3.807095e-39 0.0052776956 0.021979248
5.07376e-39 5.073931e-39 5.298012e-39 4.494082e-39 -0.11543204 0.107642904 0.6000288 -0.104493044
4.495487e-39 4.465287e-39 -5.073356e-39 -5.075586e-39 -5.07554e-39 4.494839e-39 -0.029091887 -0.2849644
-4.493866e-39 -4.893638e-39 0.34866843 0.008565002 -5.074539e-39 -5.075028e-39 -0.009058395 -0.0036566977
0.011441275 -0.019911962 -4.498409e-39 -4.491382e-39 5.07256e-39 5.051219e-39 -0.3210237 -0.33169594
-0.4769969 0.040553037 0.010783938 -0.018365093 -0.015256724 -0.003618863 0.05642632 -0.06946633
4.496561e-39 5.074193e-39 4.474958e-39 5.049166e-39 -0.10346427 0.048834056 -0.0024939012 -0.40423462
-5.048637e-39 -4.39398e-39 -0.280248 -0.35675374 0.005538204 0.013861407 0.31169698 0.7310818
0.013285825 -0.00474525 0.046566345 -0.070280686 -4.495566e-39 5.073107e-39 -0.011491282 0.00081498513

weight f4 [32, 4, 1]
00000000: b526 bbbc 6637 f0bb 1f13 c63c 9d6c b23a
00000010: d947 12be 13cf 8e40 0aa1 eabf c086 da3e
00000020: edf6 033d d789 2cc0 d8dc 993e ed97 f3c0
00000030: 3a95 6ebc 1122 02bf 134a e83b 3be7 6140
00000040: fb48 4ebc c85c 5b3b 175d 263a 1eb9 9c3c
00000050: 0ca1 483e 2f24 d93f c08d a3c0 8ed3 bac0
00000060: 7ffa 1abe 1738 393f 0cd8 633e ef2f 0a3d
00000070: 13aa c4bc d870 99bc a1dc 5cba 31cd 4e3c
00000080: 55bc 093f 87d8 6d3f e16b 933f 646d 35bf
00000090: 2515 593f 8a86 513f f3c8 d1bf d084 d4bf
000000a0: 965e 04bd d299 8ebf d281 a43f ee61 2740
000000b0: aa6a 1a3d f17b 2ebf 892e 08c1 12db bec0
000000c0: 2a5a ea3d 3a63 f23f c8c5 82c0 f620 ab40
000000d0: 5ccf f1bd 9c9b b5bf 8597 95bd 5fa2 24c1
000000e0: e69d 623c 06b9 7ebc cfa0 6b3c 62e4 ba3b
000000f0: 6dcf a7bc 56d3 9bbc 53fe 363c 5466 2fba
00000100: 24e2 063a e724 f639 5623 913b 9db6 8b3b
00000110: 729f 01bc 6701 1fbb fa2d 01bb d268 68bb
00000120: e0f0 133d 3335 4dbc fe4a 633b 3bd5 803b
00000130: 68b2 1ebe 2b39 aabf cf5c dd3e afea 40bf
00000140: fc52 083e 04ec c4c0 0c86 c6bf 0355 1c40
00000150: ea65 c8c0 8ff5 aec0 1432 84c0 29dc 9abe
00000160: ec53 33bc 9efe fd3a 8d0e 12bc 8c76 c13b
00000170: 77d6 393a 0a6c abbb 8a8c 443b 2a47 a5bb
00000180: e949 20bc e729 dbbc 2de1 acbc 7a99 2cbb
00000190: da4d 36be 21fc a3c0 897e 1abf 4cd8 0241
000001a0: 7b6b 333c 1b55 fc3c 60d6 7b3c e963 27bc
000001b0: 375b a83e c17a db3d ca0b 15bf 2c4a aec0
000001c0: ab4f 83ba 77fa 503e f2ea b53d 327f 2340
000001d0: e5d7 7abc 6225 733c e356 223c 49b0 c53b
000001e0: 8835 13bc 5e1a febc ea26 99bb 9a63 003c
000001f0: d5fa 95bc 6697 3abc bea5 9bbc 7197 84bc
-0.022845605 -0.0073308228 0.02417904 0.0013612692 -0.1428522 4.4627776 -1.8330395 0.4268093
0.03221791 -2.695913 0.30051303 -7.6122956 -0.014561946 -0.5083323 0.0070889085 3.5297382
-0.012590642 0.003347205 0.0006346269 0.01913124 0.19592685 1.6964167 -5.1110535 -5.8383245
-0.15134619 0.7235121 0.22250384 0.03373712 -0.024006879 -0.018730566 -0.000842521 0.012622164
0.53802997 0.9290852 1.1517297 -0.7087004 0.8479789 0.81845915 -1.638945 -1.6603031
-0.032316767 -1.1140692 1.2852118 2.6153522 0.03769938 -0.6815787 -8.511361 -5.964242
0.11442979 1.8936532 -4.086643 5.3477736 -0.11807129 -1.4188113 -0.07304291 -10.289641
0.013831591 -0.015547043 0.0143816015 0.005703495 -0.02048465 -0.019021671 0.011169034 -0.00066909683
0.0005145392 0.0004694827 0.004429261 0.0042637126 -0.00791155 -0.002426231 -0.0019711242 -0.0035462868
0.03611839 -0.012524891 0.003468215 0.003931669 -0.15497744 -1.3298696 0.4323487 -0.753581
0.13312906 -6.1538105 -1.5509658 2.4426887 -6.2624407 -5.4674754 -4.131113 -0.30246094
-0.0109453015 0.001937825 -0.008914602 0.0059040245 0.00070891477 -0.005231385 0.0029990994 -0.005043884
-0.009783247 -0.026753379 -0.021103466 -0.0026336596 -0.17803136 -5.1245275 -0.6034933 8.177807
0.010950918 0.0308023 0.015370935 -0.0102166915 0.3288209 0.10716773 -0.58221114 -5.446554
-0.001001825 0.20408045 0.08882703 2.5546384 -0.015310262 0.014840456 0.009908411 0.0060329777
-0.008984931 -0.031018432 -0.0046738284 0.007836247 -0.018308083 -0.011388635 -0.01899993 -0.016185494

bias f4 [32]
00000000: 0d79 54be 6057 963d 1ba5 e53c d908 373a
00000010: c991 e7be 6d3f a0bc 1d07 23bd 8ac2 8cbe
00000020: 2534 adb9 0cb2 af3b 7b4d 333d ec2a db3d
00000030: 0f02 94bb 1ae1 a13d 0a81 a8be 977c c0bd
00000040: ea24 84be 285b 8cbe ad35 51be bed0 ca3d
00000050: fe82 433d 10a4 cebd 756a 74be a6b7 93be
00000060: d759 2bbe 78ec 4b3e 6289 94be 2ef7 253b
00000070: 60f1 f7bc 823e 96be 587e a3be 7a51 1cbe
-0.20749302 0.07340884 0.02803283 0.00069822144 -0.45228413 -0.019561494 -0.039801706 -0.27492172
-0.00033035982 0.005361801 0.043775063 0.10701546 -0.004516847 0.07904263 -0.3291095 -0.093987636
-0.25809413 -0.27413297 -0.20430632 0.09903096 0.047732346 -0.10089886 -0.23868735 -0.2885105
-0.1673349 0.19914424 -0.29011065 0.0025324333 -0.030266464 -0.29344565 -0.3193233 -0.15265456

bias f4 [32]
00000000: d5a1 01be 6923 dbbd fb26 1fbd 3091 5abd
00000010: f43d ccbd f640 a63d 64ff c53d 1024 1fbd
00000020: 345e 0cbd b1b5 023e 7d9d 30bd f613 2bbd
00000030: 1111 56bd a1c2 e73d c4e3 a2bd 6908 893d
00000040: a315 92bd 359c aebd 0722 b3bd b600 873d
00000050: 1863 3b3d 1d63 11be 07e1 d3bd 46c7 79bd
00000060: a93f 943d fdc6 c5bd 4a2f 023e 6255 343d
00000070: 16b9 dcbd b93e 08bd dd55 7bbd e769 f63c
-0.1265939 -0.10700113 -0.038855534 -0.053361118 -0.09972754 0.08117859 0.096678525 -0.03885275
-0.034269527 0.12764622 -0.043118943 -0.041767083 -0.05226237 0.113164194 -0.07953599 0.06691057
-0.07133033 -0.08525888 -0.087467246 0.065919325 0.0457488 -0.14197965 -0.10345655 -0.060981058
0.07238705 -0.09657095 0.12713352 0.04402674 -0.1077749 -0.033262942 -0.061361182 0.030079795

weight_g f4 [32, 1, 1]
00000000: ec4d b43f 3730 133f 01b8 133f e063 c93f
00000010: 6a94 a63f ba8a 1840 ba56 db3f 82a7 183f
00000020: 246b 0c3f 25f8 0a40 c20c 633f 8b0d ce3f
00000030: d1dd bd3f caf0 e43f 5fd7 053f 3108 2440
00000040: 4792 043f d553 0d3f b1b3 0d3f 1bf8 7540
00000050: fb08 ec3f 4365 cc3f ac65 713f a5e6 d43f
00000060: 948c e23f 6209 143f 9b16 d23f 7d72 763f
00000070: e4cd 0d3f 223c 943f 2a50 f13f a0a0 b33f
1.408628 0.57495445 0.5770264 1.5733604 1.3014042 2.3834672 1.7135842 0.59630597
0.54850984 2.1713955 0.8869134 1.6097883 1.4833318 1.7885983 0.52281755 2.563
0.517857 0.5520604 0.5535231 3.8432682 1.8440241 1.5968403 0.94295764 1.6632887
1.7699151 0.5782682 1.6413149 0.96268445 0.5539229 1.1580851 1.8852589 1.4033394

weight_v f4 [32, 32, 2]
00000000: 9274 2237 900f b933 f376 8cbe 2094 70bd
00000010: e7cd cb3d def7 c23e 70fa 583e 88ae 6f3e
00000020: b7b4 011b fbc7 9cb0 6cf5 493e 4c2b 2f3e
00000030: bd01 183e 23e9 2d3d b386 88b7 5499 5ca4
00000040: 1c3e 053e c0f3 d6be b0db 623e b28f f5be
00000050: be89 863d fb53 b93d 40c5 35be fb98 d23c
00000060: 079f 2abd b4ce 1e3e 382d e2bd e85f 2d3d
00000070: 8c9b ffb3 9697 be97 d689 c1ba 02b1 9eb7
00000080: abc4 dfb7 32ec 69a5 c81d 823b 9fa7 0035
00000090: e7d7 85b1 c326 3b18 150b bdbe b97f 14be
000000a0: 7f74 7a3e c0a3 f73e 006d 2a3e 0625 e0bd
000000b0: 2989 88b7 fb30 2616 348f 7fb1 cd1d 0319
000000c0: 8c70 282c 6ad7 8eb6 61fc f5bd 6b73 2d3e
000000d0: ea8f 0636 a993 8e11 f10f 38bc 2433 63be
000000e0: c7a3 bd3d 960e 953e 1157 a026 ae54 0aa9
000000f0: 42ad 7fa6 e806 3335 c887 6dac 6f50 7a29
00000100: 3b9a 4abd 8bad ddbd 109b a23b 5eb0 04be
00000110: e6fc 3f3d 992c 09bd ce83 12be 371c 3cbd
00000120: d8c6 e9bd db96 e0bd b394 96bd 2d4d 6e3c
00000130: 988b dcbd 12bb 9f3c f361 76bb c272 afbd
00000140: e374 84bd 89e8 c2bc b5e7 10be 9c8f f83b
00000150: 8916 87bd 0f50 a33d af3c 0c3d 54a0 b83d
00000160: d1da 22bd 31fc 86bd 8b3d b53d 1787 42bd
00000170: c885 53bd cf5b 023d 985b e8bd 122f cf3d
00000180: cada 61bd 9827 e43d e7bf 05be 55c7 f7bd
00000190: 32ae 2ebd b283 00bc ad83 a9bc e05d 5cbd
000001a0: f794 e23c f7b0 ac3d 1f3d d8bd 53c8 3bbd
000001b0: e0fd 8cbd ab39 cebc ceb1 b0bd 7371 fabc
000001c0: 77b3 ff3d 1e25 acbd e24f 48bc d954 06bd
000001d0: 4dc6 02be cbcb 963d ab9c 643c 39d9 8abd
000001e0: 5d53 493d a7e4 ae3d e933 033e e11f 1e3d
000001f0: dc14 7c3d 709c babd 7fad 9abd 808a 43bd
00000200: 789e 2ebd 026a b2bd 87d2 133d bddc 8abd
00000210: 9568 cfbd a67e 08be 554f d0bd 6d41 b33d
00000220: d8a5 4d3d b502 ddbd f796 02be 1759 ec3d
00000230: 7d6d 16bd 414f 14be eef4 a73d c34c 533c
00000240: b525 dbbd 6c99 7abd 6227 46bc a094 1dbe
00000250: 8c80 cabc 860b 683d d0c2 2ebd 6a36 a0bd
00000260: bca1 1a3d cc09 0cbe 5e1b 6b3d 6936 963d
00000270: 1524 15bd 344a 483c a453 c73d 0c5b a7bc
00000280: b706 cb3a 42b5 b7bd 6731 d1bd ea74 923d
00000290: fb2e f43d 6d9c 973d 8f97 dabd b436 6abd
000002a0: 374d b43c 917f 923d 327c 5fbd 579b dd3b
000002b0: c182 f8bd 3209 2bbd 1aac 4f3d f7c4 b43c
000002c0: 2820 913d 0db3 81bd 6bb8 083d da43 863d
000002d0: 1a43 f93c 8f5a 47bd 9e9d 6abd ddb4 23bd
000002e0: 6eb6 8fbd 008e f8bd e508 893d 2f7b 643d
000002f0: f487 b5bd 6e58 703d e00b e0bb ce18 51bd
00000300: c98c 1f39 9322 ba96 cf7d fdbd 16a3 81bd
00000310: 5892 68bd 5ff0 083e 751c 04bf 0424 da3d
00000320: f46a 1a37 1b0f 0637 10fd acbe fc57 473d
00000330: f8ad e2be fec8 fb3d 4013 1a35 0582 2934
00000340: ab54 803d d5f7 ce3d 098d 963d 460c 9a3d
00000350: 4b88 9bbe 27dc 1a3e b607 113d 3a45 77be
00000360: 1fe5 043e 25da ef3b bd59 813c e7e6 febd
00000370: bcf6 2213 b895 3191 4b7b a1b8 98fc af28
00000380: ed83 f4a9 b075 c998 b869 b9b6 9b0e dfb6
00000390: ffcd 2a30 4c41 afb8 d036 883e 8d6e 85bd
000003a0: 4f04 bc3b 319c bcbe 587f 863d a36a aeb7
000003b0: ff44 84b2 4457 31b9 e9e1 9332 993e db2a
000003c0: 6495 a339 a75c bb0e d56e babc 0e5e e1be
000003d0: 5ccb 3aa2 ea3e d31d 1f81 33be 946c fd3e
000003e0: 68ba d4be 16ba 713d e509 593b c31a 5fb7
000003f0: 5033 c931 b63a 802f a3d2 0735 3626 e0aa
9.683094e-06 8.6175646e-08 -0.274345 -0.058735013 0.09951382 0.38079733 0.21189284 0.23406422
1.0729022e-22 -1.1407332e-09 0.19722527 0.1710636 0.14844413 0.042458665 -1.6275188e-05 -4.783477e-17
0.13011974 -0.41982841 0.22154117 -0.47961193 0.06569241 0.09049221 -0.17751026 0.025707712
-0.041655567 0.15508538 -0.11043781 0.04232779 -1.19026566e-07 -1.2316728e-24 -0.001476581 -1.8917493e-05
-2.6675252e-05 -2.0289555e-16 0.0039708354 4.7927637e-07 -3.8953547e-09 2.4188753e-24 -0.36922517 -0.14501847
0.24458502 0.4836712 0.16643143 -0.10944562 -1.6276334e-05 1.3424829e-25 -3.7188785e-09 6.7785595e-24
2.3936712e-12 -4.2570073e-06 -0.12011028 0.1693856 2.0051325e-06 2.2494652e-28 -0.0112342695 -0.22187477
0.09259754 0.2911269 1.112583e-15 -3.0715603e-14 -8.8705705e-16 6.6692746e-07 -3.37551e-12 5.5580916e-14
-0.049463492 -0.10824116 0.0049623325 -0.12957904 0.046872042 -0.033489797 -0.14308092 -0.045925345
-0.114148796 -0.109662734 -0.07352581 0.014544767 -0.10768813 0.019498382 -0.0037595003 -0.0856681
-0.06467607 -0.023792522 -0.14150889 0.007585479 -0.06596095 0.07974254 0.03423756 0.09014955
-0.03975946 -0.065910704 0.08849629 -0.047492113 -0.051641256 0.031825837 -0.11345595 0.101164
-0.055140294 0.111403644 -0.13061486 -0.120985664 -0.042646594 -0.007843899 -0.02069267 -0.053800464
0.027658923 0.08432191 -0.10558533 -0.04584534 -0.0688436 -0.025173983 -0.086276636 -0.030571675
0.12485402 -0.08405517 -0.012226077 -0.03279576 -0.12770958 0.07363089 0.013953368 -0.06779713
0.049151767 0.08539706 0.12812771 0.03860462 0.06154333 -0.09111869 -0.07552623 -0.047739506
-0.042631596 -0.08711626 0.036089446 -0.06780384 -0.10127369 -0.13329563 -0.101713814 0.08752713
0.05020699 -0.10791532 -0.12752901 0.1154043 -0.03672551 -0.14483358 0.082010135 0.012896719
-0.107005514 -0.06118147 -0.0120943505 -0.15388727 -0.024719499 0.056651615 -0.042666256 -0.07822879
0.0377519 -0.13675612 0.057399146 0.07334597 -0.036411364 0.012224723 0.0973275 -0.020429157
0.0015489672 -0.08970119 -0.10214501 0.07151206 0.11923023 0.07402883 -0.10673439 -0.057181075
0.022009475 0.071532376 -0.0545618 0.0067629027 -0.12134314 -0.041756816 0.05070124 0.022066576
0.070862114 -0.06332979 0.033379 0.065559104 0.030427504 -0.048670348 -0.05727922 -0.039967407
-0.070172176 -0.12136459 0.066911496 0.05578154 -0.088638216 0.058678083 -0.006837353 -0.051049046
0.00015215868 -3.007174e-25 -0.12377512 -0.06329934 -0.05678019 0.13372944 -0.5160592 0.10651401
9.204017e-06 7.990539e-06 -0.3378682 0.048667893 -0.44273353 0.122941956 5.7397483e-07 1.5786652e-07
0.06266149 0.10105864 0.07351119 0.07521872 -0.3037742 0.15123044 0.035407744 -0.24147502
0.12978028 0.007319706 0.01578986 -0.12446385 2.0568924e-27 -1.4008974e-28 -7.700043e-05 1.9538448e-14
-1.0858662e-13 -5.2076116e-24 -5.525737e-06 -6.647618e-06 6.213838e-10 -8.356813e-05 0.2660432 -0.065152265
0.0057378183 -0.36837915 0.06567258 -2.0792073e-05 -1.5398198e-08 -0.00016912544 1.7215784e-08 3.894565e-13
0.00031201087 4.618828e-30 -0.022757927 -0.4401707 -2.5315358e-18 5.5916287e-21 -0.17529725 0.494969
-0.41548467 0.059015356 0.003311747 -1.3298067e-05 5.8557035e-09 2.332478e-10 5.0597936e-07 -3.9816907e-13

weight f4 [32, 32, 2]
00000000: 58af 3137 d968 ca33 f8a1 99be e490 83bd
00000010: 03e9 de3d eb3e d53e b651 6d3e 5513 833e
00000020: 89dd 0d1b 947a abb0 3de4 5c3e 3197 3f3e
00000030: c241 263e d436 3e3d 3253 95b7 7f47 71a4
00000040: cebb 113e 651a ebbe 1220 783e 784a 06bf
00000050: 8726 933d aeb3 ca3d 92cf 46be 2057 e63c
00000060: c69d 3abd eeb1 2d3e 3e61 f7bd bca0 3d3d
00000070: f2c8 0bb4 9e75 d097 93ae d3ba 7491 adb7
00000080: e5be f4b7 1eda 7fa5 7350 8e3b 37b7 0c35
00000090: 0464 92b1 37b2 4c18 f1c3 cebe 8e6b 22be
000000a0: 97f7 883e 6f6d 073f 0f67 3a3e 4828 f5bd
000000b0: e455 95b7 6ac5 3516 31c2 8bb1 7868 0f19
000000c0: f03a 382c 793b 9cb6 e785 06be 13b6 3d3e
000000d0: 472d 1336 5ef1 9b11 4351 49bc b87f 78be
000000e0: f46a cf3d d007 a33e 145f af26 7d4c 17a9
000000f0: a1d2 8ba6 62cf 4335 24e6 81ac dee3 8829
00000100: d901 3dbd 7acd cebd c2b1 973b f991 f7bd
00000110: db1a 333d 55f0 ffbc ebae 08be c97c 2fbd
00000120: f116 dabd c684 d1bd f779 8cbd 8c4f 5e3c
00000130: fcbe cdbd 2703 953c 7fd9 65bb d7ac a3bd
00000140: fe22 77bd 53d4 b5bc 792e 07be bce1 e73b
00000150: e20b 7cbd 9c5a 983d a3d3 023d bf3c ac3d
00000160: 3ced 17bd bbda 7bbd 2114 a93d 6b79 35bd
00000170: 2b54 45bd ea38 f33c 0fc4 d8bd fc47 c13d
00000180: f9b2 52bd 44d8 d43d 9a8c f9bd e526 e7bd
00000190: 78f5 22bd 0dc8 efbb b223 9ebc 5594 4dbd
000001a0: a760 d33c 681a a13d 7dba c9bd 862e 2fbd
000001b0: de87 83bd 0d63 c0bc 7ad6 a4bd 3da3 e9bc
000001c0: ef8a ee3d f297 a0bd d9de 3abc 81a2 fabc
000001d0: 9cff f3bd 5cad 8c3d 7c45 553c 0888 81bd
000001e0: ead0 3b3d 4528 a33d 1dcc f43d 8e83 133d
000001f0: 812a 6b3d c216 aebd 624c 90bd 6c6b 36bd
00000200: dd80 24bd 1f14 a8bd 5142 0b3d 68d1 82bd
00000210: b564 c3bd 6d96 00be 163e c4bd 0fdf a83d
00000220: 14bc 413d 1c35 d0bd a20c f6bd 0aa8 de3d
00000230: a4b6 0dbd d1b7 0bbe 203a 9e3d 2d0f 473c
00000240: bf73 cebd 0615 6cbd c1ac 3abc b373 14be
00000250: 6fc5 bebc 499a 5a3d 1aa3 24bd 75ee 96bd
00000260: 8aac 113d 06ed 03be ba7c 5d3d c182 8d3d
00000270: 5180 0cbd e6af 3c3c 9ec7 bb3d 28a9 9dbc
00000280: d443 bf3a dd10 adbd 1013 c5bd f5f8 893d
00000290: bb09 e63d 07d4 8e3d d5ed cdbd 4fa5 5cbd
000002a0: 56db a93c fe02 8a3d e789 52bd e7c4 d03b
000002b0: 551d eabd ba20 21bd 51a4 433d 264c aa3c
000002c0: f0b7 883d 355f 74bd d9cc 003d 64f9 7c3d
000002d0: 89d2 ea3c 23ce 3bbd 4206 5dbd 1739 1abd
000002e0: 2b63 87bd ed27 eabd aa18 813d cc3e 573d
000002f0: d703 abbd 1a6c 623d 4211 d3bb e4fb 44bd
00000300: 4a55 3e39 2d0c de96 2433 17be 22a6 9abd
00000310: c5b8 8abd 125c 233e b499 1dbf 381d 023e
00000320: f835 3837 8fec 1f37 545d cebe fbcd 6d3d
00000330: 1235 07bf 972e 163e 58cd 3735 5f36 4a34
00000340: 3117 993d 6ae6 f63d 0f99 b33d 06c5 b73d
00000350: 5c8a b9be 03bd 383e 0d03 2d3d 377d 93be
00000360: 1589 1e3e 7810 0f3c a24e 9a3c 850a 18be
00000370: dc67 4213 01d9 5391 35a3 c0b8 f1f0 d128
00000380: 86d8 11aa 3454 f098 a72f ddb6 ee0b 05b7
00000390: 64c2 4b30 8211 d1b8 b67e a23e 072d 9fbd
000003a0: da4a e03b 0a00 e1be 7472 a03d 6f11 d0b7
000003b0: 10ca 9db2 808e 53b9 226a b032 c5c5 022b
000003c0: 1f25 c339 d982 df0e 2467 debc b66c 06bf
000003d0: 85d5 5ea2 c800 fc1d 3723 56be dd28 173f
000003e0: 7ec5 fdbe be2e 903d f274 813b 2e13 85b7
000003f0: 0605 f031 3af8 982f 3507 2235 b4b2 05ab
1.05908475e-05 9.42543e-08 -0.30006385 -0.0642412 0.10884287 0.41649565 0.23175701 0.25600687
1.1734829e-22 -1.2476726e-09 0.21571441 0.18710019 0.16236022 0.046439007 -1.7800925e-05 -5.2319104e-17
0.14231798 -0.45918575 0.24230984 -0.5245738 0.07185083 0.098975524 -0.1941512 0.028117716
-0.04556062 0.16962406 -0.12079094 0.046295866 -1.3018487e-07 -1.3471376e-24 -0.001615005 -2.0690939e-05
-2.9175959e-05 -2.2191625e-16 0.0043430864 5.2420677e-07 -4.2605297e-09 2.6456358e-24 -0.40383866 -0.15861341
0.26751396 0.5290136 0.18203376 -0.11970574 -1.780218e-05 1.4683356e-25 -4.0675094e-09 7.414024e-24
2.618069e-12 -4.656086e-06 -0.13137017 0.18526487 2.1931062e-06 2.4603442e-28 -0.012287441 -0.24267471
0.101278216 0.31841898 1.2168835e-15 -3.359508e-14 -9.702154e-16 7.294494e-07 -3.6919513e-12 6.079142e-14
-0.04614434 -0.10097785 0.0046293447 -0.12088389 0.043726783 -0.031242529 -0.13347976 -0.042843614
-0.10648907 -0.10230403 -0.068592004 0.01356877 -0.10046193 0.01818998 -0.0035072265 -0.07991951
-0.060336106 -0.02219597 -0.13201322 0.00707647 -0.06153477 0.07439157 0.031940114 0.08410024
-0.03709148 -0.061487895 0.082557924 -0.044305246 -0.048175972 0.029690225 -0.1058427 0.09437558
-0.051440213 0.10392812 -0.12185021 -0.112867154 -0.03978488 -0.007317549 -0.01930413 -0.05019029
0.025802923 0.07866365 -0.09850023 -0.042768978 -0.06422399 -0.023484731 -0.08048721 -0.02852022
0.11647593 -0.07841481 -0.01140567 -0.030595066 -0.11913988 0.06869003 0.013017055 -0.06324774
0.045853533 0.07966665 0.11952994 0.036014132 0.05741358 -0.085004345 -0.07045819 -0.04453604
-0.040161956 -0.08206963 0.03399879 -0.06387597 -0.09540693 -0.12557383 -0.095821545 0.0824567
0.047298506 -0.1016638 -0.12014128 0.10871895 -0.034598008 -0.13644339 0.0772593 0.012149614
-0.100806706 -0.057637237 -0.011393727 -0.14497261 -0.023287503 0.053369794 -0.04019461 -0.07369701
0.035564937 -0.12883386 0.054074027 0.06909705 -0.03430206 0.011516547 0.09168933 -0.019245699
0.0014592358 -0.08450482 -0.096227765 0.06736938 0.11232325 0.06974035 -0.100551285 -0.053868588
0.02073447 0.06738852 -0.051401045 0.006371129 -0.11431376 -0.03933785 0.047764126 0.020788264
0.06675708 -0.05966111 0.031445358 0.061761275 0.028664844 -0.045850884 -0.053961046 -0.0376521
-0.06610712 -0.114333965 0.063035324 0.052550122 -0.08350342 0.055278875 -0.0064412663 -0.048091784
0.00018151585 -3.5873718e-25 -0.14765602 -0.075512186 -0.06773523 0.15953091 -0.6156266 0.12706459
1.097982e-05 9.532217e-06 -0.4030558 0.058057766 -0.52815354 0.1466621 6.8471627e-07 1.8832496e-07
0.074751265 0.12055667 0.08769428 0.08973126 -0.36238372 0.18040852 0.042239238 -0.2880647
0.1548198 0.008731954 0.018836323 -0.14847763 2.453745e-27 -1.6711835e-28 -9.185673e-05 2.3308153e-14
-1.2953709e-13 -6.212357e-24 -6.5918607e-06 -7.930195e-06 7.4127215e-10 -9.969158e-05 0.31737298 -0.0777226
0.0068448605 -0.43945342 0.0783433 -2.480365e-05 -1.8369093e-08 -0.00020175613 2.053736e-08 4.645974e-13
0.00037220956 5.5099746e-30 -0.02714879 -0.5250963 -3.0199647e-18 6.6704652e-21 -0.20911871 0.5904673
-0.49564737 0.07040165 0.0039507085 -1.5863767e-05 6.9854904e-09 2.7825015e-10 6.036019e-07 -4.749909e-13

bias f4 [32]
00000000: de13 873b 86bb 62bc d161 a3bd 033f a63d
00000010: 3a5d 2c3d 774b 44bc bea1 3a3d af08 debd
00000020: 0f5a 923d 38bf 83bc 3777 0cbe 781e bfbd
00000030: cfed 073d a60e 223d cb52 76bc fe8f 7fbd
00000040: 81dc 743d 167a df3c eb81 af3c 1c7c 21be
00000050: e6ea 093c da9e 1ebd a614 e0bd 5ae4 bd3c
00000060: 0ceb 09be 9f78 20be 2346 de3c d938 103d
00000070: 95c2 3b3d 4777 9a3d 68fc 613c 1493 213d
0.0041222414 -0.013838654 -0.079776414 0.08117487 0.042081095 -0.011980883 0.045564406 -0.108415
0.071460836 -0.016082391 -0.13717352 -0.09331983 0.033185776 0.03956475 -0.015034388 -0.06239318
0.0597806 0.027279895 0.021424254 -0.1577 0.008417821 -0.03872571 -0.109414384 0.023180176
-0.1346857 -0.15671013 0.027133053 0.035210464 0.045839865 0.075422816 0.0137930885 0.039446905

weight_g f4 [32, 1, 1]
00000000: 936f cc3f b167 9b3f 9cd2 023f 24a3 b93f
00000010: b1b4 fe3f a528 d53f 69f2 b13f 8045 053f
00000020: e6c7 b73f 5456 a73f e97f 0b3f 2bd1 153f
00000030: 1100 8b3f 733f c23f a769 b13f 45d4 c23f
00000040: cc2b 0540 8b98 573f dc8a be3f 753f 123f
00000050: 85bd 813f 688c 923f 11f9 063f fef6 d53f
00000060: 47ed 113f 1db8 0c3f c577 1040 59f2 4140
00000070: 1fe1 0640 c93b f63f 1fba eb3f 6365 a23f
1.597155 1.2141019 0.51102614 1.4502912 1.9898893 1.6653029 1.3902103 0.52059174
1.4357879 1.307322 0.5449205 0.5852229 1.0859395 1.5175613 1.3860368 1.522103
2.0807981 0.8421714 1.4886127 0.5712808 1.0135962 1.1449099 0.52723795 1.6716001
0.5700268 0.54968435 2.2573102 3.0304167 2.1074903 1.9236995 1.8416175 1.2687191
