ml-models/LSTM-FFNN-GRU/models/ffnn_model.pth (torch, 121175 bytes, 6 tensors)

fc1.weight f4 [64, 396]
0	0xbcc507b1	-0.02405152
1	0xbc1cda53	-0.009573537
2	0x3cb9cea1	0.022681536
3	0xbceaf868	-0.028682902
4	0x3c251eb4	0.010078121
5	0x3cbb6624	0.022875853
6	0x3cfb6c94	0.030691423
7	0xbd2c9e03	-0.04214288
8	0xbd1b920e	-0.037981085
9	0xbab28a57	-0.0013621551
10	0xbd663688	-0.05620435
11	0xbda4ea8d	-0.080525495
12	0xbb4fe7cd	-0.0031723857
13	0x3c83ed1a	0.01610427
14	0xbd111e75	-0.035429437
15	0xbc377f44	-0.011199776
16	0xbd24ac29	-0.040203247
17	0xbd2d8902	-0.04236699
18	0xbd96b498	-0.07358664
19	0xbb3a04ee	-0.0028384286
20	0xbadf1025	-0.0017018361
21	0x3cb65630	0.022257894
22	0x3c963f10	0.018340617
23	0xbd147c44	-0.03625132
24	0xbcfe2cdd	-0.031027252
25	0x3d3e6b97	0.046489324
26	0x3d2b3aca	0.041804112
27	0xbc8361ea	-0.0160379
28	0xbd2fa1d1	-0.04287893
29	0xbcff01ac	-0.031128727
30	0xbcb012fe	-0.021493431
31	0xbb05dfde	-0.0020427625
32	0xbd36c06c	-0.0446171
33	0x3d801907	0.062547736
34	0xbd53f3bd	-0.05174612
35	0xbbc67f3d	-0.0060576485
36	0xbc6551fe	-0.013996599
37	0xbb6dcafb	-0.0036284316
38	0x3d1e6854	0.038673714
39	0x3cdc40b3	0.02688632
40	0x3d12ce32	0.035841174
41	0xbd709115	-0.05873211
42	0x3cd0e6a7	0.025500609
43	0x3d36b561	0.04460657
44	0x3d506e85	0.05088665
45	0x3c3f3150	0.011669472
46	0x3cf884c0	0.030336738
47	0x3d4c5c1e	0.049892537
48	0x3cd02d63	0.025412267
49	0x3d757945	0.059930105
50	0xbd4fd315	-0.050738413
51	0xbcf84c13	-0.030309713
52	0xbd338727	-0.043830063
53	0xbd520cae	-0.051281624
54	0xb9d66031	-0.0004088893
55	0xbd9ce574	-0.07660952
56	0xbd15d26e	-0.036577635
57	0x3cf5621f	0.029954014
58	0x3c069d6d	0.008216244
59	0x3ced328d	0.028954769
60	0x3cac254a	0.021013875
61	0xbcfb52f2	-0.0306792
62	0xbd1b5644	-0.037924066
63	0x3d390537	0.04517099
64	0x3ca767bf	0.020435212
65	0x3d325320	0.043536305
66	0x3ce0fc21	0.027463974
67	0x3d106cf7	0.035260167
68	0x3d355111	0.044266764
69	0x3d7e8232	0.062135883
70	0xba86326c	-0.0010238416
71	0x3cb1f1a6	0.021721672
72	0xbd221356	-0.03956922
73	0x3bea68a4	0.0071535874
74	0x3bf8aac3	0.0075887158
75	0xbd8c5719	-0.0685255
76	0x3ce85fe8	0.028366044
77	0xbd88724c	-0.066624254
78	0xbc58e155	-0.013237317
79	0x3c1b113f	0.009464561
80	0x3d3a0edc	0.045424327
81	0xbd0285ea	-0.03186599
82	0x3d2c07ca	0.041999616
83	0x3cc30d34	0.023810007
84	0xbd402c62	-0.046917327
85	0x3c4ac538	0.012376122
86	0xbcaa3ed9	-0.020781921
87	0xbd8d2f57	-0.06893795
88	0x3cceef27	0.025260521
89	0x3d825229	0.06363327
90	0x3ca99659	0.020701574
91	0x3c3d93c0	0.011570871
92	0xbcc7950f	-0.024363069
93	0x3c2607fe	0.010133741
94	0xbc165fc4	-0.009178106
95	0x3dafdefa	0.08587451
96	0x3d0f769e	0.03502523
97	0xbd003790	-0.03130299
98	0xbc054c9b	-0.00813594
99	0xbc4af509	-0.0123875225
100	0x3d4c059a	0.04981003
101	0x3d6ce878	0.057838887
102	0x3ca4f48b	0.020136138
103	0x3cd243df	0.02566713
104	0x3d9ee17f	0.07757854
105	0x3d540681	0.051764015
106	0x3d424d53	0.047437023
107	0xbd9e9c6f	-0.07744681
108	0xbbcefe3c	-0.006316928
109	0x3cd8616d	0.026413644
110	0x3cc68af2	0.024236176
111	0xbd436fdb	-0.047714096
112	0x3d0d2bff	0.034465786
113	0x3b52651d	0.0032103725
114	0xbd36bb3e	-0.04461216
115	0xbc95bca9	-0.018278437
116	0xbd4bec40	-0.049785852
117	0xbb81aff4	-0.003957743
118	0xbd9d4bdf	-0.07680487
119	0x3d929d12	0.07158865
120	0xbd0bcc0e	-0.03413015
121	0x3cd9c521	0.026583256
122	0xbcec0f53	-0.0288159
123	0x3c83b44d	0.016077185
124	0x3be46ac5	0.0069707357
125	0x3d099944	0.03359343
126	0x3ca08c93	0.019598281
127	0x3d063aae	0.032770805
128	0xbd055514	-0.03255184
129	0x3c120abe	0.008913694
130	0xbac21cf1	-0.0014809651
131	0xbd0031f5	-0.031297643
132	0x3ce67972	0.028134082
133	0x3cb74331	0.022370907
134	0x3d406a5b	0.04697643
135	0xbd198723	-0.037482392
136	0xbd76f028	-0.060287625
137	0xbcd34626	-0.025790285
138	0xbce55a0f	-0.027997045
139	0x3cffe0c0	0.031235099
140	0xbad6d528	-0.001639043
141	0xbd258614	-0.04041107
142	0x3d583bf2	0.052791543
143	0xbc8de2f8	-0.017320141
144	0x3d1e19fb	0.038598996
145	0x3ce823e4	0.028337426
146	0x3d4af2bc	0.049547896
147	0xbd31a38b	-0.043368857
148	0xbc60589e	-0.013693003
149	0x3bda0934	0.006653929
150	0x3c6e07bb	0.01452821
151	0x3d771fcc	0.06033306
152	0xbc2155bc	-0.009847101
153	0x3d88bc8b	0.06676587
154	0xbcbde5ac	-0.023180805
155	0xbd29fd5f	-0.0415014
156	0x3d2c2b4a	0.04203347
157	0x3cc1adb7	0.023642404
158	0xbcb8b0c3	-0.022545224
159	0x3ccc7332	0.024957273
160	0x3d293b4a	0.041316308
161	0xbb6551ea	-0.0034991452
162	0x3c8e318c	0.01735761
163	0x3da406f2	0.08009137
164	0x3b867ebf	0.004104465
165	0xbdd49a8a	-0.103810385
166	0x3cc2b8c0	0.023769736
167	0xbd380fe6	-0.044937037
168	0x3d11112f	0.03541678
169	0xbd29c9fb	-0.04145239
170	0xbd9b2dd0	-0.075770974
171	0x3ca57d3d	0.02020132
172	0xbd1bc3c5	-0.038028497
173	0xbc81b342	-0.015832547
174	0xbc8e7584	-0.01739002
175	0x3d136ca1	0.03599227
176	0xbcc3bd71	-0.023894044
177	0xb95af653	-0.00020881863
178	0x3ce81a58	0.028332874
179	0x3d0a9ba1	0.033839826
180	0xbc899364	-0.016793914
181	0xbd1769f6	-0.036966287
182	0x3d06a703	0.03287412
183	0xbd021619	-0.031759355
184	0xbcf9891d	-0.030460889
185	0xbccfdaa2	-0.025372807
186	0xbd0f05e7	-0.03491774
187	0xbbbcb0fa	-0.005758402
188	0xbc04e338	-0.008110814
189	0x3c5cb271	0.013470278
190	0xbc9b7a78	-0.018979296
191	0x3d072ccc	0.033001706
192	0xbbb4332b	-0.0054992638
193	0x3d290549	0.041264806
194	0x3d59544f	0.05305892
195	0x3ccf0b69	0.025273995
196	0x3d21f70c	0.039542243
197	0x3d2e5345	0.04255988
198	0xbc29001c	-0.0103149675
199	0xbcf9689e	-0.030445393
200	0xbcbdce8a	-0.023169775
201	0x3d01faba	0.031733252
202	0x3d96e770	0.07368362
203	0xbd8502a4	-0.06494644
204	0x3d028efd	0.031874646
205	0x3d99d61b	0.075115405
206	0x3d0dc5af	0.034612354
207	0x3d6db84f	0.0580371
208	0x3cf00ae2	0.029302064
209	0x3d093ac9	0.033503328
210	0x3ddc37aa	0.107528046
211	0x3d58e0f2	0.0529489
212	0xbd1b2b81	-0.037883285
213	0xbd6543f8	-0.055973023
214	0x3c9d0fb6	0.01917253
215	0xbbff8168	-0.007797409
216	0xbdc914c5	-0.098184146
217	0xbc465401	-0.012104989
218	0x3d9b1c25	0.075737275
219	0xbca20355	-0.01977698
220	0xbdb077ba	-0.08616586
221	0xbd57f7df	-0.052726623
222	0xbc93ad71	-0.01802704
223	0xbdc7ea4c	-0.097614855
224	0xbcc18552	-0.023623142
225	0xbcd17f7f	-0.02557349
226	0xbc69d696	-0.014272353
227	0x3d0a60b7	0.03378364
228	0xbd7b68ad	-0.061379123
229	0xbbb0abe4	-0.0053915847
230	0xbc951841	-0.018200042
231	0x3d614648	0.054998666
232	0xbc8c9980	-0.017163038
233	0xbcc99fca	-0.024612326
234	0xbdbf7dc8	-0.09350163
235	0x3cf63075	0.030052403
236	0xbd308e2c	-0.043104336
237	0x3cb0fcf1	0.021604987
238	0xbdd62a03	-0.10457232
239	0x3d348d76	0.04408022
240	0xbc21fcd9	-0.009886944
241	0xbd0e517c	-0.03474568
242	0x3d1e29bc	0.03861402
243	0x3d188bbc	0.037242636
244	0xbd838da9	-0.06423504
245	0xbd6ce35d	-0.057834018
246	0xbc862877	-0.016376717
247	0x3cb2ebd1	0.021840962
248	0x3d2e1136	0.042496882
249	0x3d26b627	0.040701058
250	0xbcb93449	-0.02260794
251	0x3d7ad237	0.061235633
252	0x3c37c11a	0.011215473
253	0xbcdd654a	-0.027025837
254	0xbde23d4c	-0.11046848
255	0xbc84f95d	-0.016232187

fc1.bias f4 [64]
0	0xb9009854	-0.00012263778
1	0xbda5f46b	-0.0810326
2	0xbbfb0bf1	-0.0076613356
3	0xbc993a9f	-0.01870471
4	0x3e1e4e9c	0.15459675
5	0xbb4cc6a1	-0.0031246322
6	0xbd7b61d3	-0.06137259
7	0xbdbb0d55	-0.09133402
8	0x3aacc839	0.001318223
9	0xbd17fd75	-0.03710695
10	0xbd094d7a	-0.033521153
11	0x3d9c0a4d	0.07619152
12	0xbcd2a391	-0.02571276
13	0xbc146beb	-0.009058933
14	0x3929b7e7	0.00016185605
15	0xbc96aee2	-0.018393937
16	0xbdaaa66d	-0.083325244
17	0x3d089f34	0.033354953
18	0x3d9e4bb4	0.07729283
19	0x3cd87b4e	0.026425984
20	0x3ab4bab3	0.0013788551
21	0xbce71e7c	-0.028212778
22	0xbcc72ab0	-0.024312347
23	0x3c335df1	0.01094769
24	0xbc4e54c2	-0.01259345
25	0xbd05864f	-0.03259879
26	0xbcac9f8f	-0.021072177
27	0x3d4753a9	0.04866377
28	0xbd5d6228	-0.054048687
29	0xbd11fd9e	-0.03564226
30	0xbcdb8b94	-0.026799954
31	0x3e47ac95	0.19499429
32	0x3dc6c1ab	0.09704908
33	0xbd65c083	-0.056091797
34	0x3c6f0dd1	0.014590696
35	0x3e1d4bc1	0.15360929
36	0xbc7d277b	-0.015451307
37	0xba696fc3	-0.00089048984
38	0xbd3e6f3f	-0.04649281
39	0x3db420a9	0.08795292
40	0x3d4031af	0.046922382
41	0xbd7ce615	-0.06174286
42	0xbc7f870e	-0.015596164
43	0xbd065911	-0.032799784
44	0x3d0d4669	0.034490976
45	0xbc7221f7	-0.014778606
46	0x3ddef2be	0.10886143
47	0xb96c9034	-0.00022560434
48	0x3d3586a3	0.044317853
49	0xbb2367ce	-0.0024933699
50	0x3c8af011	0.016960176
51	0xbc8c5aea	-0.017133195
52	0x3d11d2ca	0.035601415
53	0xbc4f3a10	-0.0126481205
54	0x3e078a3c	0.13236326
55	0xbd6c8786	-0.057746433
56	0xbcf2facb	-0.029660603
57	0xbc00dc08	-0.00786496
58	0x3cd635b2	0.02614865
59	0x3d103d4b	0.035214704
60	0xbce9feb8	-0.028563842
61	0xbce0e622	-0.027453486
62	0x3db2371e	0.08701919
63	0xbd0cfe50	-0.03442222

fc2.weight f4 [64, 64]
0	0x3c846acc	0.016164206
1	0xbd19a5fd	-0.037511814
2	0x3bde3306	0.006780985
3	0xbc5e5d1b	-0.013572003
4	0xbe1bc104	-0.15210348
5	0xbd1d40a6	-0.03839173
6	0xbcbe3893	-0.023220336
7	0xbda0a16e	-0.0784329
8	0x3bbfe17a	0.0058557363
9	0xbbb65af3	-0.005565041
10	0x3bfc3b08	0.0076974668
11	0xbdc632be	-0.09677647
12	0xbd45b2f6	-0.048266374
13	0x3d018566	0.03162136
14	0xbdb1ad7b	-0.08675667
15	0x3d83474d	0.06410084
16	0x3c0bb576	0.00852715
17	0x3d102194	0.035188273
18	0xbd4935b8	-0.049123496
19	0xbd450fa6	-0.048110627
20	0xbe03d1fb	-0.1287307
21	0xbda43328	-0.0801757
22	0x3dcc0259	0.09961385
23	0xbc52d1f2	-0.012867438
24	0xbe04ecac	-0.12980908
25	0x3d9cafb6	0.07650702
26	0x3e017e36	0.12645802
27	0x3db84553	0.089975975
28	0x3e4148bf	0.18875407
29	0xbd001502	-0.031270035
30	0xbaac31c3	-0.0013137389
31	0xbe6ba205	-0.23011024
32	0xbd50e7bd	-0.051002253
33	0x3d9e8771	0.07740677
34	0x3df45a26	0.11931257
35	0xbdb40a53	-0.08791032
36	0x3d469cbe	0.048489325
37	0xbd8b0506	-0.067880675
38	0x3da0d1bf	0.07852506
39	0xbdc04e16	-0.09389894
40	0xbd401ab2	-0.04690046
41	0x3de5ff98	0.11230391
42	0x3dac8af7	0.08424943
43	0x3dfeca20	0.12440896
44	0xbd610541	-0.05493665
45	0x3d010a11	0.03150374
46	0xbe41f3af	-0.18940614
47	0x3e006d05	0.12541588
48	0x3dbe5fc1	0.09295607
49	0x3dfbcb95	0.122946896
50	0x3e022648	0.12709916
51	0x3db833c5	0.08994249
52	0xbd972669	-0.07380373
53	0x3dfa6227	0.12225752
54	0xbd9572b1	-0.07297266
55	0x3db8c2a4	0.090215
56	0xbd550350	-0.052005112
57	0x3dea360b	0.11436089
58	0xbd6d6cc9	-0.057965074
59	0xbc301a76	-0.010748496
60	0xbd119525	-0.035542626
61	0x3ce3130e	0.027719047
62	0xbddfc655	-0.10926501
63	0xbd05b152	-0.03263981
64	0xbdc775c0	-0.09739256
65	0x3c2c535f	0.010517924
66	0x3bce609f	0.006298139
67	0xbc7928eb	-0.0152075095
68	0xbe501a21	-0.20322467
69	0xbdcdf13e	-0.10055779
70	0xbd5eacaf	-0.054363903
71	0x3c1d2e5e	0.009593574
72	0xbd9fd9dd	-0.07805226
73	0x3dbb4bfb	0.091453515
74	0x3e148b0d	0.14506169
75	0x3d96b1c9	0.073581286
76	0x3da736c4	0.081647426
77	0xbc3634f8	-0.011121027
78	0xbd2d17e8	-0.042259127
79	0xbde449b0	-0.11146867
80	0xbe2877a5	-0.16451891
81	0xbd10b752	-0.035331078
82	0xbdcc6d9d	-0.099818446
83	0x3dc01448	0.09378868
84	0xbe066b2e	-0.13126823
85	0xbdbc807f	-0.09204196
86	0x3bc5f9b2	0.006041729
87	0xbd4c1f7e	-0.04983472
88	0xbe2e4833	-0.1701973
89	0xbd745373	-0.059649896
90	0x3e132195	0.1436828
91	0x3e6f6ca9	0.23381294
92	0x3e737d94	0.23778373
93	0xbc220308	-0.009888418
94	0xbd371a2e	-0.0447027
95	0xbe703025	-0.23455866
96	0xbe47a77a	-0.19497481
97	0x3deb6bb8	0.11495155
98	0x3e40ff22	0.18847325
99	0xbe98a409	-0.2981265
100	0x3d449862	0.047996886
101	0x3da12fb0	0.07870424
102	0x3de26d47	0.11055999
103	0xbe2134e5	-0.15742834
104	0x3d50305a	0.05082736
105	0xbd821b70	-0.063528895
106	0xbd55da96	-0.052210413
107	0xbdf09eb5	-0.11749021
108	0xbd6003c1	-0.05469108
109	0x3cc6d669	0.02427216
110	0xbe2236da	-0.15841237
111	0xbcd52a13	-0.02602104
112	0xbb959406	-0.004564765
113	0x3e23d104	0.15997702
114	0x3e157bef	0.14598058
115	0x3c4ae93f	0.012384712
116	0xbd399cdb	-0.045315605
117	0x3dd28a39	0.1028027
118	0xbe09f986	-0.13474092
119	0x3df9e5dd	0.12202046
120	0xbe1c49d6	-0.15262541
121	0x3d4c36ef	0.049857076
122	0xbd1212ef	-0.035662588
123	0x3c15e53a	0.00914889
124	0x3da63e67	0.08117371
125	0x3dfff3bd	0.12497661
126	0x3d0f124f	0.03492957
127	0x3d993b5d	0.07482026
128	0x3dd150ad	0.10220466
129	0x3d821b99	0.0635292
130	0x3c5abb90	0.013350382
131	0x3dc780ed	0.097413875
132	0xbd4ddf7f	-0.05026197
133	0xbdcce803	-0.1000519
134	0xbdd4643c	-0.10370681
135	0x3b2f8dd0	0.0026787408
136	0xbd0873c1	-0.033313517
137	0xbdcdb518	-0.100443065
138	0xbd433b0e	-0.04766374
139	0xbdd014ea	-0.10160239
140	0xbdc5d8dd	-0.09660504
141	0xbe1cff53	-0.15331773
142	0xbaa9557f	-0.0012919157
143	0xbddd0226	-0.107914254
144	0xbd9dca9f	-0.077046625
145	0x3dd820e2	0.10553147
146	0xbd920911	-0.071306355
147	0xbd8cd3e6	-0.06876354
148	0xbe452e08	-0.19255841
149	0xbdcc0cc2	-0.09963371
150	0x3c55b203	0.01304293
151	0x3d8bed9a	0.06832428
152	0xbde10024	-0.10986355
153	0x3da7753e	0.08176659
154	0xbdb7a162	-0.08966328
155	0xbe5dd8b3	-0.21664695
156	0x3d8e1532	0.069376364
157	0x3c984304	0.018586643
158	0xbdf208af	-0.118180625
159	0x3e03b5dd	0.12862344
160	0xbdbd4b71	-0.09242905
161	0xbcbea425	-0.02327163
162	0xbda7dc81	-0.08196355
163	0x3a4fea2e	0.0007931319
164	0x3e051248	0.12995255
165	0x3c4762b1	0.012169526
166	0xbe063b4c	-0.13108557
167	0xbce5bd23	-0.028044289
168	0xbd63890b	-0.055550616
169	0x3d18a3b6	0.037265502
170	0xbcc103b4	-0.023561336
171	0x3dbfcb2f	0.09364926
172	0xbd30907b	-0.043106537
173	0x3d68c440	0.056827784
174	0x3c7c8401	0.015412332
175	0xbdbf0292	-0.09326662
176	0xbd2db760	-0.04241121
177	0x3d1a747d	0.037708748
178	0xbe2723cd	-0.1632225
179	0xbdd843e5	-0.10559825
180	0xbdf5260a	-0.11970146
181	0xbde77463	-0.11301496
182	0x3d845931	0.064623244
183	0xbd6937ce	-0.056937985
184	0x3dd66393	0.10468211
185	0x3d550ea6	0.052015923
186	0xbe105aba	-0.1409711
187	0xbe1e41f3	-0.15454845
188	0x3dd25db2	0.10271777
189	0xbdc36f8e	-0.09542762
190	0x3db59739	0.08866734
191	0x3ce31642	0.027720574
192	0x3d79fbda	0.0610312
193	0xbd96368d	-0.073346235
194	0xbde4bbc2	-0.111686245
195	0xbda05270	-0.07828224
196	0xbd031fdc	-0.032012805
197	0x3cf926fb	0.030414095
198	0xbdd6f866	-0.10496597
199	0x3c5c7429	0.013455429
200	0xbd9f9930	-0.0779289
201	0x3da72693	0.08161654
202	0xbdc6ff87	-0.09716707
203	0xbdadd284	-0.08487418
204	0x3c3ded9b	0.011592294
205	0x3da2ae1f	0.07943367
206	0x3d02f1c8	0.03196886
207	0xbd4d058e	-0.050054125
208	0xbdcfedc3	-0.10152771
209	0xbc6fb366	-0.014630174
210	0xbd106888	-0.03525594
211	0x3c8ffed6	0.01757757
212	0x3cc7e9e3	0.024403518
213	0x3db8cc10	0.09023297
214	0xbdda7d55	-0.106684364
215	0x3d204f1a	0.039137937
216	0x3dd9cdd1	0.106349595
217	0x3beeae5f	0.0072839702
218	0x3db449ef	0.08803164
219	0x3c3f471f	0.011674671
220	0xbd18e124	-0.037324086
221	0xbdc74b2c	-0.09731135
222	0x3d7b28d2	0.061318226
223	0xbd83917f	-0.064242356
224	0x3dcfde2f	0.101498
225	0x3d72872e	0.05921095
226	0x3debd063	0.11514356
227	0xbdccbf3c	-0.099974126
228	0x3d7c22ae	0.06155651
229	0x3d4903a6	0.049075745
230	0x3c661b2b	0.014044563
231	0xbd62e7cd	-0.055396844
232	0xbd9f928a	-0.07791622
233	0x3d70ad09	0.05875877
234	0x3d2235bd	0.03960203
235	0xbb37a8a5	-0.0028024104
236	0x3d87a93c	0.06624076
237	0xbe04c3be	-0.12965295
238	0x3d3cb020	0.046066403
239	0xbe28298d	-0.164221
240	0x3d8e95c6	0.06962161
241	0xbd509f98	-0.05093345
242	0x3d62483b	0.055244666
243	0xbdda222a	-0.106510475
244	0x3ce91884	0.028454073
245	0x3b0ab167	0.002116287
246	0x3d1d7e23	0.03845037
247	0xbc58e370	-0.013237819
248	0x3dd5e7e5	0.10444621
249	0x3d1c6f36	0.038191997
250	0x3d89591a	0.06706448
251	0xbd9f71c7	-0.07785373
252	0xbd7cbf93	-0.061706137
253	0x3dbd4758	0.09242123
254	0xbdf89d14	-0.12139335
255	0x3c6ad2c4	0.014332477

fc2.bias f4 [64]
0	0x3d90bc2e	0.070671424
1	0x3de84782	0.11341764
2	0xbb69025a	-0.003555438
3	0xbe0cc3cf	-0.1374657
4	0x3dae2d6c	0.08504757
5	0xbc58d21a	-0.013233686
6	0xbdbe5e03	-0.09295275
7	0x3c12c710	0.008958593
8	0xbd287117	-0.041123476
9	0x3cc05fb8	0.023483142
10	0x3cdaac9b	0.026693633
11	0x3d838aa0	0.06422925
12	0xbb17ada1	-0.0023144262
13	0x3da4dd8a	0.08050068
14	0xbd942102	-0.07232858
15	0xbadb5870	-0.001673473
16	0xbdd5646c	-0.104195446
17	0x3d23c4af	0.039982494
18	0xbd958299	-0.073003
19	0x3bc38a8f	0.005967445
20	0xbd9b9a98	-0.07597846
21	0xbdb9550e	-0.09049426
22	0x3c99ab69	0.018758493
23	0xbda26c8b	-0.07930859
24	0x3caf17dc	0.021373682
25	0xbdd9a2af	-0.106267326
26	0xbc308b14	-0.010775346
27	0xbd829c97	-0.063775234
28	0xbdb8d139	-0.09024281
29	0xbddefb2a	-0.108877495
30	0x3dcd3d31	0.10021437
31	0x3c622196	0.013801953
32	0xbe10a023	-0.14123587
33	0xbda72eb2	-0.08163203
34	0xbe11806f	-0.1420915
35	0xbc6baf8e	-0.014385117
36	0xbde0c400	-0.10974884
37	0xbc0fb825	-0.008771931
38	0xbc2d601e	-0.010581998
39	0x3d926649	0.071484156
40	0x3d63abaa	0.055583633
41	0x3ddcf461	0.10788799
42	0x3d6bd874	0.057579473
43	0x3c0da9b4	0.008646417
44	0xbc482dfe	-0.012217997
45	0x3d680a5c	0.056650504
46	0xbd0e7f1f	-0.0347892
47	0x3d99bd27	0.07506781
48	0xbe05211e	-0.13000914
49	0xbd4c288e	-0.049843363
50	0xbda7e367	-0.081976704
51	0x3d8bdce7	0.06829243
52	0x3e0448f9	0.12918462
53	0xbd1422e4	-0.036166087
54	0x3db88706	0.09010129
55	0x3d42aa17	0.04752549
56	0xbd9aea69	-0.075642414
57	0xbddc3e7e	-0.10754107
58	0xbdce7ae2	-0.10082032
59	0xbd2610fe	-0.04054355
60	0xbc87e797	-0.016589923
61	0xbd4da0c0	-0.05020213
62	0xbd9abcee	-0.07555567
63	0xbd8f6e78	-0.07003492

fc3.weight f4 [4, 64]
0	0x3d99671a	0.07490368
1	0x3e0257ac	0.12728757
2	0x3d67e855	0.056618053
3	0xbba8ff90	-0.0051574185
4	0x3dc60dcd	0.09670601
5	0x3d6694c6	0.056294225
6	0xbde0d112	-0.10977377
7	0x3db0d7a4	0.0863488
8	0xbdc4706a	-0.09591754
9	0x3db9c177	0.090701036
10	0x3d4ae645	0.04953601
11	0x3d46fb88	0.048579723
12	0x3d34f923	0.044182908
13	0xbd38a752	-0.045081444
14	0xbdc2b4cb	-0.0950714
15	0x3dc5b2fd	0.0965328
16	0xbdd4637d	-0.103705384
17	0x3d45fa15	0.0483342
18	0x3e1d144b	0.15339772
19	0x3da08694	0.07838169
20	0xbdab1bd7	-0.083549194
21	0x3da038fb	0.07823368
22	0xbcb20fd4	-0.021736063
23	0x3db0e77a	0.08637901
24	0x3de6acd7	0.11263435
25	0xbcb53a2e	-0.022122469
26	0x3d78169b	0.060568433
27	0xbdbc983a	-0.092087224
28	0x3d1cc644	0.03827502
29	0xbb07d9ca	-0.0020729178
30	0x3d52c0d0	0.05145341
31	0xbbf38d03	-0.0074325814
32	0x3d2325d0	0.039830983
33	0xbc3b0944	-0.011415783
34	0xbd162d70	-0.036664426
35	0x3dbef9bb	0.09324976
36	0xbdc0cb4b	-0.09413775
37	0xbcb65eea	-0.022262055
38	0xbd5e603b	-0.05429099
39	0xbd859568	-0.065226376
40	0xbd7f36ca	-0.06230811
41	0xbe0adb35	-0.13560183
42	0xbc5a2ee3	-0.013316843
43	0x3d89e502	0.06733133
44	0x3d451e08	0.048124343
45	0xbe15e595	-0.1463836
46	0x3d509274	0.05092092
47	0xbcb84575	-0.022494057
48	0xbd46f570	-0.04857391
49	0x3d20eea7	0.039290097
50	0xbdb2c715	-0.08729378
51	0xbceb0541	-0.028689029
52	0x3d48fac9	0.049067292
53	0x3cfdd499	0.030985164
54	0x3d909fd0	0.07061732
55	0x3dd3d15c	0.103426665
56	0x3dfcc3c3	0.12342026
57	0xbdb53102	-0.08847238
58	0xbd3e9c12	-0.04653556
59	0xbd2a1a61	-0.041529063
60	0x3d08a22c	0.033357784
61	0xbda0df62	-0.07855107
62	0x3dd215e8	0.102580845
63	0xbd98dca9	-0.074639626
64	0x3daaf463	0.08347394
65	0xbd3f7141	-0.046738867
66	0xbcf178df	-0.029476581
67	0xbdad7cfe	-0.08471106
68	0xbd1acecd	-0.037794877
69	0xbd12f638	-0.035879344
70	0x3dd7d3a9	0.10538418
71	0x3b691c65	0.0035569903
72	0x3b2da242	0.0026494418
73	0xbd906f70	-0.07052505
74	0xbd436eee	-0.047713213
75	0x3d9631fc	0.073337525
76	0x3d80c3c3	0.062873386
77	0x3af73855	0.0018861393
78	0xbbc0c1ac	-0.0058824625
79	0x3d4b7acf	0.049677666
80	0xbd2a491e	-0.041573636
81	0x3db0a5f3	0.08625402
82	0x3cf8b94d	0.030361796
83	0x3d32ee9e	0.043684594
84	0x3c2e4253	0.01063593
85	0xbc4503a3	-0.012024793
86	0x3d4149ae	0.047189407
87	0x3d9154fe	0.07096289
88	0xbdc779cb	-0.09740027
89	0x3c354b70	0.011065349
90	0x3d91ce56	0.071194336
91	0x3e056d4f	0.13029979
92	0xbc17d080	-0.009266019
93	0xbd7be9c3	-0.06150223
94	0x3ddd484c	0.10804805
95	0xbb80c816	-0.003930102
96	0x3cdfc08d	0.027313495
97	0xbdfcd0bf	-0.12344503
98	0x3be7db86	0.00707573
99	0xbc875576	-0.016520243
100	0x3d1fa76e	0.038978033
101	0xbd84cd20	-0.06484437
102	0x3d8df98d	0.06932364
103	0x3caa5740	0.020793557
104	0x3d90184f	0.070358865
105	0xbd32603a	-0.0435488
106	0x3c4d91d0	0.012546971
107	0x3d8d98c9	0.06913907
108	0x3d3dd7b3	0.046348285
109	0xbd241095	-0.040054876
110	0x3da584b1	0.080819495
111	0x3cf1d843	0.029522067
112	0x3da7db40	0.081961155
113	0x3d0f9740	0.035056353
114	0xbd40eb01	-0.047099117
115	0xbd1a171a	-0.037619688
116	0xbdb8345f	-0.08994364
117	0x3cc75921	0.024334492
118	0x3d7d9546	0.061909936
119	0xbdbd3e88	-0.092404425
120	0x3cab2105	0.020889768
121	0xbce253c4	-0.027627833
122	0xbd91be90	-0.07116425
123	0xbd5d19f8	-0.053979844
124	0x3d122e34	0.035688594
125	0xbcaf4d98	-0.021399304
126	0x3e09da94	0.13462287
127	0xbd9cec30	-0.07662237
128	0x3d80cd50	0.0628916
129	0x3a840e2d	0.0010075025
130	0xbd5271a1	-0.051377896
131	0xbca04181	-0.019562485
132	0xbd9778c8	-0.07396084
133	0x3c623af1	0.013807998
134	0xb8809bde	-6.132548e-05
135	0xbc6326d8	-0.013864242
136	0xbdd7e126	-0.105409905
137	0x3d636a49	0.055521283
138	0xbcc88ff5	-0.024482707
139	0xbdaf80d9	-0.085694976
140	0xbbd0d9d5	-0.006373624
141	0xbd26b7ec	-0.040702745
142	0xba760051	-0.00093842024
143	0xbd8ebe43	-0.06969883
144	0x3d8f2fe7	0.069915585
145	0x3d6d54e7	0.057942297
146	0x3d425390	0.047442973
147	0xbc20c3d1	-0.009812311
148	0xbcde6d83	-0.027151829
149	0x3d000138	0.031251162
150	0xbd44814e	-0.047974877
151	0x3d855bfe	0.06511687
152	0xb94bc0af	-0.00019431369
153	0xbd3477ac	-0.04405944
154	0xbd73821e	-0.05945026
155	0x3d4a082a	0.049324192
156	0xbd16e5fe	-0.03684043
157	0x3d18bdfb	0.037290554
158	0x3c994550	0.018709809
159	0x3d0dc57e	0.03461217
160	0x3d56a319	0.052401636
161	0xbce60f68	-0.028083518
162	0xbb1c7cdf	-0.002387814
163	0x3d970503	0.07374003
164	0x3dd3a528	0.103342354
165	0xbd9292f2	-0.07156934
166	0xbc50509d	-0.012714532
167	0xbce1cd8f	-0.027563838
168	0x3b713826	0.0036807149
169	0xbca87bc1	-0.020566823
170	0xbd171980	-0.036889553
171	0xbdad4258	-0.0845992
172	0x3d925657	0.07145374
173	0xbd11ce95	-0.035597403
174	0x3d822ec5	0.06356577
175	0x3ce4e643	0.027941829
176	0xbd8148fc	-0.06312749
177	0x3c8a5c13	0.016889608
178	0xbd3da4fb	-0.046299916
179	0x3cbe8812	0.023258243
180	0xbd6d51e8	-0.05793944
181	0x3b0077e2	0.0019602706
182	0xba02d3a8	-0.00049906457
183	0xbd9d4953	-0.07680001
184	0x3d21bc33	0.03948612
185	0x3c94e0ee	0.018173661
186	0x3dcec9b1	0.10097063
187	0xbc9caf7f	-0.019126652
188	0xbbcd4fe6	-0.006265628
189	0x3c0a5137	0.008442215
190	0x3c0060ff	0.007835626
191	0xbdfd6223	-0.12372234
192	0x3cec29ea	0.02882858
193	0xbd3deb32	-0.046366878
194	0x3cd77d91	0.026304992
195	0xbd729aba	-0.05922959
196	0x3c2b1790	0.010442629
197	0xbd1f946f	-0.038959917
198	0xbda40b27	-0.0800994
199	0xbd6d7e2b	-0.05798165
200	0x3d13ed21	0.036114816
201	0xbdc8f123	-0.09811618
202	0xbc828f78	-0.015937552
203	0xbd8a67c6	-0.067580745
204	0x3ca8571b	0.020549348
205	0x3d4126cc	0.04715614
206	0x3d49bad4	0.04925044
207	0x3db9b6f4	0.09068099
208	0xbcfe94c4	-0.031076796
209	0x3d78e386	0.06076386
210	0xbd5dafdc	-0.05412279
211	0x3d4484db	0.047978263
212	0xbc842d2e	-0.016134825
213	0xbb6dc627	-0.0036281438
214	0x3c89cab9	0.016820299
215	0xbaf23832	-0.0018479882
216	0x3c3d8359	0.01156696
217	0xbd2ceb51	-0.042216603
218	0x3d4bd926	0.049767636
219	0xbd91c6f2	-0.07118024
220	0x3c7ad4e4	0.015309546
221	0xbe03df2d	-0.12878104
222	0x3ba7f032	0.005125069
223	0xbdaa43e8	-0.08313733
224	0x3d5220b7	0.05130073
225	0x3cc89f4b	0.02449002
226	0x3c925998	0.017864987
227	0xbc27ab1e	-0.010233669
228	0xbd06cab3	-0.032908153
229	0x3c280c0e	0.01025678
230	0x3c0772d7	0.008267126
231	0xbc504477	-0.012711636
232	0x3c950a24	0.018193312
233	0xbd05e9ae	-0.032693557
234	0x3d46cd8c	0.04853587
235	0xbb5571ca	-0.0032569044
236	0xbcf4e855	-0.02989594
237	0x3d3e6ad7	0.04648861
238	0x3d987c29	0.07445557
239	0xbd16a24c	-0.036775872
240	0x3dc29ad5	0.09502188
241	0xbd866a24	-0.065632135
242	0xbd0f6994	-0.035012797
243	0xbc40fb45	-0.011778657
244	0x3dc906b3	0.09815731
245	0xbdc3221f	-0.095279925
246	0x3d3c7144	0.046006456
247	0x3da19659	0.07890005
248	0xbd0bde57	-0.034147587
249	0x3956bfdc	0.00020480104
250	0x3d9dd3d7	0.07706421
251	0xbd1d71ca	-0.038438596
252	0xbb724a0a	-0.00369704
253	0xbc5a8b8f	-0.013338937
254	0x3d3d2ee9	0.046187315
255	0xbd99e1f2	-0.07513799

fc3.bias f4 [4]
0	0x3d8ce2ff	0.068792336
1	0x3c932e77	0.017966492
2	0x3cd80a97	0.026372237
3	0xbc8313b0	-0.016000599
