ml-models/LSTM-FFNN-GRU/models/lstm_model.pth (torch, 208455 bytes, 10 tensors)

lstm.weight_ih_l0 f4 [256, 4]
0	0xbbcad1c2	-0.006189556
1	0x3c8780cd	0.01654091
2	0xbd8bf828	-0.068344414
3	0xbf078357	-0.52934784
4	0x3d9a9c0f	0.07549297
5	0xbee3dc58	-0.44504046
6	0xbf122b6a	-0.57097495
7	0xbf98797c	-1.1912074
8	0xbf424b65	-0.7589629
9	0xbf420336	-0.7578615
10	0xbebfd43f	-0.37466618
11	0xbe7ce09b	-0.24695055
12	0x3d33c26a	0.04388658
13	0x3c982e19	0.018576669
14	0xbe3335a0	-0.17500925
15	0xbf9202b8	-1.140708
16	0x3e409c11	0.18809535
17	0xbee0bf9e	-0.43896192
18	0xbf32ec03	-0.69891375
19	0xbf847ac9	-1.0349971
20	0x3e16f8f2	0.14743403
21	0xbf103601	-0.56332403
22	0xbe75d173	-0.2400568
23	0xbf76e315	-0.9644025
24	0x3ebadbba	0.36495763
25	0x3cd7420a	0.026276607
26	0x3ef3012e	0.47461838
27	0xbf3f1465	-0.74640495
28	0x3f0a9182	0.5412828
29	0x3f4022a8	0.7505288
30	0xbf8d8da0	-1.1058846
31	0xbf058383	-0.52153796
32	0xbe5db69e	-0.21651694
33	0xbf5e33b8	-0.86797667
34	0xbf2ada48	-0.6673932
35	0xbf9e2b4f	-1.2356967
36	0xbecb7050	-0.39734125
37	0xbee6db73	-0.450893
38	0xbedce16c	-0.43140733
39	0xbf3d1cec	-0.73872256
40	0xbec3a656	-0.38212842
41	0x3cfda1de	0.030960973
42	0x3dfe8f1b	0.12429639
43	0xbf7f62a5	-0.99759895
44	0x3dedc5e3	0.116100095
45	0xbe50cb66	-0.2039009
46	0xbeac90b7	-0.3370416
47	0xbee89b24	-0.45430863
48	0xbf295e8c	-0.6615989
49	0xbf48aab3	-0.78385466
50	0xbfa42aff	-1.2825621
51	0xbf2e492d	-0.6808041
52	0x3e48d94c	0.19614142
53	0x3dbbf0c0	0.09176779
54	0xbf211eef	-0.62937826
55	0xbf8d6c4c	-1.1048675
56	0xbd14f1ac	-0.03636329
57	0x3e54cabb	0.2078046
58	0xbe8ef1bf	-0.27918813
59	0xbea39fdf	-0.3195791
60	0x3e97aa3c	0.29622066
61	0xbf2b06f2	-0.6680747
62	0xbf4bb8df	-0.79578966
63	0xbf6be561	-0.9214688
64	0x3d829afb	0.063772164
65	0xbee23f26	-0.44188803
66	0x3cd5cc04	0.026098259
67	0xbfd43973	-1.6580032
68	0x3de1ff34	0.11035004
69	0x3daedb4f	0.085379235
70	0x3eb1657f	0.34647748
71	0xbf676174	-0.90383077
72	0x3e5b7e0a	0.21434799
73	0x3f555a8c	0.8334129
74	0x3e90490d	0.28180733
75	0xbfad1ed6	-1.3525035
76	0x3b26c06d	0.0025444285
77	0xbf01e31d	-0.5073717
78	0xbfa2b4c4	-1.2711415
79	0xbfcc887b	-1.597915
80	0xbe17df8c	-0.1483137
81	0x3db89c61	0.09014202
82	0xbf57d903	-0.8431551
83	0xbee25706	-0.4420702
84	0x3eba8f56	0.36437482
85	0x3ec3fed0	0.38280344
86	0xbd8197a6	-0.06327753
87	0xbfa5658b	-1.2921613
88	0x3ed55ca4	0.41672242
89	0x3e20b414	0.15693694
90	0xbf947689	-1.1598674
91	0xbf8d6dcb	-1.1049131
92	0xbc60129f	-0.013676315
93	0x3d1fc135	0.039002616
94	0xbe2da762	-0.16958383
95	0x3c223dbd	0.009902415
96	0x3e6db003	0.23211674
97	0x3ea8b867	0.32953188
98	0xbcbfb7fd	-0.023403162
99	0xbfcbfb8e	-1.5936143
100	0xbd8581b8	-0.065188825
101	0x3d1db3a4	0.038501397
102	0xbcf2151c	-0.029551081
103	0x3ed78db0	0.42100286
104	0xbe725778	-0.23666179
105	0xbdf50adb	-0.11964961
106	0xbf56551d	-0.8372362
107	0xbfb48173	-1.4102005
108	0x3c15c94b	0.00914223
109	0xbd879bc0	-0.06621504
110	0xbe352e8f	-0.17693542
111	0xbf8c5f03	-1.0966495
112	0x3cc14b5d	0.023595506
113	0x3dc67c51	0.0969168
114	0xbf882854	-1.0637307
115	0xbf8812fa	-1.0630791
116	0x3f0c3bc9	0.54778725
117	0xbe93e251	-0.28883603
118	0xbda49d42	-0.08037807
119	0xbedcf7ef	-0.43157908
120	0x3db5e990	0.08882439
121	0xbe854793	-0.2603117
122	0xbdb54e15	-0.088527836
123	0xbfc06944	-1.5032125
124	0xbd747eef	-0.059691366
125	0xbe2525a0	-0.16127634
126	0x3cf118fe	0.029430863
127	0xbf1aa179	-0.6040264
128	0x3df9aed1	0.12191547
129	0xbe9b413b	-0.30323204
130	0xbf6069c2	-0.87661374
131	0xbfbea1fa	-1.4893181
132	0x3ddaaeae	0.10677849
133	0xbe02c0ff	-0.12768935
134	0xbdb91746	-0.09037642
135	0xbf9ec789	-1.2404643
136	0x3e80687d	0.25079718
137	0x3e40a215	0.1881183
138	0x3e62ce58	0.22149026
139	0xbed0ef24	-0.4080745
140	0x3e1e4358	0.15455377
141	0xbf2ee1c9	-0.6831327
142	0xbf1b1963	-0.6058561
143	0xbfcad0d4	-1.5844979
144	0x3dd3ff59	0.10351438
145	0xbf04f0af	-0.51929754
146	0xbf8a596b	-1.0808538
147	0xbefe22d7	-0.49635956
148	0x3e5ec98e	0.21756575
149	0x3e4efa43	0.20212655
150	0xbf81f497	-1.0152768
151	0xbff4c7df	-1.9123496
152	0xbc570ab9	-0.013125115
153	0xbdd23c84	-0.10265449
154	0xbe23bb90	-0.15989518
155	0xbfb0b580	-1.380539
156	0xbd950d61	-0.072779424
157	0x3ca4e824	0.020130225
158	0xbf14a0ac	-0.58057666
159	0xbfa7a06f	-1.3095835
160	0xbeb527bf	-0.35381886
161	0xbe3b5038	-0.1829232
162	0xbfa2a6e4	-1.2707181
163	0xbfbd1de7	-1.477475
164	0xbdc8d46d	-0.09806142
165	0xbe975aed	-0.29561558
166	0xbfa56018	-1.291995
167	0xbfbe906c	-1.4887824
168	0xbcbed7dc	-0.02329629
169	0xbebfe45b	-0.3747891
170	0xbee30c2f	-0.44345233
171	0xbf7038e3	-0.938368
172	0xbd81c807	-0.0633698
173	0xbe8cc65f	-0.27495095
174	0xbee706ae	-0.45122284
175	0xbf2cc561	-0.67488676
176	0xbdacfcc3	-0.08446648
177	0xbf1a0786	-0.6016773
178	0xbef0e579	-0.47050074
179	0xbfec277c	-1.844955
180	0x3ecb52dc	0.39711654
181	0x3e642b98	0.22282255
182	0xbf1a2033	-0.6020538
183	0xbfe31427	-1.7740525
184	0x3d8741a8	0.0660432
185	0x3d8efdab	0.06981977
186	0xbee7168a	-0.45134383
187	0xbfc52ca6	-1.5404251
188	0xbe106b25	-0.14103372
189	0xbf9ba9af	-1.2161158
190	0xbf880044	-1.0625081
191	0xbf8a3247	-1.0796593
192	0xbcf564c9	-0.029955285
193	0xbc22a523	-0.009927067
194	0xbfb64118	-1.4238615
195	0xbf8b2ec9	-1.0873653
196	0x3e93b6e7	0.2885048
197	0xbe74eb0a	-0.23917785
198	0x3f04978e	0.51793754
199	0xbf587df6	-0.845672
200	0xbe129f1c	-0.14318508
201	0xbd79d197	-0.060990896
202	0xbef2d273	-0.47426185
203	0xbf761b89	-0.96135765
204	0xbea91562	-0.33024126
205	0x3dd9bbaa	0.10631497
206	0xbf0400f4	-0.51563954
207	0xbf1f6ac3	-0.6227228
208	0x3d85014c	0.06494388
209	0xbf3a9bd6	-0.72894037
210	0xbeb9c4c4	-0.36282933
211	0xbf7b1d87	-0.9809193
212	0x3f6011b0	0.8752699
213	0x3f9967f7	1.1984853
214	0xbf12c2d6	-0.57328546
215	0xbf138384	-0.5762255
216	0x3ee6bdb3	0.45066604
217	0xbeb901e5	-0.36134258
218	0x3f1a8fb0	0.603755
219	0x3ec7c132	0.39014584
220	0x3dc98c99	0.0984127
221	0x3f174f33	0.59105223
222	0xbeb8bf9c	-0.36083686
223	0xbfb1a202	-1.3877566
224	0x3f19ac07	0.6002812
225	0x3f1992fa	0.59989893
226	0xbe8e0578	-0.27738547
227	0xbf04b9e8	-0.5184617
228	0x3ebbf52f	0.36710498
229	0x3ef3941a	0.4757393
230	0x3f345507	0.7044224
231	0x3d72d865	0.0592884
232	0x3ed95354	0.42446387
233	0x3c845d58	0.016157791
234	0xbf10a913	-0.56507987
235	0xbfde10cf	-1.734888
236	0xbd2bf9ec	-0.04198639
237	0xbebd2367	-0.36941072
238	0xbedffe51	-0.43748716
239	0xbfb6b111	-1.4272786
240	0x3e22b095	0.15887673
241	0xbf437f8c	-0.76366496
242	0xbe1c42b3	-0.15259819
243	0xbfddae8b	-1.7318891
244	0x3ed9b481	0.42520526
245	0xbdb12167	-0.08648949
246	0xbb6b8340	-0.0035936385
247	0xbef24f1d	-0.47325984
248	0x3e5e812b	0.21728961
249	0xbf0ae149	-0.5425001
250	0xbf03c5ea	-0.5147387
251	0xbfc7718a	-1.5581524
252	0x3e02c917	0.12772022
253	0xbeb3e468	-0.35135198
254	0x3d843a96	0.06456487
255	0xbec82d92	-0.39097267

lstm.weight_hh_l0 f4 [256, 64]
0	0x3db08bea	0.086204365
1	0x3e807215	0.25087038
2	0x3e8d7003	0.2762452
3	0xbc7dad02	-0.015483143
4	0x3e79bc4d	0.24388237
5	0x3e047702	0.12936023
6	0xbc5db37c	-0.013531562
7	0xbeb8b845	-0.36078086
8	0x3ea4d1bd	0.32191268
9	0x3d5905b0	0.05298394
10	0xbef0ea0a	-0.47053558
11	0x3e9b35f4	0.303146
12	0xbd39f3ad	-0.045398403
13	0x3e2532b5	0.16132624
14	0x3d56c3e2	0.052432902
15	0x3e441e10	0.19152093
16	0x3ddec9a5	0.108783044
17	0x3e133099	0.14374007
18	0xbd9ac93c	-0.07557914
19	0x3e9b595f	0.30341622
20	0x3d6d18a9	0.057884846
21	0xbe926d13	-0.28598842
22	0x3ea411ff	0.3204498
23	0xbe419dde	-0.18907878
24	0x3cb05f60	0.021529853
25	0xbdc2064a	-0.09473856
26	0xbea99590	-0.3312192
27	0x3eb9bae4	0.362754
28	0xbe2a3ba1	-0.16624309
29	0xbe840254	-0.25783026
30	0xbeddd3db	-0.43325695
31	0xbe600ae3	-0.21879153
32	0xbbb6eb6c	-0.0055822637
33	0xbe9f403e	-0.311037
34	0x3d94ebc3	0.072715305
35	0xbdf9747a	-0.12180419
36	0xbec1d679	-0.37858942
37	0x3ec0ae7d	0.37633124
38	0xbde14d17	-0.11001032
39	0x3e8bd2f4	0.27309382
40	0xbe4b994b	-0.19882695
41	0x3e3eb7d0	0.18624806
42	0x3d7d1568	0.061787993
43	0x3da76a49	0.08174569
44	0xbdee2e2b	-0.116298996
45	0xbecdd0b4	-0.4019829
46	0x3def6beb	0.116905056
47	0xbd3b7323	-0.0457641
48	0xbd98475b	-0.07435485
49	0xbe7573af	-0.23969911
50	0x3d6491ed	0.05580323
51	0x3eaa896c	0.3330797
52	0x3e406b81	0.1879101
53	0xbd0810df	-0.033219215
54	0xbe94c0af	-0.29053256
55	0xbdfd7d06	-0.12377362
56	0xbe9220a2	-0.28540522
57	0xbce7bcff	-0.028288363
58	0xbd72aa15	-0.059244234
59	0xbcc0ea84	-0.023549326
60	0xbdeb8e75	-0.11501781
61	0xbec22a08	-0.37922692
62	0xbebac7d4	-0.36480582
63	0xbe5047ef	-0.2033994
64	0x3d640814	0.055671766
65	0x3e91ab01	0.28450778
66	0x3e54f297	0.20795666
67	0xbdece372	-0.11566819
68	0x3eed6c3d	0.46371642
69	0x3e736adf	0.23771237
70	0x3cac8923	0.021061486
71	0xbef511d5	-0.47865167
72	0x3e842e8b	0.2581676
73	0xbea09c54	-0.3136927
74	0xbe348df3	-0.17632274
75	0x3d6c1dfc	0.057645783
76	0xbedefc12	-0.4355169
77	0x3e3dbec7	0.18529807
78	0x3dbface5	0.09359149
79	0x3d1cc4cf	0.03827363
80	0x3e338a79	0.17533292
81	0xbd9eaefc	-0.07748219
82	0xbe7a7e08	-0.2446214
83	0x3e952fb9	0.29137972
84	0xbe326ab9	-0.17423524
85	0xbe5aa2b9	-0.21351136
86	0x3f59e92f	0.85121435
87	0x3db7a49c	0.089669436
88	0x3e8d8f75	0.27648512
89	0x3da14020	0.07873559
90	0xbf0d31e9	-0.5515428
91	0x3f0defe3	0.55444163
92	0xbf173c5c	-0.59076476
93	0xbe29d89c	-0.16586536
94	0xbe82cec3	-0.25548372
95	0xbdc11f64	-0.094298154
96	0x3ebcfb4d	0.36910477
97	0xbea6a166	-0.32545012
98	0x3f0b09c4	0.54311776
99	0xbcb785dd	-0.022402698
100	0xbf80cc48	-1.0062342
101	0x3f0ba59a	0.5454956
102	0xbeaf9504	-0.34293377
103	0x3f2c4f4f	0.67308515
104	0xbed18048	-0.40918183
105	0x3eb3568d	0.3502697
106	0x3e7991ed	0.24372073
107	0xbe33af3c	-0.17547315
108	0xbf24a8e0	-0.6432018
109	0xbf2979bb	-0.6620137
110	0x3e6bb1b8	0.23017013
111	0xbe84350b	-0.2582172
112	0xbe7917f0	-0.24325538
113	0xbe1e7d6b	-0.1547753
114	0x3e9013af	0.28140017
115	0x3f00bd35	0.50288707
116	0x3d846d0c	0.064661115
117	0xbe0fe796	-0.14053187
118	0xbe7fe681	-0.24990274
119	0xbe4d413a	-0.20044413
120	0xbf022495	-0.5083707
121	0xbdc9eead	-0.09859977
122	0xbec9a68c	-0.39384878
123	0x3eb8b634	0.3607651
124	0xbe3078aa	-0.1723353
125	0xbf2b8f94	-0.6701596
126	0x3dc6992a	0.096971825
127	0xbe8b1f2c	-0.2717222
128	0xbdb7791e	-0.08958648
129	0xbe5302ab	-0.20606486
130	0xbe299d69	-0.16563953
131	0xbe1fa10c	-0.15588778
132	0x3e49a0d0	0.19690251
133	0x3e888c3b	0.26669487
134	0x3e062f47	0.13103972
135	0xbeebe3d2	-0.4607225
136	0x3e5689a3	0.20950942
137	0x3d4f9435	0.05067845
138	0xbe23feb4	-0.1601513
139	0xbec9f391	-0.3944364
140	0x3e8ffcdd	0.28122607
141	0xbe626e40	-0.2211237
142	0xbedaa221	-0.4270182
143	0x3e95668d	0.29179803
144	0xbef394e1	-0.47574523
145	0xbeae60a2	-0.340581
146	0x3e14c6d3	0.1452897
147	0xbe7283e2	-0.23683122
148	0xbd9a96d5	-0.075483
149	0x3f360fd9	0.7111793
150	0x3e680666	0.22658691
151	0x3ecf7b66	0.40523833
152	0xbea4760a	-0.32121307
153	0x3e035fb4	0.12829477
154	0x3e6aed83	0.22942166
155	0x3eb2b568	0.34904027
156	0x3eb7cc29	0.3589795
157	0x3eadac59	0.33920553
158	0x3f079fd4	0.52978253
159	0xbe9d118a	-0.30677444
160	0x3ee40570	0.44535398
161	0x3e02910d	0.12750645
162	0xbef37af2	-0.47554737
163	0x3d265c89	0.040615592
164	0x3f3af553	0.73030585
165	0xbebfe2f7	-0.37477848
166	0xbdd47856	-0.10374515
167	0x3cd48abc	0.02594506
168	0xbd0c7a11	-0.0342961
169	0x3ea64485	0.3247415
170	0xbe2d54ba	-0.16926852
171	0xbe5d37fc	-0.21603388
172	0x3e5a5ef5	0.21325286
173	0xbeebcd64	-0.46055138
174	0xbd7dd0d7	-0.061966743
175	0x3d4d46b4	0.050116256
176	0xbe6975a1	-0.22798778
177	0x3ec55a62	0.3854552
178	0xbe9fba07	-0.31196615
179	0x3e6507d4	0.22366267
180	0xbe579cb6	-0.21055874
181	0xbeff3073	-0.4984165
182	0x3ed8f164	0.42371666
183	0x3ecfff8f	0.40624663
184	0xbef99a57	-0.48750564
185	0x3d8e5487	0.06949716
186	0x3ec32a90	0.3811841
187	0x3d81d694	0.06339756
188	0x3d5bea1f	0.053690072
189	0xbdb41239	-0.08792538
190	0x3f186c91	0.5954066
191	0xbe3d38b3	-0.1847866
192	0x3e03fdfe	0.12889859
193	0x3e21d172	0.15802553
194	0xbe8ae0f0	-0.2712474
195	0xbe089d68	-0.13341296
196	0x3decc298	0.11560553
197	0x3e48413f	0.1955614
198	0x3db7764d	0.08958111
199	0x3e554feb	0.20831268
200	0x3ea473df	0.32119653
201	0xbdcd18cc	-0.10014495
202	0xbdf7ded0	-0.12103045
203	0x3d2a02f6	0.04150673
204	0xbe7ff45a	-0.24995556
205	0x3e31d052	0.17364624
206	0x3e6fa730	0.2340362
207	0x3e9d6934	0.30744326
208	0xbd7a7727	-0.06114879
209	0xbd95de1d	-0.07317755
210	0xbc5c6c92	-0.01345362
211	0x3eb13599	0.34611204
212	0xbea07360	-0.31338024
213	0x3dc5e7c9	0.0966335
214	0xbd55c15e	-0.052186362
215	0xbdd030d7	-0.101655655
216	0xbd9b605a	-0.07586737
217	0x3d67ac5c	0.05656086
218	0xbc77186d	-0.015081507
219	0xbe8a0203	-0.2695466
220	0xbeb132a2	-0.34608942
221	0x3e70af13	0.23504286
222	0xbe2d566d	-0.169275
223	0xbe51aa23	-0.20475058
224	0x3e61e3c5	0.22059543
225	0xbe51d6b2	-0.20492056
226	0x3e2eb9ae	0.17063019
227	0xbe22b8fe	-0.15890881
228	0xbd8df0d5	-0.06930701
229	0x3e767a06	0.24069986
230	0xbe5b1b86	-0.21397218
231	0x3d405540	0.0469563
232	0x3d98dbd6	0.074638054
233	0x3dbd3bb1	0.09239901
234	0x3e6589dd	0.22415872
235	0x3d3ed918	0.046593755
236	0x3d869cb4	0.065728575
237	0x3df62193	0.120181225
238	0x3e513eb0	0.2043407
239	0xbea10204	-0.3144685
240	0xbe75307a	-0.23944274
241	0xbe861885	-0.26190582
242	0x3e103b20	0.14085054
243	0x3d398c38	0.04529974
244	0xbdc9e34b	-0.09857806
245	0x3db1dd6f	0.08684813
246	0xbe3927ae	-0.18081543
247	0xbc5af91e	-0.013365058
248	0x3ebeed7e	0.37290567
249	0xbdf8d967	-0.12150841
250	0xbe2bd04c	-0.16778678
251	0x3dac911f	0.08426117
252	0xbb9af4e8	-0.004728902
253	0x3d9e8181	0.07739545
254	0xbd869897	-0.06572073
255	0x3e71625d	0.23572679

lstm.bias_ih_l0 f4 [256]
0	0xbe151677	-0.14559351
1	0xbbc82417	-0.006107818
2	0xbeb0f4ef	-0.3456187
3	0xbe33414d	-0.17505379
4	0x3b199610	0.0023435391
5	0xbe74bf13	-0.23901014
6	0xbe5aa696	-0.2135261
7	0xbe5c6dde	-0.21526286
8	0xbe216467	-0.15760957
9	0xbecbbeaa	-0.39793903
10	0xbe9c015d	-0.3046979
11	0x3e1752f0	0.14777732
12	0xbdb5d455	-0.0887839
13	0xbe19c37f	-0.15015982
14	0xbe4d7731	-0.20064999
15	0xbdc5724c	-0.09640941
16	0xbd485750	-0.048911393
17	0x3df21dd6	0.11822097
18	0xbd227ee1	-0.039671782
19	0x3e298bc6	0.16557226
20	0xbe128faa	-0.14312616
21	0xbd0f28c2	-0.03495098
22	0xbdc021a9	-0.0938142
23	0xbea82a3f	-0.3284473
24	0x3e426642	0.18984321
25	0xbe91b8e8	-0.28461385
26	0xbd1c8b58	-0.038218826
27	0xbe971f29	-0.2951596
28	0xbd2d98e5	-0.04238214
29	0x3d818011	0.06323255
30	0xbea404b7	-0.32034847
31	0xbe67e6a0	-0.2264657
32	0x3dab3590	0.083598256
33	0xbe0d40e6	-0.13794288
34	0xbe91f72a	-0.28508884
35	0xbe46edad	-0.19426604
36	0x3e0fec07	0.14054881
37	0xbe99b654	-0.30021918
38	0xbb71dc27	-0.0036904903
39	0xbd35e838	-0.044410914
40	0xbdfefd06	-0.12450604
41	0xbe3fb14b	-0.18719976
42	0xbe0857e7	-0.13314782
43	0xbe1ec957	-0.15506493
44	0xbdb5c652	-0.08875717
45	0x3d8c6e88	0.0685702
46	0xbe70657c	-0.23476213
47	0xbd40fc6a	-0.04711572
48	0xbd6d8284	-0.057985798
49	0xbd2faf04	-0.042891517
50	0xbe3e53db	-0.18586676
51	0xbe829519	-0.25504377
52	0xbcd651ce	-0.026162054
53	0xbce7edbf	-0.028311608
54	0xbdddb966	-0.108263776
55	0xbdb273a9	-0.08713467
56	0x3da153c8	0.07877308
57	0xbe070c66	-0.13188323
58	0xbcfe6a18	-0.031056449
59	0x3d0dadac	0.034589455
60	0x3d9ba524	0.075998574
61	0xbd1faf4a	-0.038985528
62	0xbe325658	-0.1741575
63	0xbd625562	-0.05525721
64	0xbe64012d	-0.22266074
65	0xbd7d109e	-0.061783426
66	0xbd5d6f58	-0.054061264
67	0xbe48a680	-0.19594765
68	0xbe45bb48	-0.19309723
69	0xbd5df15a	-0.05418525
70	0xbccfd84f	-0.025371699
71	0xbd0b9c8d	-0.034084845
72	0xbcda9468	-0.026682094
73	0xbdfca490	-0.12336075
74	0xbe2d74cc	-0.16939086
75	0xbea449d4	-0.32087576
76	0xbe03fe9c	-0.12890095
77	0x3d3e2ccb	0.046429437
78	0xbc70377a	-0.014661664
79	0xbde39c0e	-0.111137494
80	0xbe03ae13	-0.12859373
81	0x3e46afca	0.19402996
82	0x3de451ba	0.111484006
83	0x3dac3ed2	0.084104195
84	0x3ea93d10	0.330544
85	0x3c0dcee0	0.00865528
86	0xbd54ea3e	-0.051981203
87	0xbe1d230a	-0.15345398
88	0x3e6860f1	0.2269323
89	0xbde075b8	-0.10959953
90	0x3c3f299f	0.011667638
91	0xbe06252b	-0.13100116
92	0xbe3760cc	-0.17908019
93	0xbe189794	-0.14901572
94	0xbdde3413	-0.10849776
95	0x3d6eb5e7	0.058278944
96	0xbd676386	-0.056491397
97	0x3c79060d	0.0151991965
98	0xbe50e756	-0.20400748
99	0xbd8df01b	-0.06930562
100	0xbe1f7b54	-0.1557439
101	0x3c9b7d97	0.018980784
102	0xbe63b3fc	-0.22236627
103	0x3e2d7c0d	0.16941853
104	0xbe187a5e	-0.1489043
105	0xbd1410b7	-0.036148753
106	0x3b877536	0.0041338457
107	0x3dec4426	0.11536436
108	0xbe2d0c27	-0.16899167
109	0xbb409409	-0.002938511
110	0x3ba0422a	0.0048907
111	0xbe7cc5e2	-0.24684861
112	0x3d32305c	0.04350315
113	0xbd7ac9f7	-0.061227765
114	0xbe538830	-0.2065742
115	0xbdf3d4cb	-0.119058214
116	0xbe3d88d8	-0.18509233
117	0xbac82025	-0.0015268369
118	0xbe8f1170	-0.2794299
119	0x3d543da3	0.051816594
120	0x3e2d5c77	0.16929804
121	0xbe47befb	-0.19506447
122	0x3ceb1efb	0.028701296
123	0x3cd3b1f7	0.025841696
124	0xbe856697	-0.26054832
125	0x3d8301d3	0.06396832
126	0xbe549dc4	-0.20763308
127	0xbe957df6	-0.29197663
128	0xbc94255b	-0.018084219
129	0x3d6515b2	0.055928893
130	0xbb3d72dd	-0.0028907575
131	0xbce01983	-0.027355915
132	0x3e20ed0a	0.15715423
133	0x3db044d6	0.086068794
134	0x3d84285e	0.06453012
135	0x3d59f789	0.053214584
136	0x3c44d527	0.01201371
137	0x3c4415d2	0.011968093
138	0xbb38c3f2	-0.0028192964
139	0xbb017935	-0.0019756083
140	0xbd32b50f	-0.043629702
141	0x3da36d83	0.07979872
142	0xbb8c65d5	-0.0042846003
143	0xbd0a44c3	-0.033756983
144	0x3ccc73c5	0.024957547
145	0xbe1e746b	-0.15474097
146	0xbd458d8a	-0.048230685
147	0xbd87dd17	-0.066339664
148	0xbe167f82	-0.14697078
149	0xbd843167	-0.06454735
150	0x3cb712d3	0.022347843
151	0x3c9ecf25	0.019385884
152	0x3e01ea00	0.1268692
153	0x3cc3b7b8	0.023891315
154	0xbc0fa4eb	-0.008767347
155	0x3d70725f	0.058702823
156	0xbdd38a31	-0.10329092
157	0x3d8e4e42	0.0694852
158	0xbe01919b	-0.126532
159	0xbe22b401	-0.15888979
160	0x3c02bf6b	0.007980208
161	0xbd8b20e3	-0.06793382
162	0x3b794c4a	0.0038039857
163	0xbd970380	-0.073737144
164	0xbd7475a6	-0.05968251
165	0xbd08e1d5	-0.033418495
166	0xbc86d6dc	-0.016459875
167	0xbcf0266e	-0.0293152
168	0xbdac461f	-0.08411812
169	0x3dda48e8	0.10658437
170	0xbbbf975e	-0.005846902
171	0xbe419350	-0.18903852
172	0xbd2496e1	-0.04018295
173	0x3d872611	0.065990575
174	0x3da837ec	0.08213791
175	0xbdeb5ccb	-0.11492308
176	0xbba2fa4c	-0.0049736854
177	0x3c409d87	0.011756307
178	0x3def9dc0	0.1170001
179	0x3da80ffa	0.08206172
180	0xbe25d418	-0.16194189
181	0x3d8240b5	0.06359998
182	0xbc8fa564	-0.01753492
183	0xbc69f71d	-0.014280108
184	0x3dd25254	0.10269609
185	0xbdcb91bf	-0.09939908
186	0xbdd9bf2f	-0.106321685
187	0x3d80557c	0.06266305
188	0x38480ce8	4.7695736e-05
189	0xbcef548b	-0.029215118
190	0xbd01f79d	-0.031730283
191	0x3cc5c7f8	0.024143204
192	0xbe975731	-0.2955871
193	0x3dadfb66	0.08495216
194	0xbe4332c0	-0.19062328
195	0xbe989f9f	-0.2980928
196	0xbd790070	-0.060791433
197	0xbe49d7d5	-0.1971124
198	0xbe17f264	-0.14838558
199	0xbacd2010	-0.0015649814
200	0xbe909922	-0.2824183
201	0xbecd90a0	-0.40149403
202	0xbe9b15a1	-0.3028994
203	0x3e11ba02	0.14231113
204	0xbddcbf42	-0.10778667
205	0x3d2e5dce	0.042569928
206	0xbeb8d8c7	-0.36102888
207	0xbdb32177	-0.08746617
208	0xbd91f5ed	-0.07126985
209	0x3e3098e7	0.17245828
210	0xbca0825c	-0.01959341
211	0x3df3b145	0.11899046
212	0xbe037955	-0.12839253
213	0xbd6a8906	-0.057259582
214	0xbcf2b9f4	-0.029629685
215	0xbe9bb7a1	-0.30413535
216	0x3db98f61	0.090605505
217	0xbe91cf06	-0.2847826
218	0xbdf2bfbe	-0.11852978
219	0xbe02d952	-0.12778214
220	0x3d1bc896	0.03803309
221	0x3dc51120	0.09622407
222	0xbdd7006e	-0.10498129
223	0xbe675464	-0.22590786
224	0xbcb8b85c	-0.022548847
225	0x3d00bf04	0.031432167
226	0xbe396824	-0.18106133
227	0xbe85e286	-0.26149386
228	0x3e0909fc	0.13382715
229	0xbe8eed08	-0.27915215
230	0x3c4b8c50	0.01242359
231	0xbdca58fd	-0.098802544
232	0x3d913eca	0.07092054
233	0xbd8c8327	-0.06860953
234	0xbe026296	-0.1273292
235	0xbca774a6	-0.020441364
236	0xbe3ce2e3	-0.18445925
237	0x3e324bba	0.174117
238	0xbe04fe29	-0.1298758
239	0xbe14f133	-0.14545135
240	0xbde62f05	-0.11239437
241	0x3dc58869	0.09645159
242	0xbe84d00f	-0.25939986
243	0xbe53fff2	-0.20703104
244	0x3c9048c0	0.017612815
245	0xbe5965b9	-0.2123021
246	0xbd100298	-0.035158724
247	0xbe231c05	-0.15928657
248	0xbc5cbb34	-0.013472367
249	0xbd5b6277	-0.0535607
250	0xbd86072b	-0.06544336
251	0x3d5d6c62	0.05405844
252	0xbdeb1187	-0.114779525
253	0x3c532efe	0.012889622
254	0xbd089603	-0.033346187
255	0xbe1f0d53	-0.15532427

lstm.bias_hh_l0 f4 [256]
0	0xbda8f0ef	-0.082490794
1	0x3de3e786	0.11128144
2	0xbeab8122	-0.33496958
3	0xbdf6e928	-0.1205619
4	0x3cc471c1	0.023980023
5	0xbe90f011	-0.28308156
6	0xbde7b173	-0.11313143
7	0xbe19d0f3	-0.15021114
8	0xbeaa63f0	-0.3327937
9	0xbea32713	-0.3186575
10	0xbe928407	-0.28616354
11	0x3c17d87e	0.009267924
12	0xbca243e5	-0.019807765
13	0xbe2e97e6	-0.17050132
14	0xbea6a23d	-0.32545653
15	0xbd8b38e4	-0.067979604
16	0x3c86650b	0.016405603
17	0xbc1a2d29	-0.009410181
18	0xbd9dc5f5	-0.07703773
19	0x3d0f19f7	0.03493687
20	0xbd45b216	-0.04826554
21	0xbce511f0	-0.027962655
22	0x3d5395ce	0.051656537
23	0xbe42f937	-0.1904038
24	0x3e535d0b	0.20640962
25	0xbe5fc433	-0.21852188
26	0xbe22b2f0	-0.15888572
27	0xbdec717c	-0.11545083
28	0xbdb04c26	-0.08608274
29	0xbd20a2e0	-0.03921783
30	0xbeab9c35	-0.33517614
31	0xbdcc6a35	-0.09981195
32	0xbd52824e	-0.0513938
33	0xbd8dfea9	-0.06933338
34	0xbec17a45	-0.37788597
35	0xbe8cc936	-0.27497262
36	0x3df6eebf	0.12057256
37	0xbe9e2b6c	-0.30892503
38	0xbd75a182	-0.05996848
39	0xbe880039	-0.2656267
40	0x3d1d15df	0.038350936
41	0xbcfd9353	-0.030954039
42	0xbe3a7814	-0.18209869
43	0x3d4f0230	0.050539196
44	0xbe3e673a	-0.18594065
45	0x3db1d6c9	0.08683545
46	0xbd897ad2	-0.06712879
47	0xbdf22846	-0.11824088
48	0xbdc4a2f8	-0.09601396
49	0x3d14328a	0.03618101
50	0xbe531411	-0.20613123
51	0xbe6bb66d	-0.23018809
52	0x3d85f31e	0.065405115
53	0x3d1c12d4	0.038103893
54	0x3db7568e	0.08952056
55	0xbd8cddb7	-0.06878226
56	0x3d6b6b6d	0.057475496
57	0xbdb764e9	-0.08954794
58	0xbe576b7a	-0.21037093
59	0xbdea726c	-0.114476055
60	0x3c2f4d6b	0.01069961
61	0x3d616a85	0.055033226
62	0xbe3e3895	-0.18576272
63	0xbe0d61dc	-0.13806862
64	0xbe8d7fdf	-0.2763662
65	0xbd9e522e	-0.07730518
66	0xbd90950c	-0.070596784
67	0xbe1762a8	-0.14783728
68	0xba1489ff	-0.0005666315
69	0xbe4113d0	-0.18855214
70	0x3cdd8e67	0.027045442
71	0xbe1395e9	-0.14412655
72	0xbe7598e8	-0.2398411
73	0xbe770b41	-0.24125387
74	0xbe31833b	-0.17335217
75	0xbed0056e	-0.40629143
76	0x3d693cbf	0.056942698
77	0xbc6fa251	-0.014626102
78	0xbcc6fad5	-0.024289528
79	0xbe81c424	-0.25344956
80	0xbe5896f9	-0.21151341
81	0x3e456369	0.19276203
82	0xbc233b0f	-0.009962811
83	0x3d8081b5	0.0627474
84	0x3e88d995	0.26728502
85	0x3e00fa78	0.12595546
86	0xbd76ad51	-0.06022388
87	0xbe4135db	-0.188682
88	0x3dd7cf4b	0.10537585
89	0xbe512452	-0.20424011
90	0xbd864d52	-0.065577164
91	0xbe72e0c4	-0.23718554
92	0xbe26bd64	-0.16283184
93	0xbd4de53a	-0.050267436
94	0xbdf678fe	-0.12034796
95	0x3e1e0aa6	0.1543375
96	0xbd321b66	-0.04348316
97	0xbd2c2c61	-0.04203451
98	0xbe32e87d	-0.174715
99	0xbe5c83c8	-0.21534646
100	0x3d7652c5	0.06013753
101	0xbe234bc3	-0.1594687
102	0xbdf60401	-0.120124824
103	0x3e0aa01a	0.13537636
104	0xbdff20df	-0.124574415
105	0xbdd1d50a	-0.10245712
106	0x3d8a4c1b	0.06752797
107	0x3e70c7ae	0.23513672
108	0xbe8fb8ec	-0.28070772
109	0x3e133ae0	0.14377928
110	0xbe0cfc5e	-0.13768145
111	0xbe4a79e2	-0.19773057
112	0xbdb58135	-0.08862535
113	0x3c95591e	0.018230971
114	0xbe5db169	-0.21649708
115	0xbe11db8e	-0.1424391
116	0xbe2bf8a7	-0.16794072
117	0xbde0c664	-0.1097534
118	0xbea43c6a	-0.32077342
119	0xbd71b1b1	-0.05900735
120	0x3dd9c888	0.106339514
121	0xbd2c0ee3	-0.042006385
122	0x3d48fe47	0.049070623
123	0x3db87300	0.090063095
124	0xbde22eaf	-0.110440604
125	0x3d206b7e	0.039165013
126	0xbe5b2aac	-0.21402997
127	0xbed6a3bf	-0.41921803
128	0x3c7d074f	0.015443637
129	0x3e07fdfe	0.13280484
130	0x3d3733d0	0.044727147
131	0xbcc8b635	-0.024500946
132	0xbd7d549e	-0.061848275
133	0x3d8c7d5b	0.06859847
134	0x3cf0b5a5	0.02938349
135	0x3d23db87	0.04000428
136	0xbd36e015	-0.044647295
137	0xbdc5e178	-0.096621454
138	0xbcd065fd	-0.025439257
139	0xbd63f547	-0.055653837
140	0x3dbf06ab	0.09327444
141	0xbcf64118	-0.030060336
142	0x3daa6545	0.08320097
143	0xbc9ed364	-0.019387908
144	0x3dacaae0	0.08431029
145	0xbd50b90e	-0.050957732
146	0x3c13f2fe	0.009030102
147	0x3da0a61b	0.07844182
148	0xbc604052	-0.01368721
149	0xbdb2f806	-0.08738713
150	0x3daaa1ae	0.08331619
151	0x3da0950f	0.07840931
152	0xbd0b4a15	-0.034006197
153	0xbde4f069	-0.11178667
154	0xbe1eb3d9	-0.15498294
155	0xbe09b4cf	-0.13447879
156	0xbd7e7f13	-0.062132906
157	0xbcd18cb0	-0.02557978
158	0xbd95e5b2	-0.073192015
159	0x3bd1ffb5	0.0064086565
160	0x3d8da935	0.06917039
161	0x3cb1c5f9	0.021700846
162	0x3d4be557	0.049779262
163	0xbd00a5cc	-0.031408116
164	0x3d9db0da	0.076997474
165	0x3e0aa55c	0.13539642
166	0xbdb9089c	-0.09034845
167	0x3e20d1da	0.15705052
168	0xbde05cd4	-0.109552056
169	0x3cb72658	0.02235715
170	0x3e307ebd	0.17235847
171	0x3cdf38ce	0.027248766
172	0xbd43359f	-0.04765856
173	0xbdf2d99b	-0.11857911
174	0x3c7fc50e	0.015610946
175	0x3d7e8046	0.06213405
176	0xbdfdc4f1	-0.12391079
177	0x3d2f3699	0.042776678
178	0x3de87fdd	0.11352513
179	0x3d76bbb7	0.060237613
180	0xbdd26278	-0.10272688
181	0x3c973a5f	0.01846045
182	0xbc0aa06b	-0.008461098
183	0xbdd7b4d1	-0.10532535
184	0xbd0a8207	-0.03381541
185	0xbc1b2859	-0.009470069
186	0xbd79c842	-0.060981996
187	0x3e09ec16	0.13468966
188	0xbd16913c	-0.0367596
189	0x3d01c792	0.031684466
190	0xbe2193f0	-0.1577909
191	0xbd634e72	-0.055494733
192	0xbdb963d7	-0.09052246
193	0x3d9ac9a1	0.07557989
194	0xbe96d79d	-0.29461375
195	0xbe51b04b	-0.20477407
196	0x3c8f7131	0.017510029
197	0xbdedb466	-0.11606674
198	0xbda99d08	-0.082819045
199	0xbd9df4ef	-0.07712733
200	0xbe568969	-0.20950855
201	0xbea99d21	-0.33127692
202	0xbebc0d87	-0.3672907
203	0xbbda2225	-0.0066569024
204	0x3d044cab	0.03229968
205	0xbd2b8436	-0.041874133
206	0xbec09c0d	-0.37619057
207	0xbe048ce3	-0.12944369
208	0xbafc5797	-0.0019252178
209	0x3e2ea11b	0.17053644
210	0xbc97aa0f	-0.018513707
211	0x3e68c0b2	0.22729757
212	0xbc8f15dd	-0.01746648
213	0xbd7a9e25	-0.061185975
214	0x3d859964	0.065233976
215	0xbe951759	-0.29119375
216	0x3e17f8fd	0.14841075
217	0xbe8e8f2b	-0.27843603
218	0xbdd0d877	-0.101975374
219	0xbe49932a	-0.19685045
220	0x3d0463f3	0.03232188
221	0x3c783234	0.015148688
222	0xbe01ec33	-0.12687759
223	0xbeaea3f4	-0.3410946
224	0x3db5ec82	0.08883001
225	0xbdf59e12	-0.1199304
226	0xbea5f3ff	-0.32412717
227	0xbdb618d2	-0.08891453
228	0x3ca0dd81	0.019636871
229	0xbe853039	-0.26013353
230	0x3ce6e07d	0.028183216
231	0xbdaacfc3	-0.08340409
232	0x3d9afe57	0.07568043
233	0xbe32ab84	-0.1744824
234	0xbe03b89d	-0.12863393
235	0xbe24cc4f	-0.16093563
236	0xbccf18e3	-0.025280422
237	0x3e8b8cd1	0.27255872
238	0xbdbc0b50	-0.09181845
239	0xbd8e2a2b	-0.06941637
240	0xbe448a0d	-0.19193287
241	0xbcc00659	-0.023440527
242	0xbec5aeff	-0.38610074
243	0xbec1d9f4	-0.37861598
244	0x3da51693	0.08060946
245	0xbddec4fd	-0.10877416
246	0x3da2382f	0.079208724
247	0xbe13330c	-0.14374942
248	0x3dae4152	0.085085526
249	0x3a9510d8	0.0011372818
250	0x3c4a8ec8	0.012363143
251	0x3d2c8d00	0.042126656
252	0x3ca16cd0	0.019705206
253	0x3c681637	0.014165453
254	0xbda80ef4	-0.08205977
255	0xbe5b3516	-0.2140697

lstm.weight_ih_l1 f4 [256, 64]
0	0xbef01c63	-0.46896657
1	0xbf64b30e	-0.89335716
2	0xbe21a6b0	-0.15786242
3	0x3d62b6ed	0.055350233
4	0xbd8b49c8	-0.06801182
5	0xbecef547	-0.40421507
6	0x3e85321a	0.26014787
7	0xbf2c3afc	-0.67277503
8	0xbe9286b7	-0.28618404
9	0xbe833f7a	-0.25634366
10	0xbdfa1004	-0.12210086
11	0xbe861801	-0.2619019
12	0x3d736b21	0.059428338
13	0xbee53428	-0.44766355
14	0xbec70711	-0.3887258
15	0x3d22aae7	0.039713766
16	0xbf678fde	-0.904539
17	0xbdbcacef	-0.09212672
18	0xbe02c509	-0.12770475
19	0xbef29d42	-0.47385603
20	0xbede2cc5	-0.4339353
21	0x3ebc7dca	0.3681472
22	0x3e144654	0.14479953
23	0xbebaf44e	-0.36514515
24	0xbecc7453	-0.39932498
25	0x3ec11eda	0.3771885
26	0x3ec7fe51	0.39061216
27	0xbda2f83e	-0.07957505
28	0x3f0f5373	0.5598671
29	0xbe07d7e8	-0.13265955
30	0x3f2f2e07	0.6842961
31	0xbec7b4f1	-0.39005235
32	0x3e52029b	0.20508806
33	0xbe3be799	-0.18350066
34	0xbe1bd06c	-0.15216225
35	0x3e10c2e0	0.14136839
36	0x3e0906cd	0.133815
37	0xbec5eba3	-0.3865634
38	0x3ef1a557	0.47196457
39	0x3e362da1	0.17790844
40	0x3ecc3e01	0.39891055
41	0x3e7ba893	0.24576025
42	0xbea56ad4	-0.32308066
43	0xbc4bb674	-0.012433637
44	0x3eda187b	0.42596802
45	0xbe3c03e7	-0.18360864
46	0xbde6536a	-0.11246379
47	0x3e06a302	0.1314812
48	0xbdecbc4f	-0.115593545
49	0x3ec07f51	0.37597135
50	0xbf00bf92	-0.50292313
51	0x3f0b608d	0.544442
52	0x3f5a87c9	0.8536344
53	0xbee57e60	-0.4482298
54	0xbe4b7069	-0.198671
55	0x3eac96d9	0.33708838
56	0x3e3cbec6	0.1843215
57	0xbe84e570	-0.25956297
58	0x3eff1bfa	0.49826032
59	0xbdc1999d	-0.094531275
60	0x3e810b7b	0.2520407
61	0xbc8cc162	-0.017182056
62	0x3f3bb93a	0.7332951
63	0xbcf31117	-0.029671235
64	0x3ea57ca4	0.32321656
65	0xbe98e9b7	-0.2986581
66	0x3df282d1	0.118413575
67	0xbe68e3eb	-0.22743194
68	0xbe138706	-0.14406976
69	0x3e0db307	0.13837825
70	0xbe3847e5	-0.17996176
71	0x3f1af55a	0.60530627
72	0x3d854db0	0.06508958
73	0xbe523f2e	-0.20531914
74	0xbea08588	-0.31351876
75	0x3e17b478	0.14814937
76	0xbeef8033	-0.46777496
77	0x3ee2396f	0.44184443
78	0x3db47e67	0.08813172
79	0xbe821ce2	-0.2541266
80	0xbe491e75	-0.19640525
81	0xbe3616e1	-0.17782165
82	0x3e806f71	0.25085023
83	0x3c2f0f99	0.010684871
84	0xbe275bbc	-0.16343588
85	0x3f01ccf2	0.50703347
86	0xbef32c34	-0.47494662
87	0x3c194116	0.009353897
88	0xbebe06f4	-0.3711468
89	0x3f22f163	0.63649577
90	0xbea7fc10	-0.32809496
91	0xbe6282f7	-0.22120272
92	0xbf042e8d	-0.5163353
93	0xbf24c137	-0.6435732
94	0x3f1503d2	0.58208954
95	0xbe5cdff1	-0.21569802
96	0x3e4a5690	0.19759583
97	0x3e609c85	0.21934707
98	0xbe6cedac	-0.2313754
99	0xbe70a521	-0.23500492
100	0xbd9251c5	-0.071445026
101	0x3d8512a2	0.064976946
102	0xbe94e2c8	-0.2907927
103	0xbca83ac7	-0.02053584
104	0xbeb69e66	-0.35667723
105	0x3e1ccc16	0.15312228
106	0xbe046a54	-0.12931186
107	0xbea468aa	-0.32111102
108	0xbd800387	-0.06250673
109	0x3e94ff28	0.2910092
110	0x3e552ba8	0.20817435
111	0xbe7dab95	-0.24772485
112	0xbebe3a9f	-0.371541
113	0xbdf4a484	-0.11945441
114	0x3ebf6f11	0.37389424
115	0xbb0e2ad5	-0.002169301
116	0x3ebe0e30	0.371202
117	0x3f2b702d	0.6696804
118	0x3ee2e75c	0.44317138
119	0x3f004d73	0.5011818
120	0x3e869563	0.26285848
121	0x3f514184	0.81740594
122	0xbe5cf56a	-0.21577993
123	0x3e944d4f	0.28965232
124	0xbd95660e	-0.07294856
125	0x3e887c52	0.2665735
126	0x3ead02a9	0.33791092
127	0x3ea4a7d9	0.32159308
128	0x3dbbd170	0.091708064
129	0xbe3efdc3	-0.1865149
130	0xbf1eec17	-0.62078995
131	0xbe5d6e55	-0.2162412
132	0xbe3d91bb	-0.18512623
133	0x3d1554a4	0.036457673
134	0x3d3e6315	0.04648121
135	0x3e737ee1	0.23778869
136	0x3da04c20	0.0782702
137	0xbc0d2a30	-0.008616015
138	0x3dcf2f8c	0.10116491
139	0xbf0fd4af	-0.56183904
140	0xbc40f3d6	-0.011776885
141	0x3e8415cf	0.2579789
142	0xbc2aeb2a	-0.010432044
143	0x3e295e94	0.16539985
144	0x3caed2aa	0.021340687
145	0xbe3a0768	-0.18166888
146	0xbd548cf9	-0.051892255
147	0x3da79fe8	0.081847966
148	0xbc9e0805	-0.019290933
149	0x3c8198e8	0.015819982
150	0xbe20c825	-0.15701349
151	0xbcd76b49	-0.026296275
152	0x3cce2ab0	0.02516684
153	0x3e6b7993	0.22995596
154	0x3c5bacdb	0.013407911
155	0xbf05cb8e	-0.52263725
156	0x3d5eb808	0.054374725
157	0x3e983281	0.2972603
158	0xbe85fb37	-0.26168224
159	0xbe90ea56	-0.28303784
160	0x3e3a0260	0.18164968
161	0xbd3983d3	-0.045291733
162	0xbf0ce61e	-0.5503863
163	0xbec2ee4b	-0.38072428
164	0x3efda13b	0.49537072
165	0x3d6fae6c	0.05851595
166	0x3d2c5168	0.042069823
167	0x3e85bc15	0.26120058
168	0x3e3de51b	0.18544428
169	0xbcedb9ce	-0.029019263
170	0x3e62317d	0.22089191
171	0xbc76f8b1	-0.015073941
172	0x3d4471c9	0.047960076
173	0x3e8f83cd	0.28030244
174	0x3e4baeb3	0.19890861
175	0x3ccb0203	0.024781233
176	0x3d40c6a0	0.047064424
177	0x3e08d1ee	0.13361332
178	0x3ec69fc6	0.38793772
179	0x3e07cb39	0.13261117
180	0x3e18b174	0.14911443
181	0x3dae4ab3	0.085103415
182	0x3e8b24a2	0.27176386
183	0x3dc56b1f	0.09639572
184	0x3e839527	0.25699732
185	0xbe397d77	-0.18114267
186	0xbe6d8535	-0.23195346
187	0x3e86b327	0.26308557
188	0xbe087fcb	-0.13329999
189	0x3ea15c38	0.3151567
190	0xbeda5f08	-0.42650628
191	0x3e797cbb	0.24363987
192	0x3e4522be	0.19251534
193	0xbcd3e6de	-0.025866922
194	0xbcb1df2b	-0.02171286
195	0xbd7987b1	-0.06092042
196	0xbe864bdd	-0.26229754
197	0x3d291bfe	0.04128646
198	0x3ecd302d	0.40075818
199	0x3f080884	0.53137994
200	0x3df3e393	0.11908641
201	0x3ec25397	0.379544
202	0x3e203b28	0.15647566
203	0x3da8a5ed	0.08234773
204	0x3dd08ea0	0.101834536
205	0x3f52d62d	0.82358056
206	0x3f2d7630	0.67758465
207	0xbd40cb0a	-0.047068633
208	0x3f02a338	0.510303
209	0x3e0758ab	0.13217418
210	0xbeacf42c	-0.33780038
211	0x3dc7821a	0.09741612
212	0x3f187c59	0.5956474
213	0xbf5b4ed9	-0.85667187
214	0xbefbb104	-0.4915849
215	0x3d05b866	0.03264656
216	0x3f375290	0.71610355
217	0x3c40d7ec	0.01177023
218	0xbe2fc345	-0.17164333
219	0xbe0cb039	-0.13739099
220	0xbddccbbb	-0.10781046
221	0x3da71813	0.08158889
222	0xbf111a30	-0.56680584
223	0x3e972f7b	0.29528412
224	0xbe2f8b3c	-0.17142957
225	0xbe734ab6	-0.23758969
226	0x3d0a5c1f	0.03377926
227	0xbeb7a9ed	-0.3587183
228	0xbe06e0e3	-0.13171725
229	0x3f4992f5	0.78739864
230	0x3daa77da	0.08323641
231	0xbe959110	-0.29212236
232	0x3d46f657	0.04857477
233	0xbe9e2ebf	-0.3089504
234	0x3f515078	0.8176341
235	0x3ea108d3	0.31452045
236	0x3de56762	0.11201359
237	0x3e432dbd	0.19060417
238	0xbe34b28c	-0.17646235
239	0x3e662baf	0.22477601
240	0x3ede8d9a	0.43467408
241	0xbe33f8a4	-0.17575318
242	0x3f1d25ef	0.6138601
243	0xbed16a84	-0.40901577
244	0xbe489839	-0.19589318
245	0x3f8093eb	1.0045141
246	0x3ed17ae4	0.4091407
247	0xbe6e2ddf	-0.23259686
248	0xbcfd1972	-0.030895922
249	0xbdbd55d0	-0.09244883
250	0xbf6f141e	-0.9339007
251	0xbe14208c	-0.1446554
252	0xbeac81ae	-0.33692688
253	0x3cdab852	0.026699219
254	0xbefd0b7a	-0.49422818
255	0x3e465f26	0.19372234

lstm.weight_hh_l1 f4 [256, 64]
0	0xbef1996c	-0.47187364
1	0x3ea972eb	0.33095488
2	0x3d8a8f7d	0.067656495
3	0x3bb2cc7f	0.0054565067
4	0xbdb5899a	-0.08864136
5	0xbd44d534	-0.04805489
6	0xbea88fa1	-0.3292208
7	0xbcc81cdc	-0.024427824
8	0xbe9f5ae7	-0.3112404
9	0x3df1e1b0	0.118106246
10	0x3ed0fb9f	0.40816972
11	0x3e200ef0	0.15630698
12	0x3e8b2f29	0.27184418
13	0xbe99a889	-0.30011395
14	0x3e812a0e	0.25227398
15	0x3d5bd904	0.05367376
16	0xbeb31a3e	-0.3498096
17	0xbd972b9e	-0.07381366
18	0xbd9b5896	-0.07585256
19	0x3e08e94a	0.13370243
20	0xbe09db7c	-0.13462633
21	0x3e555044	0.208314
22	0x3e105c82	0.14097789
23	0xbdef7080	-0.116913795
24	0x3db4701c	0.08810446
25	0xbdd751f4	-0.10513678
26	0x3d9fe33f	0.07807016
27	0x3e96d9e7	0.2946312
28	0xbd8a6eed	-0.06759439
29	0x3e0904d7	0.13380753
30	0x3e863bb2	0.2621742
31	0x3e03e693	0.12880926
32	0x3ef7640b	0.48318514
33	0x3d4f9b25	0.050685067
34	0x3e97c5d7	0.29643127
35	0xbeadefd8	-0.3397205
36	0xbdde6cc2	-0.10860588
37	0xbd664130	-0.05621451
38	0x3e69cfd4	0.22833186
39	0x39c5e50e	0.00037745427
40	0x3e9c35f6	0.3050992
41	0x3e1475c7	0.14498053
42	0x3d6d9b25	0.058009285
43	0x3ee89138	0.45423293
44	0xbe02b451	-0.12764098
45	0x3cdea33a	0.027177442
46	0x3eda2c29	0.42611817
47	0xbd6026fd	-0.054724682
48	0x3f02e44c	0.51129603
49	0x3c25fb9f	0.010130792
50	0xbe3e4ee6	-0.18584785
51	0xbe23314d	-0.15936776
52	0x3e4bcc94	0.19902259
53	0xbf101bbb	-0.56292313
54	0x3e691006	0.22760019
55	0x3f0cc94a	0.5499464
56	0x3ec259d3	0.37959155
57	0xbe96d1b7	-0.29456875
58	0xbe142cad	-0.14470167
59	0xbdb1cb27	-0.08681326
60	0x3da440f1	0.08020199
61	0xbe53e111	-0.20691325
62	0x3e7bc28d	0.24585934
63	0x3d11aca8	0.03556505
64	0xbf227b0c	-0.63469005
65	0xbe430a60	-0.19046926
66	0xbbc7d732	-0.0060986513
67	0x3e944321	0.28957465
68	0xbe7b1e0c	-0.2452318
69	0x3d1d5282	0.038408764
70	0xbc3c40fc	-0.011490103
71	0xbe5b73ad	-0.21430846
72	0x3e48cc23	0.19609122
73	0xbebc56a1	-0.36784843
74	0x3f10bfbc	0.56542563
75	0x3e2289ca	0.15872875
76	0xbeace63d	-0.33769408
77	0xbe3733f6	-0.17890915
78	0xbdb687ef	-0.08912646
79	0x3d0300ea	0.031983294
80	0xbe1d42b2	-0.15357473
81	0xbde006d1	-0.109388
82	0x3e876a3a	0.26448232
83	0xbca573b0	-0.020196766
84	0xbe8cb42a	-0.27481204
85	0x3e25a21b	0.1617512
86	0x3f196d94	0.5993283
87	0x3e8defaf	0.27721927
88	0x3e2b7b66	0.16746292
89	0x3a96ca7f	0.001150444
90	0x3e23205a	0.1593031
91	0xbd4a34c7	-0.04936674
92	0x3dccd91b	0.10002347
93	0x3e5f4125	0.21802194
94	0xbe1096dd	-0.1412005
95	0x3e90356f	0.28165767
96	0xbe3aed66	-0.18254623
97	0xbe554e81	-0.20830728
98	0x3ec7f5f7	0.39054844
99	0xbf172b68	-0.5905061
100	0xbebe255a	-0.37137872
101	0xbe90daff	-0.2829208
102	0x3edc7d55	0.4306437
103	0xbec24411	-0.37942556
104	0xbc9a22e3	-0.018815463
105	0x3e9d19d3	0.30683765
106	0xbe5e6074	-0.21716481
107	0x3edaa6ae	0.42705292
108	0x3e754b79	0.23954572
109	0xbd4af209	-0.04954723
110	0x3e912bdc	0.28353775
111	0xbf5adc36	-0.85492265
112	0x3ec1ce63	0.37852773
113	0x3db98ad3	0.09059682
114	0x3dc6556b	0.09684261
115	0xbe87dbb1	-0.265348
116	0x3ee74b4b	0.4517463
117	0xbf081b5a	-0.53166735
118	0x3e51a3b4	0.20472604
119	0x3e91e0b8	0.2849176
120	0x3ec5d47c	0.38638675
121	0xbe02fc68	-0.12791598
122	0xbe2229c5	-0.15836246
123	0xbea65bb6	-0.32491845
124	0x3e7f23f8	0.24916065
125	0xbf0dda19	-0.55410916
126	0x3d7bfa8c	0.061518237
127	0x3e329801	0.17440797
128	0x3deb1d4a	0.11480196
129	0xbe99b5e9	-0.300216
130	0xbe935e8d	-0.28783074
131	0x3d83a9d4	0.064288765
132	0x3acc61b4	0.0015593083
133	0xbe380092	-0.17968968
134	0x3db3450a	0.087534025
135	0xbdd4e98a	-0.103961065
136	0xbdae92d0	-0.08524096
137	0x3e9d9c2d	0.30783215
138	0xbde5667b	-0.11201187
139	0x3e2c7952	0.16843155
140	0x3f03f9db	0.51553124
141	0x3e7b3863	0.24533229
142	0x3cbfe332	0.023423765
143	0x3e7f906a	0.24957433
144	0x3ea1a430	0.31570578
145	0x3dd82d7d	0.10555551
146	0x3d592f3c	0.05302356
147	0xbe182773	-0.14858799
148	0xbc0eee4c	-0.008723807
149	0xbe108cc1	-0.14116193
150	0x3e0e79e5	0.13913687
151	0xbef63bff	-0.48092648
152	0x3e083e82	0.13305095
153	0x3e6fd1bb	0.2341985
154	0x3e19a2ff	0.15003584
155	0x3e71323f	0.23554324
156	0x3d649f50	0.055815995
157	0xbe11f44a	-0.14253345
158	0xbddd470a	-0.10804565
159	0x3e87da45	0.26533714
160	0x3b8419ac	0.0040313806
161	0x3e04a6b2	0.12954214
162	0xbe871a80	-0.26387405
163	0x3d80d73a	0.06291051
164	0xbea2ab01	-0.3177109
165	0x3d836dcb	0.06417426
166	0xbe161b49	-0.14658846
167	0x3cc1a109	0.023636358
168	0x3e9829cd	0.2971939
169	0x3cbbd246	0.022927415
170	0x3e89d4a0	0.26920033
171	0xbde230ec	-0.11044487
172	0xbed8e204	-0.42359936
173	0xbde497a0	-0.11161733
174	0x3df8b180	0.121432304
175	0xbe6d85e3	-0.23195605
176	0x3d916e3b	0.07101103
177	0x3e1326f2	0.14370325
178	0x3e90f2e7	0.2831032
179	0x3dc43474	0.09580317
180	0x3e87e767	0.26543733
181	0x3eac4900	0.33649445
182	0xbd4081ee	-0.04699891
183	0x3e016930	0.12637782
184	0x3e5bcafb	0.2146415
185	0x3f206272	0.62650216
186	0x3da55f48	0.08074814
187	0xbdaf99af	-0.08574235
188	0x3cea23d0	0.02858153
189	0xbe118fb1	-0.1421497
190	0x3d6a385b	0.05718265
191	0x3e3cebaa	0.18449274
192	0xbd44229c	-0.04788457
193	0xbeb7cfb9	-0.35900667
194	0xbeb96d42	-0.3621617
195	0x3bfda1fc	0.0077402573
196	0x3eb4aea1	0.3528948
197	0xbeae5717	-0.3405082
198	0xbdffc22e	-0.12488209
199	0x3e87455e	0.2642011
200	0x3e5afcc2	0.21385482
201	0x3e7d97b7	0.24764906
202	0xbe36563a	-0.1780633
203	0x3e641ae7	0.22275887
204	0x3eee78f6	0.4657666
205	0x3d53ab72	0.051677175
206	0x3ea9ef54	0.33190405
207	0xbe46bb46	-0.19407377
208	0x3e56143a	0.20906153
209	0xbd62b2e8	-0.0553464
210	0xbc9837cf	-0.0185813
211	0xbe00023b	-0.12500851
212	0x3dc59bb8	0.096488416
213	0xbd8b793b	-0.06810232
214	0x3e2974e5	0.16548498
215	0xbe5724bb	-0.21010105
216	0x3e129e00	0.14318085
217	0xbd93c147	-0.07214599
218	0xbd9666e4	-0.073438436
219	0xbcc377b7	-0.023860795
220	0xbe004561	-0.12526466
221	0xbec0f1b0	-0.37684393
222	0xbeb02be6	-0.34408492
223	0x3eb8b3bf	0.36074635
224	0x3e87dfae	0.26537842
225	0x3e1470e0	0.14496183
226	0xbe1663c6	-0.14686498
227	0x3e429977	0.19003855
228	0x3e0e55f0	0.1389997
229	0xbda054a4	-0.07828644
230	0xbeb6cdb6	-0.3570382
231	0xbdea7c04	-0.11449435
232	0x3f25bbb3	0.6473953
233	0xbdc0be0e	-0.0941125
234	0x3e451853	0.1924756
235	0xbe8f8f3a	-0.2803896
236	0xbe35988b	-0.17733972
237	0x3e1db779	0.1540202
238	0xbeb3efd0	-0.351439
239	0xbd90c826	-0.07069425
240	0x3c7c1253	0.015385228
241	0x3e9c40a0	0.30518055
242	0x3e1e17c8	0.1543876
243	0xbddec39e	-0.10877155
244	0xbd205b4c	-0.039149567
245	0x3e9d674c	0.30742872
246	0x3dc95908	0.098314345
247	0xbe31c4dc	-0.17360252
248	0xbdef3537	-0.11680072
249	0x3d99dfb8	0.07513374
250	0x3ef4e078	0.47827506
251	0xbd952dfe	-0.07284163
252	0x3b3fbc8b	0.0029256667
253	0x3d830f95	0.063994564
254	0xbd1d501b	-0.038406473
255	0xbe66f0df	-0.22552823

lstm.bias_ih_l1 f4 [256]
0	0xbe41619c	-0.18884891
1	0xbe568a2e	-0.20951149
2	0xbc1c9652	-0.0095573235
3	0xbe335999	-0.17514648
4	0xbe121b35	-0.14268191
5	0xbeaa3169	-0.33240822
6	0xbe792567	-0.24330674
7	0xbeb1dd33	-0.34739074
8	0xbe77d3d3	-0.24201898
9	0xbe9c46ac	-0.30522668
10	0xbe23f3e7	-0.1601101
11	0xbe8cd76b	-0.275081
12	0xbe35dc65	-0.17759855
13	0xbe6f369c	-0.23360676
14	0xbe678f86	-0.22613344
15	0xbead5987	-0.33857366
16	0xbe6021a4	-0.21887833
17	0xbe777d1e	-0.24168822
18	0xbd7d35ac	-0.061818764
19	0xbe8641e4	-0.26222146
20	0xbe2c8d81	-0.16850854
21	0xbe292529	-0.16518082
22	0xbe2777b1	-0.16354252
23	0xbd2f448c	-0.04278998
24	0xbe6e317d	-0.23261066
25	0x3e064c8e	0.13115141
26	0xbea30fcb	-0.31847987
27	0xbe259145	-0.16168697
28	0xbe58cb09	-0.21171202
29	0xbe2be385	-0.1678601
30	0xbe953f18	-0.291497
31	0xbe7b1628	-0.2452017
32	0xbedfcdd4	-0.43711722
33	0xbe89b09a	-0.2689255
34	0xbe365e64	-0.17809445
35	0xbe4edbee	-0.20201084
36	0xbdfd8cdb	-0.12380382
37	0xbe53356f	-0.20625852
38	0xbe79f921	-0.24411441
39	0xbd827002	-0.0636902
40	0xbee01a16	-0.43769902
41	0xbe6383c9	-0.22218241
42	0xbea1533d	-0.31508818
43	0x3cc1f235	0.023675064
44	0xbd7c2be9	-0.061565313
45	0xbe2f58b5	-0.17123683
46	0xbe55b813	-0.20871
47	0x3eb24486	0.34817904
48	0xbde5853e	-0.112070546
49	0xbdd423a5	-0.10358361
50	0xbebd7a51	-0.37007383
51	0xbe31e0ca	-0.17370906
52	0xbe113340	-0.14179707
53	0xbea1e023	-0.31616315
54	0xbee65a87	-0.44990942
55	0xbe496fb9	-0.19671525
56	0x3ce7756e	0.028254237
57	0xbe389483	-0.18025403
58	0xbea631f0	-0.32459974
59	0xbdd550e7	-0.104158215
60	0xbe9d3f4d	-0.30712357
61	0xbda0bd59	-0.07848615
62	0xbe70ce7b	-0.23516266
63	0xbe255a0e	-0.16147634
64	0xbe09ddf6	-0.13463578
65	0x3d85ce74	0.065335184
66	0xbedbf283	-0.4295846
67	0xbe06074d	-0.13088723
68	0xbdd7e685	-0.10542015
69	0xbe25e40a	-0.16200271
70	0xbdb232d1	-0.08701099
71	0xbe538677	-0.20656763
72	0x3e6075e2	0.21919969
73	0xbe331b64	-0.17490917
74	0xbd7fe805	-0.06247713
75	0xbe5ccad0	-0.21561742
76	0xbe55fbaa	-0.20896783
77	0xbe2e3d7d	-0.17015643
78	0x3d16c52a	0.036809124
79	0xbf1b2599	-0.60604244
80	0xbe06a287	-0.13147937
81	0xbd47a03e	-0.048736803
82	0x3ec72e6a	0.389026
83	0xbee14658	-0.4399898
84	0xbe733ee2	-0.23754457
85	0xbf0a5da9	-0.54049164
86	0xbde564a1	-0.11200834
87	0xbec77ae6	-0.38960952
88	0xbe303da9	-0.17211021
89	0x3c81c704	0.015841968
90	0xbe8d393c	-0.2758273
91	0xbe8f8ad6	-0.2803561
92	0xbe784bd9	-0.24247684
93	0x3caaae86	0.020835172
94	0xbdf8b779	-0.1214437
95	0x3e4f3628	0.20235503
96	0xbc5666f4	-0.013086069
97	0xbecb7f5c	-0.39745605
98	0x3e042975	0.1290644
99	0xbe829a42	-0.25508314
100	0xba949b6f	-0.0011337827
101	0xbe9d1730	-0.30681753
102	0xbea538f0	-0.32270002
103	0xbe38d298	-0.18049085
104	0xbebb8a31	-0.3662887
105	0xbde7b1f2	-0.11313237
106	0x3e4b55fe	0.19857022
107	0xbd20fea9	-0.039305363
108	0xbe3e932b	-0.18610828
109	0x3e2bd3f9	0.1678008
110	0xbedd8db0	-0.4327216
111	0x3cccd901	0.02500582
112	0xbd8eec74	-0.069786936
113	0x3e2904f5	0.16505797
114	0xbe041044	-0.1289683
115	0xbe1a1ffa	-0.1505126
116	0x3de50914	0.11183372
117	0xbede4e89	-0.43419293
118	0xbed85cdc	-0.42258346
119	0xbe08e093	-0.13366918
120	0xbf217295	-0.63065463
121	0xbeb745ba	-0.35795385
122	0xbd9f069c	-0.077649325
123	0xbe461a2d	-0.19345923
124	0xbe84a116	-0.2590415
125	0xbe837558	-0.25675464
126	0xbe087d40	-0.13329029
127	0xbe6ba184	-0.23010832
128	0x3e356cb7	0.17717253
129	0x3d2237fd	0.039604176
130	0x3d208e53	0.03919823
131	0xbc0a5deb	-0.008445243
132	0x3da44915	0.08021752
133	0xbca67f90	-0.020324498
134	0x3d072fd8	0.03300461
135	0x3d4916e8	0.04909411
136	0xbc708836	-0.014680913
137	0x3caa8459	0.020815061
138	0xbd91beec	-0.071164936
139	0xbd0ba07b	-0.034088593
140	0xbcacf1ec	-0.021111451
141	0x3c983c9c	0.018583588
142	0x3e13c2c4	0.14429766
143	0x3d55a6ed	0.052161146
144	0x3d556f25	0.05210795
145	0x3d9540be	0.07287739
146	0xbd8681bd	-0.06567714
147	0x3ccdd32e	0.025125112
148	0x3cc5b5ee	0.024134602
149	0x3b6317f6	0.0034651733
150	0xbe451194	-0.19244987
151	0x3d44f3a1	0.048083905
152	0xbde71c65	-0.11284713
153	0xbc990032	-0.018676851
154	0xbc392708	-0.01130081
155	0x3d49b344	0.049243227
156	0x3a6b9da7	0.00089880306
157	0x3d85788c	0.06517133
158	0xbdc80b0b	-0.09767731
159	0xbd678219	-0.056520555
160	0xbbed154c	-0.007235205
161	0xbc9f50c4	-0.019447692
162	0xbdcc9685	-0.09989647
163	0x3ddb632c	0.10712275
164	0x3df5cbba	0.120017484
165	0x3dfb3077	0.12265103
166	0xbd8d6e8d	-0.069058515
167	0x3e0270c8	0.12738335
168	0xbdd7ddba	-0.10540338
169	0x3ce14b38	0.027501687
170	0x3d6aa47d	0.057285774
171	0xbe068ef2	-0.13140467
172	0x3c4eb364	0.012616012
173	0xbd570259	-0.052492473
174	0xbad60aec	-0.0016330159
175	0x3d44aa24	0.04801382
176	0x3cfa2974	0.030537345
177	0x3d81a2b3	0.063298605
178	0xbd17a440	-0.037021875
179	0x3d65e869	0.056129847
180	0x3cf014af	0.029306738
181	0x3d50e55e	0.05099999
182	0xbd8c2f15	-0.06844918
183	0x3c5f631d	0.01363447
184	0x3d095094	0.03352411
185	0x3dd05d92	0.10174097
186	0xbe0b8df0	-0.13628364
187	0x3e16d6bc	0.14730352
188	0xbe16ede2	-0.14739183
189	0xbc78e9b7	-0.015192441
190	0x3bd3026a	0.0064394968
191	0x3b696b1e	0.0035616825
192	0xbeab8786	-0.33501834
193	0xbd0b9d77	-0.034085717
194	0xbd2a935a	-0.04164443
195	0xbd918c38	-0.07106823
196	0xbddc9bb0	-0.107718825
197	0xbea2f248	-0.3182547
198	0xbe3df778	-0.18551433
199	0xbe8568d8	-0.26056552
200	0xbdb3c274	-0.08777323
201	0xbe256dc4	-0.16155154
202	0xbd413d36	-0.047177516
203	0xbe66a74b	-0.22524755
204	0xbcff3fae	-0.031158295
205	0xbe790086	-0.24316606
206	0xbe0d926d	-0.13825388
207	0xbeb33ff9	-0.35009745
208	0xbe887085	-0.26648346
209	0xbea44386	-0.32082766
210	0xbd5b51ae	-0.053544693
211	0xbeb4a7e9	-0.35284355
212	0xbe9751ae	-0.29554504
213	0xbe5ca12a	-0.21545854
214	0xbd2d18f6	-0.042260133
215	0xbdd1b054	-0.1023871
216	0xbda264f5	-0.07929412
217	0xbd7edef8	-0.06222436
218	0xbe9da141	-0.3078709
219	0xbea30855	-0.31842294
220	0xbe8600e9	-0.2617257
221	0xbe4e096a	-0.20120779
222	0xbe139ea5	-0.14415987
223	0xbe4639a3	-0.19357924
224	0xbebab32f	-0.3646483
225	0xbe5a561c	-0.2132191
226	0xbe39a2d2	-0.18128517
227	0xbde5a66b	-0.11213382
228	0xbe22f8d4	-0.15915233
229	0xbe806c5c	-0.25082672
230	0xbe126ec5	-0.14300068
231	0xbe5e2d7a	-0.21697035
232	0xbee43dc3	-0.4457837
233	0xbe735646	-0.2376338
234	0xbd8bcb81	-0.06825925
235	0xbe86b805	-0.2631227
236	0xbd549368	-0.05189839
237	0xbe19bbf3	-0.15013103
238	0xbd1f7a07	-0.038934734
239	0x3ed63129	0.4183438
240	0x3dd9df8f	0.106383435
241	0xbcd5b8c3	-0.026089078
242	0xbe32910d	-0.17438145
243	0xbe4661ae	-0.193732
244	0xbe39b590	-0.18135667
245	0xbe725952	-0.23666885
246	0xbe8386ee	-0.2568888
247	0xbd0bece8	-0.03416148
248	0xbd3d91c9	-0.04628161
249	0xbe893c66	-0.26803893
250	0xbe821f6c	-0.25414598
251	0xbe5ecde3	-0.21758227
252	0xbe159418	-0.14607275
253	0xbd4b2d74	-0.049603894
254	0xbd60aa84	-0.054850116
255	0xbe3af0ef	-0.18255971
