ml-models/LSTM-FFNN-GRU-TCN/models/gru_model.pth (torch, 157255 bytes, 10 tensors)

gru.weight_ih_l0 f4 [192, 4]
000000 ec 53 ae bd 49 0f 9e 3d a1 f7 d0 bd 3d 91 9e bd
       -0.085121006 0.07717759 -0.102034815 -0.07742546
000010 68 7d ab 3a ce 69 31 bd 10 4d 1b 3d fb 3e 0b bc
       0.0013083639 -0.043313794 0.03791529 -0.008498902
000020 e1 e0 0a bd 30 36 b5 bc a4 3a 31 be 76 11 4a bd
       -0.033905867 -0.022120565 -0.17307526 -0.04933306
000030 ea 76 76 3d 9e 97 49 3d 98 48 8a 3d 60 dc b7 bd
       0.060172 0.04921686 0.067521274 -0.0897758
000040 19 b1 d0 3d 3c 7f ed bd 15 86 b0 bd b1 d3 f0 3d
       0.10190029 -0.11596534 -0.08619324 0.11759127
000050 66 30 ef 3d 28 8a 0b 3e e4 2f 6a 3d 4b e5 f0 3d
       0.11679153 0.13626921 0.05717458 0.11762484
000060 6c 12 0c 3d d3 ea 5b be 71 4b 27 be 60 d5 68 be
       0.034197256 -0.21476297 -0.16337372 -0.22737646
000070 62 c1 ac 3d 78 71 a7 3e b4 fc 66 be ab 57 ae bc
       0.08435322 0.32703757 -0.22557336 -0.021282038
000080 b3 4e 3e bd b4 82 dd bd 33 fd fb bb 34 23 50 bd
       -0.046461772 -0.10815945 -0.007690096 -0.050814822
000090 f3 e1 0d 3e 71 e0 46 3e e7 2a 0b be 8a 25 82 3d
       0.13855724 0.19421555 -0.13590585 0.06354816
0000a0 22 f1 cc bd 82 d6 fb bc 15 a5 21 3d 42 0d b8 bd
       -0.1000693 -0.030741934 0.039464075 -0.08986904
0000b0 3a 49 1a 3d ce a2 85 3d 94 63 47 bd c4 4b 45 be
       0.03766749 0.06525193 -0.04867895 -0.19267184
0000c0 90 10 63 be 27 34 e2 3b 00 36 f8 3d 6b 24 83 3e
       -0.22174287 0.0069031897 0.12119675 0.25613722
0000d0 9a 81 c4 bd 45 91 26 3d 3d 90 02 3e 91 d9 2a bd
       -0.09595032 0.040665884 0.12750335 -0.041711394
0000e0 b7 bf db bd 3d 95 81 be 77 30 12 3d 01 ed 43 bd
       -0.10729926 -0.25309172 0.03569075 -0.047833446
0000f0 47 57 e8 bd 1f 26 08 bd 2e 61 74 bb b6 b3 cd bd
       -0.11344772 -0.03323948 -0.003728937 -0.10044043
000100 34 90 fd bd 94 1b 9e 3c be 85 2e be 43 7a a4 3c
       -0.1238102 0.01930026 -0.17043206 0.02007783
000110 17 fe 34 3e ab eb 1b 3d db ba 9f 3c 61 76 97 3c
       0.17675053 0.038066547 0.01949828 0.018489065
000120 7e fa 43 bd d9 24 fb bd 26 d5 0d 3e 0d a0 2f bc
       -0.04784631 -0.122628875 0.13850841 -0.010719311
000130 62 39 cb 3d d6 f6 a6 bd 18 7c 96 bd 73 88 3f be
       0.09923054 -0.08152549 -0.07347888 -0.18704395
000140 60 a1 14 bd 05 5f 24 3e a2 38 75 3d 42 88 29 3e
       -0.03628671 0.16051872 0.059868462 0.16555884
000150 63 58 23 bb 68 a3 0b 3e 9e 00 7a bb ad d7 56 bc
       -0.0024924509 0.13636553 -0.003814734 -0.013112945
000160 ab b0 f1 3c 8b f4 cd bd 3f 03 c9 3d 5e a5 cb bd
       0.029503187 -0.100564085 0.09815072 -0.09943651
000170 41 f9 47 be 23 ae 58 be b0 ba e4 3d 38 a8 c6 3d
       -0.19528677 -0.21160178 0.1116842 0.09700054
000180 dc cd 6a bd a4 f4 0c 3c 54 40 e1 3d 19 23 53 3d
       -0.05732523 0.008603249 0.10998598 0.051547144
000190 c8 3e a9 bd 4a a0 1f 3e aa a7 06 3e ae 4f 22 3e
       -0.08263928 0.15588489 0.13149896 0.15850708
0001a0 35 0a 8b be ad 64 6c be 9a ed 6c 3d 59 36 cd 3d
       -0.27156225 -0.2308528 0.057843782 0.100201316
0001b0 19 42 56 3c 79 6e 31 3d 78 38 1f be 74 fc 88 bd
       0.013077282 0.043318246 -0.15548885 -0.066887766
0001c0 bb 1c 9c bd 36 0a f3 bd 45 38 75 3d bd f9 4b 3d
       -0.076226674 -0.11867182 0.059868116 0.049798716
0001d0 a4 19 64 be c3 74 48 bd f1 46 9b bd 04 51 a0 36
       -0.22275406 -0.048939478 -0.075818904 4.777803e-06
0001e0 ce 90 8d bc 52 93 b6 bd 8c 47 81 bc 19 79 68 bc
       -0.017280962 -0.08914818 -0.015781187 -0.014189028
0001f0 32 42 4e bd f0 22 60 be 7f 75 1d 3e 5a d5 cd 3d
       -0.050356098 -0.21888328 0.15376852 0.10050459
000200 56 f1 ab bd e2 a5 97 bb d9 59 91 3d fb 0c fc bd
       -0.083956406 -0.004627929 0.07097215 -0.12307163
000210 f5 3e cd be f2 43 9e be e8 6d 74 bc b0 c3 2e 3e
       -0.40087095 -0.30911213 -0.014918782 0.17066836
000220 8f 96 ca be 44 ab 4a be 4b b9 40 3d 73 94 af 3c
       -0.39567992 -0.19791895 0.04705171 0.02143309
000230 7d 91 96 bd c3 e6 45 be 48 0d bb bd 39 af ee bb
       -0.073519684 -0.1932631 -0.091333926 -0.0072840718
000240 cd c2 ee bd 03 1d 89 3d 1f 52 0e 3e 8e 87 a9 3d
       -0.11658249 0.06694987 0.13898514 0.08277808
000250 c8 c0 bd bd 37 53 bc bd 64 00 6a 3e 61 ab 1d bd
       -0.09265286 -0.091955595 0.22851712 -0.038493518
000260 8c 8f 61 bd d4 b6 91 3d 81 72 4d 3c d2 fc 50 be
       -0.055068538 0.0711495 0.012539507 -0.20408943
000270 42 13 be 3c a2 f1 5b 3c a5 99 bf 3d 4b 68 58 3e
       0.023202542 0.013424309 0.09355477 0.21133535
000280 ca a4 04 be a3 d7 63 bc 7b 8b 25 bd 9f d2 4f 3c
       -0.12953487 -0.013906392 -0.040416222 0.012684493
000290 ff a4 11 be 7b ed 9c be fb 99 35 3e 31 f0 10 3e
       -0.14223097 -0.30649933 0.1773452 0.14154126
0002a0 2a 38 9e bd d0 fb af ba 59 99 99 3d 82 19 9b bd
       -0.07725556 -0.0013426486 0.07499952 -0.075732246
0002b0 89 28 a1 be a3 44 b0 be ad ca 3f 3d 55 78 94 3d
       -0.31476238 -0.34427366 0.046824146 0.07249514
0002c0 b7 7e 01 be 3f 70 1f bd e6 07 55 3c 60 99 38 bd
       -0.12645994 -0.038925406 0.013002371 -0.045068145
0002d0 7a 05 fb 3d 7c c0 47 3d e6 c6 2c be e1 16 2d be
       0.12256904 0.04876755 -0.16872749 -0.16903259
0002e0 1c 2d 39 bd 33 7d 1e bd 23 ac 66 3c 2a bc 54 be
       -0.045209035 -0.038693618 0.0140791265 -0.20774904
0002f0 ac 90 a7 be 3f 3a 85 be 23 9f c4 3d dc a7 42 3c
       -0.32727563 -0.26021 0.096006654 0.011880841
000300 04 d0 1c 3d 24 7b 60 be fd d8 6a be 26 78 42 be
       0.038284317 -0.21921974 -0.22934337 -0.18991145
000310 a1 e4 ab bd f9 c4 85 3d ab ad 46 3d e6 ea 05 bd
       -0.08393217 0.0653171 0.048505466 -0.03269472
000320 7b b2 b4 bd 09 06 97 be ac 35 5f 3e cc 5a 40 bd
       -0.08823105 -0.29496792 0.21797818 -0.04696159
000330 31 f7 9b bd 56 75 8e bd 1b af 50 be 6f 69 22 3e
       -0.076155074 -0.06955974 -0.20379297 0.15860532
000340 c3 43 2f 3e 98 25 03 3e 04 92 d2 3d 7a 0a c4 3d
       0.17115693 0.1280731 0.102817565 0.09572311
000350 83 bb f5 3d 62 73 1f 3c 90 6c 33 bd 3d a5 e8 bc
       0.11998656 0.009732099 -0.043804705 -0.028399104
000360 51 ba d3 bc be 63 a8 3d 2d b3 fc 3d 56 e4 53 bb
       -0.025845679 0.08222149 0.123388626 -0.0032332144
000370 1f 4e bb bb f2 75 4c bb dd 30 be bd 8f cb c2 3d
       -0.0057161 -0.003119823 -0.09286664 0.09511482
000380 0c c1 e9 bd f1 67 10 be bf c0 a7 bd bf 7a 0e be
       -0.11413774 -0.1410215 -0.0819106 -0.13914011
000390 41 0f 25 3e 28 bb 86 bd 02 7c 04 be 61 0b 02 be
       0.161191 -0.06578666 -0.1293793 -0.12699653
0003a0 6f 8d 71 3d ae f1 f8 3d 93 0e ad 3d 00 b4 11 be
       0.058972772 0.12155472 0.084500454 -0.14228821
0003b0 68 a9 52 be 9e c1 98 be e9 5c 0f 3e 51 31 54 bc
       -0.20572436 -0.29835218 0.14000286 -0.012951211
0003c0 22 a6 e9 be 15 62 f2 be 72 8e 37 3d 00 2e 32 3d
       -0.45634562 -0.47340456 0.04481358 0.0435009
0003d0 77 0e 79 3d d5 7a 77 bd 0f d3 93 bd 2d 77 97 3d
       0.06080481 -0.060419876 -0.072179906 0.07395778
0003e0 2e c7 6c be 9b 92 7a bd 21 81 5a 3c fc 22 0a 3d
       -0.23122856 -0.06117497 0.013336451 0.03372477
0003f0 68 65 0b ba cf 6e a9 bd 68 9a d3 bd d3 ba ac 3d
       -0.000531754 -0.08273088 -0.10332185 0.084340714

gru.weight_hh_l0 f4 [192, 64]
000000 de cd 3d bc ec 09 c6 3d 3d 52 64 3d f6 77 f0 3d
       -0.011584727 0.09669861 0.05574249 0.11741631
000010 f7 b9 de 3d c4 71 8e bd 7a 07 57 3d be fd 9b bd
       0.10875314 -0.06955293 0.052497365 -0.07616757
000020 17 1a 3d bd 52 cc d4 bc 86 00 1b bd 99 a2 5d bc
       -0.04616746 -0.025976334 -0.037842296 -0.013527536
000030 ba 8d a4 bd a0 4f c1 bd d0 0f c0 bc 3c 0f 97 bc
       -0.08034845 -0.094390154 -0.02344504 -0.018439882
000040 e3 62 b1 bc a5 46 9a bd 03 d4 1d 3e b5 5d 91 3d
       -0.021653598 -0.075330056 0.15412907 0.07097951
000050 2a 75 1a 3e 11 03 c4 3d e6 27 49 bd aa c2 09 3c
       0.15083757 0.09570897 -0.049110316 0.008408228
000060 95 23 57 bb 38 e9 a4 3b 01 c7 1a 3e 76 e8 07 3d
       -0.0032827605 0.0050326847 0.15114976 0.033180676
000070 6b 39 c4 3d 76 22 27 bd 4e 15 ea 3d 94 30 7b bd
       0.09581264 -0.04080435 0.11429845 -0.061325625
000080 7a 98 58 bd 49 a3 02 bd 9c 86 72 bd 0b c2 15 bd
       -0.052879788 -0.031894002 -0.059210405 -0.036562007
000090 f4 17 59 3d 93 c0 10 3d 0d 29 0b 3d 16 83 9d bd
       0.05300136 0.035339903 0.033974696 -0.07691018
0000a0 80 d4 b1 3d c3 88 e4 bc 86 a3 ed 3d 36 cf 6f bd
       0.08683109 -0.027897244 0.11603455 -0.05854722
0000b0 1d 33 d2 3d 1e 47 33 bc 00 ed 60 3d 6d 55 89 3d
       0.10263655 -0.010942249 0.05491352 0.06705747
0000c0 f1 e8 bf bd c2 bc 0a 3e 7e 6e 76 bd 1b 55 8e 3d
       -0.09370602 0.13548568 -0.060163967 0.06949826
0000d0 1e f5 73 3d 07 06 0a 3e ad c0 78 3c 83 e5 a5 bd
       0.059559934 0.13478862 0.015182656 -0.081004165
0000e0 51 c1 66 bb dd 8f b5 3d cb 2b 3d 3d 81 18 d9 3d
       -0.003521044 0.0886533 0.046184342 0.10600377
0000f0 58 d4 c4 3d 91 63 a4 3c 0d cf e2 bc 25 19 09 3e
       0.09610814 0.020067008 -0.02768662 0.13388498
000100 81 2c 94 bd 93 49 04 3e 82 41 35 bd a1 5c a9 bd
       -0.07235051 0.12918691 -0.044251926 -0.08269621
000110 cd 25 b5 bd 94 a7 11 3e a7 94 97 bd 91 62 db 3c
       -0.088451006 0.14224082 -0.074014 0.026780399
000120 b9 64 ad 3c ab 40 86 bc 57 d8 c4 bc 5d e9 4b bd
       0.021166192 -0.016388258 -0.02402894 -0.0497831
000130 0e 3e b5 bd 97 59 82 bd 74 62 e8 bd f8 48 88 bd
       -0.088497266 -0.06364744 -0.113469034 -0.06654543
000140 7f bb 14 3d 09 51 d2 bd ba 2d 30 bd b8 b5 bf 3d
       0.036311623 -0.102693625 -0.04301236 0.09360832
000150 a3 4b 01 3d 88 67 44 3d 86 0f 1a 3d b3 81 81 bd
       0.031566273 0.047950298 0.03761246 -0.06323566
000160 15 07 0e bd 0f 72 0e be f0 0e 65 bb f8 c2 b6 bd
       -0.034674723 -0.13910697 -0.003495153 -0.08923906
000170 9a 66 99 bc b8 e6 fb 3c cc 66 22 bd e8 f8 80 bd
       -0.018725682 0.030749664 -0.039648816 -0.06297475
000180 75 93 ac 3c fb ec b0 bd 3a 4b e9 bc de b6 23 3c
       0.021066407 -0.086389504 -0.028478254 0.009992329
000190 97 a4 6c bc 20 f5 86 bd 96 4c 32 3d 33 da 03 3e
       -0.014443538 -0.06589723 0.04353007 0.12876205
0001a0 3d 01 98 3d 1a 59 b1 3d ca f7 f1 bd f2 f4 de 3d
       0.07422111 0.08659573 -0.1181484 0.10886563
0001b0 41 30 8c bd 34 4c a4 bd 3f 28 01 3d 11 44 bc bc
       -0.06845141 -0.08022347 0.031532522 -0.022981675
0001c0 ff bf 2b 3d df d5 fc 3d f0 f7 b3 bd 05 5c dd 3d
       0.04193115 0.1234548 -0.08787525 0.10808567
0001d0 ee 74 15 be 9e ef fb bd 5a 3c ce bc 34 f7 ca bd
       -0.14595386 -0.12301563 -0.025175262 -0.099104315
0001e0 0a 0e 5b 3b ec 0b 6d bd 1c d8 08 be d9 3e fd 3c
       0.0033425116 -0.057872698 -0.13363689 0.030913757
0001f0 69 ee 38 3c 2f 89 22 bd b2 41 72 3d 80 c3 4e bd
       0.01128731 -0.03968161 0.059144683 -0.050479412
000200 be 06 06 be 03 29 9f 3d 99 7c f2 bd 86 10 9e 38
       -0.1308851 0.07771494 -0.11840171 7.537105e-05
000210 bd 4d eb bc aa ef d6 3d 27 a7 80 bd 02 3f 3b 3c
       -0.028723592 0.10494931 -0.06281882 0.011428596
000220 e8 21 96 bb 3d 63 75 bb 96 0a a3 3c 1b fa f6 3c
       -0.0045816787 -0.0037443184 0.019902509 0.030148556
000230 1e 44 a8 3d dd a0 3c bd 33 36 07 be 83 54 4b 3d
       0.08216117 -0.04605185 -0.13204269 0.049641144
000240 a4 08 d7 3d 93 f0 ad 3d c5 a1 92 bd 77 2d 84 3d
       0.10499695 0.084931515 -0.07159761 0.06453984
000250 35 d7 c4 3d 21 21 ad 3d 85 89 ce 3d a6 b6 83 bd
       0.0961136 0.084535845 0.100848235 -0.06431322
000260 bd 8c c4 3c be 73 b2 bd fb 86 89 bc 66 44 6c bd
       0.02399289 -0.08713482 -0.016787997 -0.057682417
000270 0f 46 20 3d bc e5 b4 3d c6 46 e2 3d 52 96 1d bd
       0.039129313 0.08832881 0.11048655 -0.038473435
000280 56 fd 61 bd ac 9e 53 3b 2d 92 99 bd e8 02 07 be
       -0.05517324 0.003229062 -0.07498584 -0.13184702
000290 e2 16 97 bd 77 fc ab bd ca 6d 08 bd 42 0f 9c bd
       -0.073774114 -0.08397763 -0.033307828 -0.07620098
0002a0 9a dd 08 be 71 87 1f bd e5 9f fe 3d ab d4 76 bd
       -0.13365784 -0.038947526 0.12432841 -0.06026141
0002b0 7a e7 a8 bd a7 67 78 3d ae 9b 69 bb ae 26 bf bd
       -0.08247276 0.060645726 -0.003564577 -0.093335494
0002c0 f9 cb d4 3c 12 27 7c bd c5 14 3e 3d a8 c3 44 3d
       0.025976168 -0.061560698 0.046406526 0.048038155
0002d0 70 07 ab bd 2a 73 89 3d 1a 0f 37 bb 99 e2 73 bd
       -0.08351028 0.06711419 -0.0027932585 -0.059542272
0002e0 b2 59 b4 3c c1 71 11 3d d1 2e e2 bd e9 47 58 3d
       0.022015426 0.035508875 -0.11044086 0.052802954
0002f0 b8 29 eb bd f6 fe ee 3a fd 9d 90 3d 87 0d 97 bd
       -0.114825666 0.0018233943 0.07061384 -0.07375627
000300 e7 ee c6 bd 82 59 29 bd 79 98 c4 3d a6 f0 1a bd
       -0.09713536 -0.041345127 0.09599394 -0.037827156
000310 66 90 63 3c fe 51 ef bc c6 ab 1f bb 6d 63 51 bd
       0.013889408 -0.029213902 -0.002436386 -0.05112021
000320 c2 53 11 3b cd a9 ac bd 90 5c 42 bd 32 68 6c 3d
       0.0022175168 -0.084308244 -0.047451556 0.057716556
000330 27 5c d3 3d 15 b8 37 3d 5a fc 19 bd ed 10 d6 bb
       0.10320311 0.04485329 -0.037594177 -0.0065327794
000340 a5 b5 da 3c db e5 b9 bc 4c 13 8c 3d a0 16 2f 3d
       0.026697943 -0.022692611 0.06839618 0.042746186
000350 2c 29 4e 3d 22 32 10 3d db 65 e3 bc 08 27 48 bc
       0.050332233 0.03520406 -0.02775853 -0.012216337
000360 5e de 81 3c 4b 9c 61 bc b3 fd 27 bd 5f ec c1 bd
       0.015853103 -0.013770173 -0.04101343 -0.09468912
000370 f8 b1 f3 bc 3c 84 de 3d 30 56 cd bd d1 19 27 bd
       -0.029747948 0.108650655 -0.100262046 -0.040796105
000380 40 97 fc bd 4f 59 8a 3d ac 43 36 bd 89 36 4a bd
       -0.12333536 0.067553155 -0.04449813 -0.049368415
000390 58 36 62 bd e7 dc 47 3d 57 13 9e bd 7a 03 17 3d
       -0.055227607 0.048794653 -0.077185325 0.03686855
0003a0 64 d4 d3 3d 6a 18 e5 3d 9b 11 29 bd e4 cd b9 38
       0.10343245 0.11186297 -0.041276556 8.8598375e-05
0003b0 08 e6 a8 bd d6 3f 6c bd 46 dc b6 bc 3d 0b 57 3d
       -0.08247 -0.057678066 -0.022321831 0.052500952
0003c0 e9 27 fb 3d af e6 7f bb d2 0a b3 3d 6d d7 fb bc
       0.12263472 -0.003904741 0.08742298 -0.030742371
0003d0 42 53 75 3d 9f dd b5 3d eb bc 78 3d cf 66 6e bd
       0.059893854 0.088801615 0.06072704 -0.058203515
0003e0 b5 b7 93 bd 10 71 83 bd 67 16 ed 3c 34 d3 7b bb
       -0.07212774 -0.06418049 0.028941346 -0.0038425447
0003f0 36 96 a9 3d 80 33 ab bc e6 e3 99 3d d6 55 b1 3b
       0.082806036 -0.02089858 0.07514171 0.005411844

gru.bias_ih_l0 f4 [192]
000000 dd c0 ed bc f1 62 3a bd 39 13 fc bd d2 4a 29 bd
       -0.029022628 -0.045504514 -0.12308354 -0.04133112
000010 47 67 bf bd 2a 1a 63 3d 4a fb 81 bd b2 ad c0 3d
       -0.093458705 0.055444874 -0.06346758 0.0940813
000020 a1 91 a3 3c 66 a4 d3 bb 55 84 00 be 08 0e 20 be
       0.019966902 -0.006458807 -0.1255048 -0.15630352
000030 49 23 ab bd 24 6a a5 ba cf 08 e2 bd b5 f8 53 3d
       -0.083563395 -0.0012620133 -0.11036836 0.051750857
000040 8f 54 2b bd 15 70 c8 bd 6e 2b 62 bd c3 26 1b 3c
       -0.04182869 -0.09787003 -0.0552172 0.009469691
000050 21 6f b4 3d d9 4b f0 bb bd 8d f4 bd 07 ed 44 3c
       0.08810259 -0.0073332605 -0.11941097 0.012019402
000060 f5 68 83 bd 13 fa 16 3e 57 7b 1a be c0 b8 b8 3d
       -0.06416503 0.14743833 -0.15086113 0.09019613
000070 56 ae 31 3d 53 22 02 bd 53 e6 fb bd 38 98 bb bc
       0.04337915 -0.031771015 -0.1229979 -0.022899732
000080 e0 86 9f bd 63 00 24 3d c9 3d cd bd a4 e8 84 bd
       -0.07789397 0.04003943 -0.1002155 -0.06489685
000090 f5 ab af 3c d4 94 13 bb e2 30 15 be eb e9 2e bd
       0.0214443 -0.0022519128 -0.14569429 -0.04270355
0000a0 8b 61 87 bd 68 40 c4 bc 14 cd a0 3d 78 ed a0 3d
       -0.06610402 -0.023956493 0.078516155 0.078577936
0000b0 f6 14 89 3c ce ad 8f bd 1b 3d 65 3d 33 7a 26 be
       0.016733628 -0.070155725 0.055966478 -0.16257553
0000c0 bd 3a 56 bd 6d ee b4 3b 73 f2 10 be 00 16 ef bd
       -0.05230211 0.0055215866 -0.14154987 -0.11674118
0000d0 7b 8b ac 3c 87 45 98 39 77 50 9d bd 76 67 06 be
       0.021062603 0.000290435 -0.07681363 -0.13125405
0000e0 87 f7 79 bd 50 4a 34 bd d8 93 2e bd 16 32 eb bd
       -0.061027076 -0.044016182 -0.042621464 -0.114841625
0000f0 c9 f2 cb bc a1 4e 8c bd e0 25 93 3c 36 5a d0 bc
       -0.024896042 -0.06850935 0.017962396 -0.02543364
000100 62 4c 00 be 98 7a 48 bd d9 e5 19 3e 5b 30 a3 3d
       -0.12529138 -0.04894504 0.15029086 0.079682074
000110 4d f6 24 3d 3e 80 2e 3e 81 47 ca bd 9e 5f f3 bd
       0.040273953 0.17041108 -0.098769195 -0.11883472
000120 3f f4 49 3e 6c f3 2a be 84 e3 04 3e 4e 6c 3c 3e
       0.19722079 -0.1669442 0.12977415 0.1840069
000130 d0 8f 84 3e 13 61 45 3e 4b 17 5f be aa 0c 07 3e
       0.2589097 0.19275312 -0.2178623 0.13188425
000140 68 5a 9e bd 50 10 76 be a9 4b 1c 3d 00 bd 43 be
       -0.077320874 -0.2402966 0.038158093 -0.19115067
000150 b5 df 2a be 65 8f 3b 3e 15 1c 29 bd 48 9b 8e 3d
       -0.166869 0.1831642 -0.041286547 0.06963211
000160 63 b8 d1 3d d8 46 27 3e 63 b9 9e bd f8 77 fb 3d
       0.10240247 0.16335618 -0.077502035 0.122787416
000170 7b 46 14 3e c9 30 a4 3e f7 c0 17 3e 10 42 1c be
       0.14480011 0.3206847 0.14819704 -0.15259576
000180 a9 d8 4b 3e e5 aa 82 3c 4c 8a 40 3e 06 2c dd 3d
       0.19906868 0.01595063 0.18802756 0.107994124
000190 15 2f 5a be e1 00 db 3d 89 1e 1c be 89 92 81 be
       -0.21307023 0.10693527 -0.15246023 -0.2530711
0001a0 7c b9 f9 3d 0d 1f 17 be 41 34 58 3e ab 7c f4 3d
       0.121935815 -0.14757939 0.21113683 0.11937841
0001b0 5d 56 0e be 8a e0 36 be 06 ae 3a 3e e3 ea d7 bd
       -0.13900132 -0.17859092 0.18230447 -0.10542848
0001c0 4b 88 35 be 27 e1 5e be 11 d3 15 be 2e 5c 55 be
       -0.17727773 -0.21765576 -0.14631297 -0.20835945
0001d0 3a 23 ee bd 2c b2 4f bc 2e 10 19 be c8 09 ae 3e
       -0.11627813 -0.012676757 -0.14947578 0.33991838
0001e0 bf 6b 61 3e 8a 20 75 be 52 ec 36 3d 05 91 78 3d
       0.22013758 -0.23938194 0.044658966 0.060685176
0001f0 c1 24 59 be 4f d5 88 3e 5b d9 3f be 52 8c 08 be
       -0.21205427 0.26725242 -0.18735258 -0.13334778
000200 e8 00 a1 3c 50 2d c9 3c 8d c4 94 3d e4 ba e0 bb
       0.019653752 0.02455774 0.072640516 -0.0068582166
000210 ac 00 a0 bd d2 7f ac bd 91 95 ba 3d 8c 4c 27 3c
       -0.07812628 -0.08422817 0.09110559 0.010211121
000220 8d 81 5b 3c ff 33 21 3c a4 eb ca bd 3f f0 78 3d
       0.0133975865 0.009839057 -0.09908226 0.06077599
000230 09 c9 35 3b 57 17 38 bd d2 ce 7e bb 0e 6b 56 3d
       0.0027738234 -0.044944134 -0.0038880599 0.05234819
000240 c9 16 4b 3c a1 27 ac bb 14 01 54 bd 9c 0d 4f 3d
       0.012395569 -0.0052537476 -0.05175884 0.05055009
000250 06 35 5c bd 85 bd 2b 3d ae de 88 3d 62 9d a6 3c
       -0.053761505 0.041928787 0.06683098 0.020338718
000260 7c eb 3d 3c 30 99 60 3d 62 3b db bc d3 f6 47 3d
       0.011591788 0.05483359 -0.026761714 0.048819374
000270 47 ac 0a bd 31 e8 d8 3c 54 59 3f bd d9 f2 03 3d
       -0.033855703 0.026477905 -0.04671605 0.03221402
000280 05 a3 0e 3d df 6b c6 bc b6 7d d9 3c 04 41 d8 3b
       0.034823436 -0.024221359 0.026549201 0.0065995473
000290 62 df 93 bd be 83 d0 bc 87 0c 57 3d d3 f9 73 bd
       -0.07220341 -0.025453445 0.05250218 -0.059564423
0002a0 7e c3 88 3d 87 fb 6c 3c 5b 4d c7 bc 1a dd 62 bc
       0.06677912 0.014464266 -0.024328878 -0.01384666
0002b0 59 bd 9d bd e5 3d 68 bd 7d 7e 4a bd bb 57 75 3d
       -0.07702131 -0.056699652 -0.049437035 0.05989812
0002c0 ba 72 47 bd 0f 5b da bc d7 21 9f 3c 02 23 9f bc
       -0.048693396 -0.026654748 0.019425316 -0.019425873
0002d0 6c cc ad 3d 44 c7 c4 bd 8d db 1f bd 1e 51 f5 3c
       0.08486256 -0.096083194 -0.03902774 0.029945906
0002e0 94 6c c6 3d 79 34 a4 3d e6 54 78 bd 45 7f 40 bc
       0.096886784 0.08017821 -0.06062784 -0.011749093
0002f0 e1 ba cf 3c 03 9a 02 3d 1a f1 ae bd f3 2b 6b 3a
       0.025357665 0.03188516 -0.0854208 0.00089710875

gru.bias_hh_l0 f4 [192]
000000 18 9d be bd 66 e4 3f 3d f7 65 be 3d ab 3a b4 3d
       -0.09307307 0.046848677 0.09296792 0.088002525
000010 7a cf c0 bd ac c0 73 3d 27 76 f1 bd 7a bd e3 bd
       -0.09414573 0.059509918 -0.11790114 -0.11120124
000020 d2 1c c1 3d fe 8e f6 3d 73 9f 86 3d 52 84 af bd
       0.09429325 0.12038992 0.06573381 -0.0857016
000030 b9 ad 06 be d6 20 fd 3c d0 dc 16 be b5 31 31 be
       -0.13152207 0.030899446 -0.14732671 -0.17304118
000040 cd 3d 21 bd 23 3c f0 bb 31 a0 11 be f3 ce 1f be
       -0.03936558 -0.0073313876 -0.14221264 -0.15606289
000050 8f 03 d1 3d 1f 04 0d 3d ba b3 8d bd 57 52 40 bd
       0.10205757 0.03442776 -0.06919046 -0.046953525
000060 e0 b6 2c 3c 31 80 da 3d de 37 d6 bd eb 45 19 3d
       0.010541648 0.10668982 -0.104598746 0.037420195
000070 c0 76 1b 3d 09 c7 c4 bc af a9 8d 3d dd e4 ca bd
       0.037955046 -0.024020689 0.0691713 -0.099069335
000080 11 ff aa bd c7 aa 5d bc 0a 51 c0 3d 6b 92 65 bd
       -0.08349431 -0.013529486 0.09390457 -0.05604784
000090 30 78 17 3e 48 5e c8 3d 82 69 c2 bd 9b 6b 09 3d
       0.14791942 0.09783608 -0.0949278 0.033549886
0000a0 f4 0a 40 3c fa dc 63 be e3 8f ef 3a 1f cd 78 bd
       0.011721361 -0.22252265 0.0018277135 -0.060742494
0000b0 8d ed 01 3d d1 33 e8 bd 2c 6e 14 be e5 1a 60 bd
       0.031720687 -0.11338008 -0.14495152 -0.05471315
0000c0 33 c8 e1 bd 29 d0 09 be 1f 21 07 be 4b db fb 3b
       -0.11024513 -0.13458313 -0.13196228 0.007686054
0000d0 43 85 65 3d bb d6 37 3d 29 6a 0a be c3 b2 8f bd
       0.05603529 0.044882517 -0.1351706 -0.07016518
0000e0 17 b5 a9 bc c3 9b d5 bd 24 15 91 3c be 55 08 bd
       -0.020716233 -0.104301 0.017710276 -0.033284895
0000f0 f2 e3 21 be 4b 3a c3 bd ca 80 0c bd f0 68 18 be
       -0.1580961 -0.09532603 -0.03430251 -0.1488378
000100 9f 87 11 3d 2d 16 3c be 70 e6 8a 3e c9 3c 70 bd
       0.03552973 -0.18367834 0.27128935 -0.05865172
000110 2c 9c 56 3e ea bf 22 3e c8 3b fb bc 39 35 c1 bd
       0.20958012 0.15893522 -0.030668154 -0.094339795
000120 bb 7f 08 3e dc 49 80 be 99 c4 d6 3d 67 4f 4a 3e
       0.13329975 -0.2505635 0.10486717 0.19756852
000130 5f 93 9c 3e 7e 9e 9d 3e 7e ba 78 be 89 fc b5 3e
       0.30581185 0.30784982 -0.24289891 0.35544232
000140 4f b6 63 be f6 8a c3 bc 87 e8 1e be 75 1d 7a be
       -0.22237514 -0.023869973 -0.1551839 -0.244253
000150 2c ec 4f be a7 f1 31 3e 1b cb 03 3d 00 64 d4 bc
       -0.20304936 0.1737734 0.03217612 -0.02592659
000160 ac e6 63 3e e5 85 d1 3d 1e 33 44 bd 63 70 2f 3e
       0.22255963 0.102306165 -0.04790031 0.17132716
000170 bc 42 18 3d a1 44 a3 3e 80 4d 82 3e 86 c1 8c bd
       0.037173018 0.31888297 0.25449753 -0.06872849
000180 79 78 6b 3e dc b1 ce bd 89 ce a2 3e 91 4f d4 3d
       0.22995175 -0.10092518 0.317982 0.103667386
000190 51 b6 11 bd 27 0c 74 3e 27 1c 54 be 94 cf 1a be
       -0.03557426 0.23832761 -0.20713864 -0.15118247
0001a0 c0 d0 f9 3d bc 04 36 be 82 86 b9 3d 39 36 11 3e
       0.12198019 -0.17775244 0.090588585 0.1418084
0001b0 a8 c9 95 be 08 82 65 bd c6 b1 33 3c a2 ab 45 be
       -0.29255414 -0.05603221 0.010967677 -0.19303754
0001c0 53 c0 8a be ae c1 c9 bd 0a 55 75 be 79 22 81 be
       -0.27099857 -0.098513946 -0.23958221 -0.25221613
0001d0 d5 3c 66 bd 9b 54 f5 3d bb 76 a0 be 75 54 08 3e
       -0.056210358 0.11979028 -0.31340584 0.13313468
0001e0 04 08 02 3e da 3c 51 be c9 e8 d7 bc 22 42 1a bd
       0.1269837 -0.2043337 -0.026356118 -0.037660725
0001f0 0e 89 e0 3c a7 9a ef 3d 76 7a 84 bd 58 5f 98 be
       0.027409103 0.116994195 -0.0646867 -0.29760242
000200 fc 3c 91 3d 05 0e 70 bd 8f 9c 62 3d 8a e5 b3 bd
       0.0709171 -0.05860712 0.055325087 -0.087840155
000210 e5 cd 24 bd b4 4b 7b bd 63 aa c3 bd 09 99 43 3c
       -0.04023542 -0.061351493 -0.09553983 0.011938342
000220 cd be 52 3d 23 ae 43 bd 47 44 4a 3d a1 9c a7 3d
       0.051451493 -0.04777349 0.04938152 0.081841715
000230 a9 e1 bd bd d9 72 a6 bc 4e 95 25 bd 13 30 6f 3d
       -0.09271557 -0.020318436 -0.04042559 0.058395457
000240 e8 41 82 3d 4c 97 ab 3c 70 89 a2 3c 3d d7 35 bd
       0.06360227 0.020946167 0.019840926 -0.04439472
000250 20 6b c8 3d 91 fa 7d bd ef 42 d1 bd d5 62 9c bd
       0.097860575 -0.062006537 -0.10217845 -0.07636038
000260 f2 10 b4 3d 4a 28 57 bc 73 1f a5 3d 57 1f a0 bd
       0.087922946 -0.013132164 0.08062639 -0.078184776
000270 b2 f9 26 bc 67 ed 72 3d 81 58 98 bd d5 2b af 3c
       -0.010191368 0.059308436 -0.07438756 0.021383205
000280 79 d8 83 3d 1b 0a b9 bd 99 99 a6 bc 22 90 bf 3d
       0.06437773 -0.090351306 -0.020336913 0.09353663
000290 d7 7d 3f 3d 46 56 5d 3d 88 3d 0e bd 61 88 93 3c
       0.04675087 0.054037355 -0.03472665 0.018009366
0002a0 80 6f 91 bd d4 ad 99 3c a3 5c 55 bd f8 35 f7 3c
       -0.07101345 0.018759646 -0.0520903 0.030177101
0002b0 4b 38 7d 3d a9 a6 cd 3d 00 d0 4b 3c 9f 70 ff bc
       0.061821263 0.100415535 0.012439728 -0.031181632
0002c0 d0 d5 a8 3c 3f 90 08 3d 0f e8 08 bb 0b 80 8d bd
       0.020609766 0.03334069 -0.002089027 -0.06909188
0002d0 f3 41 c9 bd 81 99 ae 3d 86 94 e9 3d c2 1f a0 3c
       -0.09827032 0.08525372 0.11405282 0.019546393
0002e0 05 72 ed 3d 04 f3 dc bd 61 9c c1 3d 89 c2 d8 3d
       0.11594013 -0.10788539 0.09453655 0.1058398
0002f0 a9 1a 65 bd 24 7a ae 3d bc f6 5f 3c 40 a3 b7 bd
       -0.05593363 0.0851939 0.013669666 -0.08966684

gru.weight_ih_l1 f4 [192, 64]
000000 4b 2b f1 3c f0 92 df 3d 60 9a d0 bd 1e 0c 1c 3e
       0.029439589 0.10916698 -0.10185695 0.15238997
000010 ae 0e 0c 3e 31 63 10 bc 6d 5e dc ba e8 4a b8 bd
       0.13677475 -0.008812712 -0.0016812809 -0.08998662
000020 95 67 1f be a5 55 01 3e 0c c9 15 bd 1f cf 30 be
       -0.15566857 0.12630327 -0.036568686 -0.1726651
000030 b2 14 18 3e 87 0f 85 3d 42 71 d6 3c a4 bc 96 38
       0.14851645 0.06497102 0.026177052 7.1876944e-05
000040 0c 06 90 bc c2 73 e8 bd 0a 10 01 3e c2 0e 24 be
       -0.017581008 -0.11350204 0.12603775 -0.16021255
000050 3c 86 d4 bd 5d 9d 1d 3e e5 94 1f 3d 9a 1f 55 bd
       -0.10377166 0.1539206 0.038960356 -0.05203209
000060 40 6b b2 bd f3 b2 89 bb 23 5a 5a bd ff 3c ed bd
       -0.087118626 -0.0042022406 -0.053308617 -0.115839
000070 80 e9 0c 3e 24 9f 73 3d 46 a8 28 3d 71 f3 44 3d
       0.13760948 0.05947794 0.041176103 0.048083726
000080 9f 47 1c bd c9 50 00 3e d1 54 ae 3d eb 72 24 be
       -0.03815424 0.12530817 0.08512271 -0.16059463
000090 33 7f 55 bd 0f a0 27 bd 3d 1f c9 bc b4 02 e1 3d
       -0.05212326 -0.04092413 -0.024551028 0.10986844
0000a0 dc 3e d3 bb 2b 42 52 bd b2 4c 00 3e ac 90 23 bb
       -0.0064467024 -0.051332634 0.12529257 -0.0024958057
0000b0 2b 34 89 3d ba 86 be bd 4c 40 49 3d db 5b 12 be
       0.066994034 -0.09303041 0.049133584 -0.14292853
0000c0 d8 63 7e bb fe ed a8 3d 64 a6 9f bd 87 83 5d 3d
       -0.0038816836 0.082485184 -0.07795408 0.054080512
0000d0 34 ed 8d bc ca 03 ef 39 e8 6b 11 be 27 f8 62 39
       -0.017325021 0.00045588455 -0.14201319 0.00021645484
0000e0 ad f4 04 be 61 b9 0d be 66 3c 0c 3e ab 3e bd bd
       -0.12983961 -0.13840248 0.13694915 -0.092404686
0000f0 3b 90 82 3d 91 f0 91 bd e7 21 f5 3d 2c 70 2f 3d
       0.06375166 -0.071259625 0.11969357 0.042831585
000100 ad a9 4d bd ce cf a5 bd f0 32 98 3d d8 da 80 3d
       -0.050210644 -0.08096276 0.074315906 0.06291741
000110 8d f6 93 bb 22 93 a6 3d d9 70 44 bd ea 82 19 bc
       -0.004515475 0.08133532 -0.047959182 -0.009369591
000120 71 8a d0 bb b0 65 4d 3d 6d bd 00 be b6 7c f3 bd
       -0.0063641598 0.050145805 -0.1257226 -0.11889021
000130 3b 45 0d 3e 63 7e 22 3d 1e 17 46 3d 24 77 42 bc
       0.1379594 0.039671313 0.04836189 -0.011869226
000140 5b b7 de bb fe 95 20 3e 99 4f 32 bb 4d a8 67 bd
       -0.00679676 0.15682217 -0.0027208088 -0.05655699
000150 6c 6d 3d 3e 51 fc ea 3c 4a f0 e9 3c 3b 91 96 3b
       0.18498772 0.028684767 0.028556962 0.0045949495
000160 14 26 f8 3c ac c4 bb 3d 7a 0f b0 3d 26 63 cf 3d
       0.030291595 0.091683716 0.08596702 0.10126333
000170 ce 1b 2d 3d 5c 43 1f bd b1 21 e4 3d fe 10 09 3e
       0.042262845 -0.0388826 0.111392386 0.13385388
000180 a0 1e 8c 3c 6f d0 16 3d 0b 8a a4 bd a0 8c 1b bd
       0.017104447 0.03681987 -0.08034142 -0.037975907
000190 f9 c9 7c 3d 50 3c d9 3d 96 21 06 3e 8f 91 ec bc
       0.061716054 0.10607207 0.1309875 -0.028878001
0001a0 5e a6 59 3c f3 87 eb bc 24 d1 b8 3d a1 dc 11 3d
       0.013284294 -0.02875135 0.090242654 0.0356108
0001b0 d8 9f 75 3d de cd 97 3d 9c 84 d2 bd 57 2c 1e be
       0.059966892 0.07412313 -0.102791995 -0.15446602
0001c0 01 f0 79 3d 5f 8c eb bd 30 77 bd 3d f8 2b 19 be
       0.0610199 -0.11501383 0.09251249 -0.14958179
0001d0 30 fc 44 3d 00 ad bb bd fe af de 3c 26 7b 44 bd
       0.048092067 -0.091638565 0.027183529 -0.047969006
0001e0 4a e4 56 bd 99 9a db 3c 92 6d 27 bd ad 3b f3 3d
       -0.052463807 0.026807116 -0.04087598 0.118766166
0001f0 4a cd 27 be 91 cb 90 3d 43 9f 58 bb a2 23 d9 bb
       -0.16386905 0.07070077 -0.0033053912 -0.006626562
000200 37 fd d7 bd e0 a6 b5 bd 9e 95 96 3d cc d3 d1 bd
       -0.10546344 -0.088697195 0.07352756 -0.10245475
000210 8c fd 8a bd 47 85 0d 3e 93 97 e0 bd 9d 8c 1f bd
       -0.067866415 0.13820373 -0.109664105 -0.03895246
000220 0f 53 89 bd ed a7 48 3e 09 1b e5 3d ec d1 db 3c
       -0.06705295 0.19595309 0.11186797 0.026833497
000230 c8 b8 f7 bd 3b 33 8d bd 30 f0 fc 3d 74 a6 2b bd
       -0.12095791 -0.06894537 0.123505 -0.04190679
000240 f8 27 14 bc 3e 4e cb bc ad 0f 5f bd 38 6a ce bd
       -0.009042732 -0.024817582 -0.05445831 -0.10078853
000250 1c cd a8 3a b7 be b6 3c cb 5b 18 bc cf 8e f1 3d
       0.001287851 0.022307737 -0.009299229 0.11794817
000260 32 1b 63 bd d4 55 b0 3d 98 b3 1e 3c ff 99 a7 3d
       -0.055445857 0.086101204 0.009686373 0.08183669
000270 c1 61 a5 bd 21 fc 81 3d 12 05 0b 3e ca 18 00 bc
       -0.08075286 0.06346918 0.13576153 -0.00781841
000280 cb 94 d6 3c 12 54 13 3b 07 66 34 bd 17 f0 1c bd
       0.026193997 0.002248053 -0.044042613 -0.038314905
000290 54 19 e3 bd ea d3 da 3d 4e 2a e7 bd 25 4e be bd
       -0.11088815 0.10684951 -0.11287366 -0.09292249
0002a0 ba a5 61 bd 8f 45 03 bc 43 f7 91 bd 63 cd e5 3c
       -0.05508969 -0.0080121895 -0.071272396 0.028052038
0002b0 43 dc 35 3c b7 26 7e bd 81 74 41 3d 79 7d 08 3d
       0.011099878 -0.06204864 0.047230247 0.033322785
0002c0 19 cf 91 3d 1e 55 79 3d 82 95 a7 3b 8f a9 05 bd
       0.07119579 0.06087219 0.0051142583 -0.032632407
0002d0 de 29 e5 bc 38 84 9e bd b8 41 2e 3d 30 49 93 3d
       -0.027974065 -0.077400625 0.042543143 0.07191694
0002e0 c8 50 2a bc 09 12 97 bd 76 69 88 bd de 86 f9 bc
       -0.010395236 -0.07376487 -0.0666074 -0.030459817
0002f0 e7 90 0a 3d 09 89 f8 3b b1 4a 9a 3d 9c 52 04 3e
       0.033829596 0.0075846952 0.075337775 0.12922138
000300 1b 86 09 bd 1c fb 1c 3e 92 5d 4e bb f1 e0 62 3d
       -0.03357516 0.15330166 -0.0031488878 0.055390302
000310 62 bb 87 3d 26 16 99 3d f1 d8 2f 3e 7e 48 fe bc
       0.06627537 0.074749276 0.171726 -0.031040426
000320 6d 52 87 bc 62 2f 0f be db 44 48 be 7f cf 42 be
       -0.016518796 -0.13982919 -0.19557516 -0.19024466
000330 76 f4 70 bd 4a 7d ee 3c 64 6c 10 3b 40 d8 8c bd
       -0.058826886 0.029112477 0.0022037262 -0.06877184
000340 0a 4b 40 3e 0a 78 25 bd a2 af 4f 3e 30 b1 71 3c
       0.18778625 -0.04039768 0.20281842 0.014751717
000350 84 ec d3 3c c7 ed bb bd 91 e6 40 3e b0 1a 92 bc
       0.025869615 -0.09176212 0.18837954 -0.017834991
000360 73 aa df bd 38 73 83 3d 82 08 00 3e e4 b9 0c 3e
       -0.109211825 0.064184606 0.12503245 0.13742787
000370 2f 5b 9f 3c d0 70 88 bd 46 a2 8a 3d 2d d1 71 3e
       0.01945266 -0.06662142 0.067692325 0.2361495
000380 e0 e0 85 3d af 62 33 bc 67 33 e1 bd 5e 21 ee bd
       0.06537032 -0.010948821 -0.10996132 -0.11627458
000390 ff e7 88 bd 8a cf 88 3d 8a ea 99 3d 7a 1a 8f 3d
       -0.06684875 0.0668021 0.07515438 0.06987472
0003a0 86 be 72 3c e1 3d 13 3e 29 48 57 3d 33 ab 80 3c
       0.014815932 0.14379074 0.05255905 0.015706634
0003b0 3e c2 79 bd 4d ff 1c be 42 18 31 bd 70 ef 0e be
       -0.06097626 -0.15331765 -0.043236025 -0.13958526
0003c0 83 d5 e0 bd af 20 eb 3d 34 9a fc 3d aa 6b 56 be
       -0.10978224 0.11480843 0.123340994 -0.20939508
0003d0 fa 9a b6 bd d0 4c 13 be 7a 82 6e 3d 35 3c 18 be
       -0.08916278 -0.1438477 0.0582299 -0.14866717
0003e0 b8 83 0a be b6 c5 4b 3e 1f 42 81 bd 68 0a 9c ba
       -0.13526809 0.1989964 -0.0631144 -0.0011904957
0003f0 cb 2d 61 bd 36 c4 62 bd 8e a2 79 3d 6f 32 d3 bd
       -0.054975312 -0.055362903 0.06094604 -0.10312354

gru.weight_hh_l1 f4 [192, 64]
000000 4a 9e 93 bd 39 00 2a be 9b 10 f3 bd c3 ec ac 3d
       -0.072079256 -0.16601647 -0.118684016 0.08443596
000010 ed 20 e2 3d 2c a6 18 be 61 34 ca bc 24 7c 53 bd
       0.11041436 -0.1490714 -0.02468318 -0.05163206
000020 4d 79 7e 3d c4 84 ff 3d 5f 99 0a 3d a7 da 06 3e
       0.0621274 0.12476495 0.033837672 0.13169347
000030 73 19 db bd 82 77 e7 3c e0 cd 39 be 58 20 2b 3e
       -0.106982134 0.028255228 -0.18144941 0.16711557
000040 be 70 76 3b b0 30 af 3c 8c 86 ee bd 36 8d 93 bd
       0.003760382 0.02138552 -0.116467565 -0.07204668
000050 3f dd 08 bd 43 70 5b bd 16 5d 5e bd 21 2b e8 3c
       -0.03341412 -0.053573858 -0.054287992 0.028340878
000060 8c 17 11 bd b3 b7 ee 3d b6 16 0d 3e 5d 64 b9 3c
       -0.035422847 0.116561316 0.13778195 0.022630865
000070 a3 fb 25 3d 73 33 6e 3c e8 8a 8d bc 70 a6 ae bd
       0.040523183 0.014538634 -0.01727815 -0.08527839
000080 e8 e0 19 3e ba 18 9a 3b 64 e4 d4 bc 13 f4 05 3e
       0.15027201 0.0047026547 -0.025987811 0.13081388
000090 a2 0f 96 bb 07 b4 9e bd 50 fc 9c bd 91 22 53 3b
       -0.0045795003 -0.07749181 -0.07665312 0.0032216648
0000a0 c5 8e 40 3d da ac 0b be 0f 07 30 3e a1 bc 48 3d
       0.047011156 -0.13640156 0.17190193 0.049008016
0000b0 9a ac 25 3e 71 66 83 bd d5 61 d5 bd 5d e9 b6 bd
       0.16179124 -0.064160235 -0.104190506 -0.08931229
0000c0 93 35 ad 3d 50 06 40 3d ee 6b a7 3d fd 00 0d be
       0.08457484 0.04688102 0.08174883 -0.13769908
0000d0 77 dc 01 3e 17 17 d0 3d 6f c2 49 bd 76 c2 d5 bd
       0.12681757 0.10160654 -0.049257692 -0.10437481
0000e0 c0 cc 47 be 50 33 61 3c 75 5b ad bd 74 5e fd 3d
       -0.195117 0.013745144 -0.0846471 0.12371531
0000f0 86 02 a1 3d 6c 0b b3 bd c3 48 58 3d c0 51 6d bd
       0.078618094 -0.08742413 0.052803766 -0.05793929
000100 56 ed aa bd 82 ec 18 ba 43 de 21 3d 79 7b 27 3c
       -0.083460495 -0.0005833582 0.039518606 0.010222309
000110 de 14 81 3d f6 b6 8a bd 53 9c 0e 3c bf ce b6 bd
       0.06302808 -0.06773178 0.008704263 -0.089261524
000120 83 df 92 3d 69 20 65 bd 8e b1 31 3d 97 14 7f bc
       0.07171538 -0.05593911 0.04338222 -0.015568874
000130 35 3a 60 3d 99 9e 89 bd fa 28 b5 bd 4d 44 31 3c
       0.05474301 -0.06719703 -0.08845706 0.010819507
000140 42 72 e7 3d 2a 4a a7 3d 37 63 16 3d bf a8 e7 3d
       0.1130109 0.081684425 0.036715712 0.11311483
000150 a2 ce b3 3b 25 71 ac bd 25 a6 c5 bd 3c a8 ee 3d
       0.005487279 -0.08420018 -0.0965083 0.11653182
000160 3b 69 2b 3d 89 3b 0c 3d 6d 7f d4 3c 2f c8 97 bd
       0.041848402 0.034236465 0.025939668 -0.07411229
000170 cb e6 31 bd d5 ee 0e 3e 2b 8e 8a bd 56 1d 22 ba
       -0.043432992 0.13958295 -0.06765398 -0.0006184181
000180 3e ad e6 bd 70 c8 05 be ca 3d eb 3d b5 b4 36 bd
       -0.11263512 -0.13064742 0.11486395 -0.04460593
000190 a6 40 9c 3d ef 6e 01 3d a9 86 7b bd dd 6a df bd
       0.07629518 0.031599935 -0.06140772 -0.109090544
0001a0 29 a2 a8 bc 9f 2b 26 3d f7 4f d9 bc 3b 2e 77 3d
       -0.020585136 0.040568944 -0.026527388 0.060346823
0001b0 b0 10 10 3d 1f 9a 02 3d 6a 3c 8d bc aa 12 ce 3d
       0.035172164 0.031885263 -0.017240722 0.10062154
0001c0 bd 24 0c 3d 97 4a 08 3e 9e c8 37 bd 6c f0 15 3d
       0.034214724 0.13309704 -0.044869058 0.036606237
0001d0 9e 23 10 ba 5f 3e 4f bd 0f 05 80 bd b8 0e f3 bc
       -0.00054984714 -0.05059659 -0.06250965 -0.029670104
0001e0 64 c7 29 bd 91 fa e4 3d 0d dc bb bd 67 9d 1a be
       -0.04144992 0.11180604 -0.09172831 -0.15099107
0001f0 dc 68 8d 3d 90 43 cc bd 96 7d 00 3e 95 4a 20 3d
       0.06904766 -0.09973824 0.12547907 0.039133627
000200 97 36 48 3b 7e 81 9e 3d 30 05 a0 3b 9f c0 f6 3c
       0.0030550116 0.077395424 0.004883431 0.030121146
000210 23 2a 08 3d b2 f7 d9 bd b4 6b 9f 3d 9d d0 02 be
       0.03324331 -0.10642947 0.077842146 -0.12774892
000220 7d 36 02 3e 85 1a ca bd d6 41 d1 3c 73 e0 f2 3d
       0.12716098 -0.098683394 0.025544088 0.118592165
000230 73 14 33 bd b7 ea de bd 00 b4 d6 3d c8 d4 cd bb
       -0.043720674 -0.10884612 0.10483551 -0.006281469
000240 05 a4 03 bd 1e 7f 9e bd b9 09 06 3d 01 b2 ae bd
       -0.032138843 -0.077390894 0.032724116 -0.08530045
000250 d1 9d 92 bc 21 bf a2 bd f0 b8 a6 bd 24 8a a0 3d
       -0.017897518 -0.07946611 -0.08140743 0.07838848
000260 6b a2 9f 3d d3 a6 00 3e 14 71 2b bd 34 a2 13 be
       0.07794651 0.12563638 -0.041855887 -0.14417344
000270 56 ce 1f 3c bb 9f 1a be 98 df eb bd f9 ca ac 3d
       0.009753784 -0.15099995 -0.115172565 0.084371515
000280 6e 2d 14 bd 4a be 13 be 91 74 8f 3d cc db 2d bd
       -0.036176138 -0.14428058 0.07004655 -0.042445943
000290 7d c4 42 3d 16 63 fe bd c8 0a 07 3d d0 60 8e bd
       0.047550667 -0.12421243 0.032969266 -0.06952059
0002a0 f1 6d 43 bd 7a 03 82 bb 96 29 c9 3b 6a 51 ab bd
       -0.04771227 -0.0039676996 0.0061389906 -0.08365138
0002b0 9f 7f 47 3d 9a 33 b3 b9 42 e3 75 3a f8 71 3d 3c
       0.048705693 -0.00034179987 0.00093798724 0.011562817
0002c0 20 ec b0 bd d9 44 be bd d5 94 dd 3d c3 8f 04 be
       -0.08638787 -0.092904754 0.10819403 -0.12945466
0002d0 42 05 85 3d cf bd 92 3d 9e 0d b2 3d bd 1a 40 bd
       0.064951435 0.07165109 0.086940035 -0.0469005
0002e0 80 66 ca bd 4d 2a 03 3e a7 32 13 bd 2b 31 9e 3d
       -0.098828316 0.12809105 -0.035936978 0.07724222
0002f0 59 d0 9f bc 70 07 d0 3c ce 25 01 bc ce de 9c 3d
       -0.019508528 0.025394171 -0.0078825485 0.07659684
000300 f3 6e 40 bd 70 34 47 bd f7 45 0d bd 90 2a 0d 3d
       -0.04698081 -0.048633993 -0.03449055 0.03446442
000310 03 b1 b0 3d da 15 83 3d d0 30 ac 3c 84 a8 b1 bd
       0.08627512 0.06400652 0.02101937 -0.0867472
000320 1f 7f 24 bd 60 66 23 3e b7 39 98 3d 76 90 34 bd
       -0.040160295 0.15957022 0.07432883 -0.04408308
000330 ee 95 df 3d 8d cb 14 bd b9 3a e0 bd 22 58 79 bd
       0.10917269 -0.036326934 -0.109487005 -0.060875066
000340 54 a5 7b 3d 23 59 9a 3d 3d cd 1f 3d ff 82 81 bd
       0.061436966 0.07536533 0.03901409 -0.06323814
000350 72 10 9a 3c e9 97 c6 bd 65 a5 82 bd 11 e0 ad bd
       0.01880667 -0.09696943 -0.06379203 -0.08490003
000360 ca b8 ad bd 04 19 90 bd 4f 24 7a bc 37 90 04 bc
       -0.08482511 -0.07036021 -0.015267446 -0.008091024
000370 74 35 08 bd a7 4f ec bd 88 d6 2e bd f2 98 ce bb
       -0.033254102 -0.1153863 -0.04268506 -0.0063048536
000380 50 54 e7 3c b4 1e bb bd c8 69 df 3d c2 1b e6 3d
       0.028238446 -0.091367155 0.10908848 0.11235763
000390 34 28 78 bd b9 4c f9 bd b0 74 a1 3d 30 55 8e bc
       -0.060585216 -0.12172837 0.078835845 -0.017374605
0003a0 14 a8 12 3e 7f 12 b1 3d 9b 3b 88 3d 03 42 41 bd
       0.14321929 0.08646106 0.06651994 -0.047182094
0003b0 48 97 cc 3d 0d f2 cb 3d 08 19 01 3e b8 93 55 3d
       0.09989792 0.09958277 0.12607205 0.05214283
0003c0 a5 34 5d bd 2e ca 56 bd 0d 1e eb 3d 04 2c ea 3b
       -0.054005284 -0.052438907 0.11480341 0.0071463604
0003d0 43 e5 22 3e cf 43 6d 3d bd 0a 86 3d 1b b9 34 bd
       0.15907769 0.057925995 0.06545017 -0.044121843
0003e0 f4 ba 4a 3d 2d d6 4c 3c 48 95 d2 bd ce 94 84 3d
       0.0494947 0.012502235 -0.102823794 0.06473695
0003f0 81 68 eb bd 86 2e 5e 3d af 3e e4 3c 15 69 b6 bd
       -0.11494542 0.054243587 0.027861921 -0.089067616

gru.bias_ih_l1 f4 [192]
000000 00 48 5f bd d3 ef fc 3c 30 76 c7 3d b5 39 74 bd
       -0.054512024 0.030876076 0.09739339 -0.059625346
000010 00 4a a8 bd 49 4b a9 3d ac 3c 03 bd 78 8b c2 3c
       -0.082172394 0.08266313 -0.032040283 0.023748145
000020 a9 b6 18 be b5 5f 9c bd ca 2f fb bd ea 6c c9 bd
       -0.1491343 -0.07635442 -0.122649744 -0.09835227
000030 46 6c 9c bd 0f 03 e0 3d a8 e8 86 3c ed 90 8c 3d
       -0.07637839 0.109380834 0.016468361 0.0686358
000040 ba 88 e7 bd 15 1f 8c 3b 92 eb 85 bc 2b e8 d0 bd
       -0.113053754 0.004276166 -0.01634768 -0.102005325
000050 e2 e7 86 3c 77 bf c6 bd be 20 0b ba ad be 2b bd
       0.016467992 -0.09704488 -0.0005307308 -0.04192989
000060 39 3a 22 3c e1 da 06 be 0c 6a f0 bc b6 b3 82 bd
       0.009901577 -0.13169433 -0.029347442 -0.063819334
000070 39 5c f8 3d 94 1a 9c 3d c8 d4 17 be ef b5 63 bd
       0.12126965 0.07622257 -0.14827263 -0.055593427
000080 98 ae 7d bd bb 86 c8 3d 3c 08 27 3d 94 79 1c bd
       -0.061934084 0.09791323 0.040779337 -0.038201883
000090 93 05 8a 3c 92 ac c4 bc e4 4e c0 bd ec 6e a9 3d
       0.016848361 -0.02400807 -0.09390047 0.0827311
0000a0 e5 1f 53 bc 82 48 ff bd ce 47 c3 bd 63 99 ab bd
       -0.012886022 -0.12465002 -0.0953518 -0.083788656
0000b0 87 e1 b4 bd fb 62 2d be 72 c3 c0 bd a8 c0 7a 3d
       -0.088320784 -0.1693229 -0.09412278 0.061218888
0000c0 c7 44 bb bc 5c 29 93 3c 79 ea dd 3d 18 36 e1 bd
       -0.022859944 0.017964058 0.10835738 -0.10996646
0000d0 e0 08 c2 bd 40 a8 42 3d b0 73 0a 3b f3 27 bc 3d
       -0.09474349 0.047523737 0.0021126084 0.09187307
0000e0 3b b4 31 be 50 1f ef bc 68 05 d0 3d 4c 05 19 3d
       -0.17353909 -0.029189736 0.10157281 0.037358567
0000f0 8f 90 bb bd b1 f6 12 3c 4a 01 8f bc 1b 9d ca 3d
       -0.09158432 0.008969949 -0.01745667 0.09893247
000100 14 a3 35 be 31 a5 bc 3d 4f 58 3a be 73 1a 83 be
       -0.1773799 0.09211195 -0.1819775 -0.25606117
000110 c5 f7 62 be d7 fd b8 3d 36 9a 8a bd 65 e9 32 3e
       -0.22164829 0.09032791 -0.06767695 0.17471845
000120 ba 2a 0b 3e 70 ce 96 3e 82 4e a5 bd 61 4c 18 be
       0.13590518 0.29454374 -0.08071615 -0.14872886
000130 aa 91 8b bd 17 7c 60 3e d8 52 38 be 0d 85 56 be
       -0.068148926 0.21922337 -0.18000352 -0.20949192
000140 ff 0e 05 be 1a ce 7a be b1 23 3a 3d 6f bf d8 bd
       -0.12994002 -0.24492684 0.045444194 -0.10583388
000150 2c 5e 29 be 2e 3d 45 be 77 fb a0 bd 80 3f 81 bc
       -0.1653983 -0.1926162 -0.07860463 -0.01577735
000160 e8 9d 7c bc 80 cf 64 be 90 22 aa 3e 15 aa 8e be
       -0.015418507 -0.2234478 0.33229494 -0.27864137
000170 d5 7d 97 be dd 98 b9 3c dc 3f f1 bd 3d bb 45 be
       -0.2958819 0.022655899 -0.11779758 -0.19309707
000180 b5 50 56 be cc 1e f2 3d e8 ef 08 3e 5d fa cc bd
       -0.20929225 0.1182228 0.13372767 -0.100086905
000190 58 aa 53 be 01 ff 63 3e 21 95 3b bd 2e 0c 4d be
       -0.2067045 0.22265245 -0.045796517 -0.20024177
0001a0 b9 d5 68 be 8d df 7a be 9e 30 09 3e 09 fc d2 bd
       -0.22737779 -0.2449934 0.13397452 -0.10301978
0001b0 99 ca 3a be 3f e8 88 bd bd 8c 69 3d b4 ef 76 be
       -0.18241347 -0.066849224 0.057018984 -0.24114877
0001c0 b8 ee 07 3d 26 18 f6 bd 62 fa 70 bd 34 49 67 be
       0.033186644 -0.12016325 -0.058832534 -0.22586519
0001d0 eb de 67 be d3 c7 82 bd 93 17 c8 bd 18 e0 a6 3d
       -0.2264363 -0.0638577 -0.097701214 0.08148211
0001e0 65 8f 06 be 90 c5 1c be 7c 93 04 3d 16 a4 99 be
       -0.13140638 -0.15309739 0.032367215 -0.30008
0001f0 5d 82 80 be d4 e8 53 3d ae cd 1b 3e 3f a8 4f be
       -0.2509946 0.051735714 0.1521518 -0.20279025
000200 3d b7 68 3d 3b 47 12 3d a1 96 3e 3b 4f 07 cc bd
       0.056815375 0.035712462 0.002908148 -0.099623315
000210 48 e1 86 3c aa e2 6e 3b b0 7f c1 bd fa ff d7 3d
       0.016464844 0.003645102 -0.094481826 0.105468705
000220 66 06 95 bd 30 6e c5 bd a7 f6 48 3d fa 37 ff bd
       -0.07276611 -0.09640157 0.04906335 -0.124618486
000230 33 ea 67 3c 48 fd 98 bd c8 42 e8 3d ab d6 02 bd
       0.014154959 -0.074701846 0.113408625 -0.031943005
000240 65 75 fd bd 51 13 2f bd 3d bb ae 3d 5c 74 ca bc
       -0.12375907 -0.04274303 0.085318066 -0.024713688
000250 dc a9 b7 bd ef 3a 59 bd ca 7c f9 3d 0a 4e 6e bc
       -0.08967945 -0.05303472 0.12182005 -0.014544973
000260 2b 3d 6c bd c4 86 41 3d 5c 76 7e bd f7 08 d3 bd
       -0.05767552 0.047247663 -0.062124595 -0.10304444
000270 d3 e4 9b bd 5e 36 16 bd 12 b5 b6 3d 0f 47 8a 3d
       -0.07612004 -0.036672942 0.08921255 0.067518346
000280 05 9a 8c bd bd 27 c7 3c 86 43 fa bd 60 20 9a bd
       -0.068653144 0.02431094 -0.1221991 -0.07525706
000290 31 a2 6f bd 80 f9 f1 ba a9 3e 7c bd db 04 b3 3d
       -0.058504287 -0.0018461198 -0.061583195 0.087411605
0002a0 c2 bf f9 bb bf 5b 9c bd 3b 48 f8 bd d4 b6 0e bd
       -0.0076217363 -0.07634687 -0.12123152 -0.034842327
0002b0 fc ad e7 bb 97 21 a7 bd 51 c1 dc bd e4 08 c1 3c
       -0.007070301 -0.08160704 -0.1077906 0.02356381
0002c0 6a c8 b1 bd 77 dd 91 bd 12 a4 8c 3d 38 65 a4 bb
       -0.08680804 -0.07122319 0.068672314 -0.005016949
0002d0 03 09 c0 bd eb b5 c4 3d 6b 35 3d 3d ab d3 9f bd
       -0.09376719 0.096050106 0.04619352 -0.07804044
0002e0 84 0f c7 3d 09 5f 79 3a 49 35 5f 3d 08 03 c2 3c
       0.09719756 0.00095127575 0.054494176 0.023683086
0002f0 bc 3f 35 bd d1 08 94 3d 91 37 8c bd 7e 9f ef 3c
       -0.044250235 0.07228244 -0.06846536 0.029250856

gru.bias_hh_l1 f4 [192]
000000 a4 d4 0d 3d 7f ff c8 bd 41 9e 3f bd 2b 34 6e 3d
       0.034626618 -0.09814357 -0.046781782 0.05815522
000010 87 a0 f4 bc 7c ea 7b 3c ff 73 05 be bb 73 2c 3d
       -0.029861702 0.01537573 -0.1303253 0.042102557
000020 1c 9b 5d 3d 5e 2f 93 bd 4a b6 8c 3d 48 53 4c bd
       0.054103002 -0.07186769 0.068707064 -0.04988411
000030 a9 2e 15 bd 6b c5 86 3d cf 02 25 3d 3e 97 a3 3d
       -0.03642145 0.06580623 0.04028588 0.079878315
000040 c8 27 14 3d 55 7d c1 3d 5f d0 c9 3d 3d 08 04 bd
       0.03617075 0.09447733 0.09854197 -0.03223442
000050 d2 5f ae 3d ad 1d d2 bc aa b0 08 3d 1f 1e d1 bd
       0.0851437 -0.025648916 0.033371605 -0.10210823
000060 b0 db 62 bd ee c0 be bd a5 f3 a3 3d 63 20 43 bd
       -0.05538529 -0.09314142 0.08005456 -0.04763831
000070 93 27 cd bd 55 ce d1 bd 75 aa 50 be 0d 62 da 3d
       -0.10017314 -0.10244433 -0.20377524 0.10663233
000080 0c 6f 38 bc aa 85 90 3d c1 60 16 be fa 96 1c bd
       -0.011256944 0.070567444 -0.14685346 -0.03822992
000090 5f c9 84 bd 8e 84 7d bd 54 66 b3 3d 9a 3a e0 bd
       -0.06483721 -0.061893992 0.08759752 -0.10948677
0000a0 df 82 99 3c fc e1 d3 bd 20 94 bb bd b3 44 79 bd
       0.018739162 -0.103458375 -0.09159112 -0.060856532
0000b0 f2 4d c4 bd 5a 8c 28 be 04 0b b1 bd f5 32 bb bd
       -0.095851794 -0.1645979 -0.08644679 -0.09140579
0000c0 35 ed 14 bd 0a 85 7e 3d d0 dc f3 3d 82 c6 08 be
       -0.03635903 0.062138595 0.11907351 -0.13356975
0000d0 ef 16 28 bd 5c 99 48 3d 5f 87 99 bd e2 e9 b2 bc
       -0.041037496 0.04897438 -0.07496523 -0.02184004
0000e0 77 94 32 3c 3d 7b bb bc 29 c3 b4 bd 75 fc 12 be
       0.010899655 -0.022885913 -0.08826286 -0.14354117
0000f0 1b e8 c0 3d 9a b8 ce bd ff 20 8c 3d 60 d9 ac bd
       0.094192706 -0.10093804 0.06842231 -0.084398985
000100 f3 c8 4c be 08 4e a8 3d 3a d2 4b bd e4 39 84 be
       -0.19998531 0.08218008 -0.049761035 -0.25825417
000110 c0 bf 97 be 4c 06 49 3e 73 9a 37 bd 5b ed e3 3d
       -0.2963848 0.19631308 -0.04482503 0.11129256
000120 ac da 3a 3e 9c 42 84 3e 04 13 8e bd 29 b2 fd bd
       0.18247479 0.2583207 -0.06937221 -0.12387497
000130 fb 1b c1 bd 5f 5b a5 3d 39 77 63 be e0 67 3c bd
       -0.09429165 0.08074068 -0.22213449 -0.0459975
000140 98 0a 69 be 5c ef 88 bd 21 14 a4 3c 04 e6 ce 3c
       -0.22757947 -0.06686279 0.02002913 0.025256164
000150 64 1c 2a 3d da df 87 be 12 55 35 bb 83 46 94 bc
       0.04153098 -0.26537973 -0.0027669114 -0.018100029
000160 9f c5 a5 bd 03 e9 12 be 5b 8f b9 3e c5 03 80 be
       -0.08094334 -0.143467 0.36242184 -0.25002876
000170 82 93 32 be c3 f7 e9 bd ae 8e 26 3d 86 25 87 be
       -0.17439082 -0.1142421 0.040663414 -0.26395816
000180 af c1 a2 be 94 ec 25 3e b3 f3 65 3e a9 5b f9 bd
       -0.31788394 0.16203529 0.22456245 -0.12175686
000190 66 84 e1 bd 60 88 88 3e 5b 1f 00 3e fd 38 4a be
       -0.11011581 0.26666546 0.12511961 -0.19748302
0001a0 c6 68 3d be 73 2d 45 be 58 9a 83 3e 1e aa 8f be
       -0.18496999 -0.19255619 0.25703692 -0.28059477
0001b0 a7 f0 1a bd c9 1d 56 be cb 24 ed bc a4 32 90 be
       -0.03782716 -0.209098 -0.028948208 -0.28163636
0001c0 8e 3c c8 bd da ea b4 bc 0f d7 f6 bd d5 b9 6a be
       -0.09777175 -0.022084642 -0.12052738 -0.22922452
0001d0 e6 63 29 be 88 a6 16 be df e4 ba 3c 6f 05 eb 3d
       -0.16542014 -0.14711964 0.022814212 0.11475646
0001e0 58 2a 4f be 3a 37 36 be f0 3f 3e bd 7e 5e a0 be
       -0.20230997 -0.17794505 -0.046447694 -0.31322092
0001f0 41 31 80 be 16 66 63 3d 2d 27 3f 3d 91 78 da bd
       -0.25037578 0.05551728 0.04666822 -0.106675275
000200 86 d9 15 3d 60 01 b3 3d 2f 11 a8 3d 1a 8b d0 3d
       0.0365844 0.08740497 0.082064025 0.101827815
000210 24 96 d5 bc ae db 86 3d 12 d9 62 3d f0 b2 86 3d
       -0.02607257 0.06584869 0.055382796 0.06577098
000220 11 42 a8 bd 78 9c 71 3d 5f cd f0 bc 5f 94 92 3d
       -0.08215726 0.05898711 -0.029394804 0.07157206
000230 08 47 29 bd 9a 6b c9 bd 1f f6 0e 3d 7f ec f5 bd
       -0.041327506 -0.098349765 0.034902688 -0.12007999
000240 0c 8e 55 bd 60 18 64 bd 37 6f a6 3d 76 ad 54 bc
       -0.05213742 -0.05568731 0.08126681 -0.012980809
000250 68 cd 1b 3d 80 80 f4 3d 46 a7 96 bc 04 2a 66 bd
       0.038037688 0.11938572 -0.018390309 -0.056192413
000260 a7 67 0d 3d e1 e3 65 bd 06 ca 85 3c 24 40 ec 3d
       0.03452268 -0.056125525 0.016331684 0.11535671
000270 e3 fd 80 3d ab 04 a7 3d 79 95 27 3d 96 3f c1 3d
       0.06298425 0.08155187 0.040914033 0.09435956
000280 c6 b5 c6 3d 72 9d 18 3d bf 45 eb 3d fb c0 0b 3d
       0.09702639 0.037259527 0.114879124 0.034119587
000290 d3 30 82 3d a9 f5 12 3d 1e 0d aa 3d 9e fe 0e bd
       0.06356969 0.03587881 0.08303283 -0.03491079
0002a0 9a 22 41 bd 6d 33 e4 3d 76 86 df bd 4a 0b c0 3d
       -0.04715214 0.11142621 -0.10914318 0.09377153
0002b0 8a 0d 3b bd 94 e7 19 3d 9e 0c fc 3d 04 c2 65 bd
       -0.04566721 0.037574366 0.12307094 -0.05609323
0002c0 ca ea dc 3d 48 95 1c 3d ab 03 f6 bd 89 1a b3 bd
       0.1078697 0.038228303 -0.12012418 -0.087452956
0002d0 24 15 0a 3d c2 32 6e 3d fb 52 a7 3b 78 b4 44 3d
       0.033711568 0.058153875 0.0051063276 0.04802367
0002e0 40 06 a3 3c 1c 10 d0 3a 02 9d de bd 24 80 01 3d
       0.019900441 0.0015873942 -0.108697906 0.031616345
0002f0 c0 bf bd bc 40 81 6b 3d bd f7 91 3d 15 25 48 bc
       -0.023162723 0.05749631 0.071273305 -0.012215872
