ml-models/LSTM-FFNN-GRU-TCN/models/tcn_model.pth (torch, 177013 bytes, 28 tensors)

network.0.conv1.weight f4 [64, 4, 2]
000000 de d6 a3 3e c4 79 2f bd c9 61 a4 be 97 61 3a be
       0.31999868 -0.042840734 -0.32105854 -0.1820129
000010 ff 5b 71 3e 42 e7 6c bd ea 8a 92 3d 94 97 c6 bc
       0.2357025 -0.057837732 0.07155402 -0.0242422
000020 16 17 ca bd 46 b7 81 bd 10 7e f7 bd dc d1 bf be
       -0.098676845 -0.06333785 -0.120845914 -0.37464797
000030 f6 03 2e bc 7e 84 43 be 5a d4 b2 3e f4 66 d1 3e
       -0.010621062 -0.1909351 0.34927636 0.4089886
000040 14 5e 36 3e 8f 3c 77 3e c5 ee a6 3e 6c cd cb 3d
       0.17809325 0.24144195 0.32604042 0.099512905
000050 67 51 ab be e1 7f a2 3c f8 e4 90 3e 34 e2 1e 3e
       -0.33460543 0.019836368 0.2829969 0.15515977
000060 df 38 ab 3e a3 6f 79 3e 53 e8 9d bd 0a f4 45 be
       0.33441827 0.24358992 -0.07710328 -0.19331375
000070 41 7f 86 3e 47 87 e8 bd 7c 28 a2 3e 07 7b 58 be
       0.26268962 -0.11353927 0.31671512 -0.21140681
000080 7c 81 01 be 9d 7e ab be 9a 53 99 3c 98 83 c4 be
       -0.1264705 -0.33495036 0.018716622 -0.38381648
000090 46 13 c0 3d 45 39 ff 3d 71 ed 74 be da 74 4a 3e
       0.09378676 0.12462095 -0.23918702 0.19771138
0000a0 28 dd a7 bd ea bc 82 3e 4d 6b 70 be f9 7f 8f be
       -0.08196479 0.25534755 -0.23478432 -0.28027323
0000b0 c4 d9 c3 3d 29 37 d6 bd 00 86 83 be 1c b6 ff 3c
       0.0956302 -0.1045974 -0.2568817 0.031214766
0000c0 8a 35 87 be 24 be a0 3e 26 1a 99 be a2 6b e0 bc
       -0.26408035 0.31395066 -0.29902762 -0.027395073
0000d0 a0 a2 c7 be a2 ad 76 3a e2 28 ae bd e7 3d 78 3e
       -0.3899126 0.00094100286 -0.085038915 0.24242364
0000e0 6d f8 f6 3b 81 13 c1 bc 9a 22 9d 3e 8c 5b 38 be
       0.007536939 -0.02356887 0.3069046 -0.18003672
0000f0 2e cc 75 be ec 3e e2 3c 1d 5a 47 be 5f 44 13 3e
       -0.2400367 0.027617894 -0.19467969 0.1438155
000100 ca de 2f 3d 82 0b fc bd c7 db 95 be 4a 80 71 3e
       0.042937078 -0.123068824 -0.2926924 0.23584095
000110 fe 60 4c be 89 70 47 3e d0 3f 9f bd f5 8c 14 3e
       -0.19958875 0.19476523 -0.07775843 0.14506896
000120 e0 24 17 3e 53 f1 3b 3e b7 2b d5 3e 7f b5 6d 3e
       0.1476016 0.18353777 0.41634914 0.23213767
000130 a9 6f 27 3e d3 2f ba 3c 11 5f 6f 3e 4e bc 66 3e
       0.16351189 0.022727882 0.23376109 0.2253277
000140 de 94 7d be 5e f6 6b 3d c5 05 e9 bd d7 d8 9f 3e
       -0.2476382 0.057608 -0.113780536 0.31220123
000150 8e 67 92 be fb f7 24 3e c0 ee 83 be 5f b9 85 bd
       -0.2859463 0.16110222 -0.2576809 -0.06529497
000160 36 25 2f 3d 0c 5b e6 3d 2c 02 ee 3d af 9a 8e 3e
       0.042760096 0.112478346 0.11621508 0.2785239
000170 af 72 87 be db 4a 99 be 26 ac c9 3e aa b4 8b be
       -0.26454684 -0.29939923 0.3938915 -0.27286273
000180 a8 eb 8c 3c 89 f6 1e 3c ae 8a da be 46 7f bd 3e
       0.017202213 0.009702333 -0.4268393 0.37011164
000190 de 39 a6 3c ef 70 65 3d 4d 06 2a bd 59 5b c0 3e
       0.020291265 0.056015905 -0.041509915 0.37569693
0001a0 31 8f 04 3e df 70 b4 be f6 7e 83 3c 93 b3 a1 be
       0.12945248 -0.35242364 0.01605175 -0.31582317
0001b0 4c 95 98 3d 5a a3 9d be ca 0b 48 3e a9 22 53 be
       0.07450351 -0.3078869 0.19535747 -0.2061869
0001c0 8b 2a 1b bd da 14 90 3d 36 53 19 3e 4d 57 b4 be
       -0.03788237 0.07035227 0.14973149 -0.35222855
0001d0 8a 84 55 3e 8f 7f b3 3e 93 dc 2c be b5 6e c2 be
       0.20851341 0.35058257 -0.16881017 -0.37975088
0001e0 c0 b0 71 be 0b 2e e9 bc 19 92 97 3e 10 ef 88 bd
       -0.23602581 -0.028464338 0.2960365 -0.066862226
0001f0 78 ed 02 be c6 68 5b be 89 51 7f 3e 1a 8f ab be
       -0.127859 -0.21426687 0.24933447 -0.33507615
000200 df 26 82 3d 7d ea 38 be 76 a2 85 be 86 8f 9b 3d
       0.0635507 -0.180582 -0.2610051 0.07595734
000210 d4 80 7c 3d bb 98 4d be 81 cb 37 3d c5 e4 97 be
       0.061646298 -0.20077793 0.04487181 -0.29666725
000220 0f c8 49 3d 3d f8 9b 3d 56 04 92 be e0 90 97 3d
       0.049263056 0.07615707 -0.28518933 0.074006796
000230 24 2d 20 3e 97 5f 90 3e 5c a8 90 3e a2 be a1 bd
       0.1564222 0.2819793 0.28253448 -0.078976884
000240 3e d7 a1 3e 62 f8 85 3e 25 cc 02 3e fb 45 c2 bd
       0.3160953 0.26166064 0.12773187 -0.09486004
000250 e5 e6 7a 3e e6 05 84 3e e2 b2 9d 3e fe c7 2c be
       0.24502142 0.2578575 0.3080054 -0.16873166
000260 69 49 6e 3e 37 36 44 be 0e ab 9f 3d 02 0f 74 3e
       0.23270191 -0.19161306 0.07796298 0.2383385
000270 41 d3 4e 3e 2c c1 0f 3e b2 96 a5 be ea cb 42 3e
       0.20197774 0.14038533 -0.32341534 0.190231
000280 30 3b 87 3d e1 3c 85 3e b0 00 76 bd 2b 89 35 be
       0.06603086 0.2602301 -0.06005925 -0.17728107
000290 3c f9 3d be 13 fc a0 bd 79 c1 a7 bc b6 4b 00 bd
       -0.18552107 -0.07860579 -0.020477997 -0.031322204
0002a0 1f 4d 82 3e 05 e6 96 be 2c eb 2b 3d 35 2e 13 3e
       0.25449464 -0.29472366 0.041972324 0.14373095
0002b0 a3 d6 21 3e 0e 19 6a be b9 ff 63 3e bd 30 74 3d
       0.15804534 -0.2286112 0.22265519 0.059616793
0002c0 ab d0 b7 3e 16 a2 a4 be 9f e2 39 3e 06 d6 09 be
       0.3590139 -0.32154912 0.18152855 -0.1346055
0002d0 07 39 b1 bc a6 f2 29 3e 13 be 56 bc 98 74 35 3e
       -0.021633638 0.1659647 -0.013106841 0.17720258
0002e0 e9 6c 31 3e f0 7d ab 3e 28 34 3a be 64 8a a6 3e
       0.17326702 0.3349452 -0.18183959 0.3252746
0002f0 ba e0 9e 3d 33 96 08 be e3 fc 9c 3e 91 ff 97 3e
       0.07757707 -0.13338546 0.30661687 0.2968717
000300 6d a7 a1 3e 6e 33 a9 be 2b 0a 57 3e ac 26 bc bd
       0.31573048 -0.3304705 0.20999973 -0.091870636
000310 08 2d 7e 3e dc 8b 66 3e f2 4a e5 bd 03 83 a3 3e
       0.24821866 0.2251429 -0.11195935 0.31935892
000320 bc 92 af 3e 6f 3a 65 be 80 39 a4 3e 71 81 b5 be
       0.34291637 -0.22385572 0.3207512 -0.35450318
000330 a2 40 3d bc 41 e6 b5 3d c9 d4 04 3e e7 5d 70 be
       -0.011551054 0.08881808 0.12971796 -0.23473321
000340 63 12 c7 bc b2 2d ee bd 44 8c b9 be ab 88 89 be
       -0.02430076 -0.116298094 -0.36239827 -0.26862082
000350 b7 0f 57 3d 56 a7 7e 3e 2e 6d 30 3e f6 cf dc 3c
       0.05250522 0.24868521 0.17229149 0.026954632
000360 1e 27 4e be 70 56 2c 3e d8 8d 87 bd 9f 4a b0 3e
       -0.2013211 0.16829848 -0.066188514 0.3443193
000370 44 8f 4a 3e 4a 0c a9 be 4a 5a 17 be a8 6b 75 3e
       0.19781214 -0.33017188 -0.14780536 0.23966849
000380 db 2f 79 be a2 f1 01 3e cd f8 b1 3e 74 7c 60 3e
       -0.24334662 0.12689832 0.34760132 0.21922475
000390 af 5b 36 be 01 ae b3 be 9f a7 45 bd 99 73 98 be
       -0.17808412 -0.35093692 -0.04825556 -0.29775694
0003a0 3f 3f ad be 0d cb 80 3e f9 83 60 be 1b 1a b7 3d
       -0.33837315 0.25154915 -0.21925344 0.08940526
0003b0 4b 7b 85 be 83 50 e4 bc f0 3c a4 3d bb 3e 03 be
       -0.26070628 -0.027870422 0.080194354 -0.12816899
0003c0 e9 4c 64 bd 58 b7 2a bd cb 7b 03 3e fb 32 a8 be
       -0.05573741 -0.041678756 0.12840192 -0.32851395
0003d0 c2 30 47 3d 01 8a a5 3e 4a d6 15 3e 3e 80 d1 bd
       0.048630483 0.3233185 0.14632526 -0.102295384
0003e0 39 15 98 3d fe c0 83 be cf 84 84 3e 8b 0e 17 3e
       0.07425923 -0.2573318 0.25882575 0.14751641
0003f0 ad ee 65 bd c1 8c a2 3e 47 02 f9 bd c7 55 d3 3e
       -0.056135822 0.31748012 -0.121586375 0.4127638

network.0.conv1.bias f4 [64]
000000 6d 99 1a 3e 77 be 50 3e 3e 59 56 3d 1c 1f 32 be
       0.1509759 0.20385157 0.0523312 -0.1739468
000010 ef ad cf bd 23 4e d1 3c 52 ac 04 be d7 9d 32 3e
       -0.10140597 0.025549954 -0.1295636 0.17443024
000020 06 da 8e 3e 0f ee 85 be bf a4 46 be b0 bc b0 be
       0.27900714 -0.26158187 -0.19398783 -0.34518957
000030 2c 3b 37 3d 9c 61 53 3e 16 d4 96 3e 46 f2 93 be
       0.044734165 0.20642704 0.29458684 -0.28895777
000040 e2 d5 32 be c8 3c fa 3d 2b 51 e8 bb da 8a 70 bd
       -0.17464402 0.12218624 -0.007089754 -0.05872617
000050 0d ed af be 30 16 91 3d a4 dc 13 ba 93 76 0e be
       -0.34360543 0.0708431 -0.0005640483 -0.1391242
000060 66 60 09 3d 27 10 30 be 7f a5 9e 3d 00 7d c0 3d
       0.0335392 -0.17193662 0.077464096 0.09398842
000070 e9 71 a3 3d 8b 8d 37 be cc 02 15 be 0c 0f ff bd
       0.07980711 -0.17925088 -0.14551848 -0.12454042
000080 67 d9 82 3e b9 78 11 be d6 10 45 be 74 63 50 3e
       0.2555649 -0.14206208 -0.19244704 0.20350438
000090 6c fa 2d be a8 7d 7c be 66 40 36 bd 60 f5 b4 3d
       -0.1699006 -0.24657309 -0.04449501 0.08835864
0000a0 06 50 bc 3d 5e 25 8a be cd 86 7a 3e 1d e8 ff bd
       0.09194951 -0.26981634 0.24465485 -0.12495444
0000b0 d0 b0 8a be 59 98 3e be f1 00 a8 be 03 fd 6c bd
       -0.27088022 -0.18612804 -0.32813218 -0.05785848
0000c0 36 2f 49 3e 62 e6 b4 be 0c 1d 92 3e f4 d9 6b 3e
       0.19646916 -0.35332018 0.28537786 0.23032361
0000d0 cd 6a 06 be 82 52 b1 3a 18 a4 a1 be 93 74 64 3d
       -0.13126679 0.0013528618 -0.31570506 0.055775236
0000e0 09 92 b3 be a2 b4 73 3e 14 b6 fd 3d af c7 24 3e
       -0.35072353 0.23799375 0.12388244 0.16091798
0000f0 97 67 e8 bd 33 73 e1 bc c0 65 5a 39 fd 2c 36 3e
       -0.11347883 -0.027520752 0.00020828005 0.17790599

network.0.conv2.weight f4 [64, 64, 2]
000000 ca 09 f4 3c ef 48 80 3d 1a c1 92 3d 6e 3e de bb
       0.029789824 0.06263911 0.071657375 -0.0067823445
000010 a7 cf 73 bc d9 80 70 3d 81 65 0d 3d 60 2b 1c 3c
       -0.014881051 0.05871663 0.03452063 0.009531826
000020 a6 6e 7d bd 00 2c 9f bb e2 e9 85 3c 19 c2 3c bd
       -0.0618731 -0.00485754 0.016346876 -0.046083543
000030 66 84 7c 3d 1b eb 4b bd 24 9b 44 3d 10 3a e9 bb
       0.061649702 -0.04978476 0.047999516 -0.0071175173
000040 df 9e a3 3d ca 7d 9a 3d 0f fb 9d 3b 34 ce 38 bd
       0.07989287 0.075435236 0.0048211883 -0.045118526
000050 1d c7 e4 3c 65 bd 93 3c 9f d4 87 bd fe 60 1e bd
       0.027926976 0.018034646 -0.06632351 -0.038666718
000060 3f 53 95 bd 88 49 fa 3c 4d b2 a2 3d aa f4 0c 3d
       -0.072912686 0.03055264 0.079441644 0.034413017
000070 ee 09 d5 bc 81 bb 4c bd a9 7e b5 bc ef af 03 3d
       -0.026005711 -0.049983505 -0.022155123 0.032150205
000080 fb ea 4c bd c1 a4 57 bc 26 58 5a bd a8 04 32 bd
       -0.050028782 -0.013161839 -0.05330672 -0.04346147
000090 52 84 3f bd 78 6d bd bb 12 a2 5b bd be 9a 68 3d
       -0.04675705 -0.005780872 -0.05362136 0.0567882
0000a0 0f 7b 50 3d 94 49 53 3d 33 18 2e bd 02 32 b9 3b
       0.050898608 0.05158384 -0.042503547 0.0056517133
0000b0 ee bd 12 bd 54 58 92 bd 22 b0 9c bd 28 6e 43 3d
       -0.035825662 -0.071457535 -0.07650782 0.047712475
0000c0 9a 30 b3 bd 7b 97 36 3d 53 e9 78 bc a1 37 9c bd
       -0.087495044 0.044578057 -0.015192348 -0.07627798
0000d0 27 94 6b bd 79 c2 a6 3d ac 0d 90 3d ad df 81 3c
       -0.057514336 0.081425615 0.07033858 0.015853727
0000e0 a6 49 57 bd 78 ac bd 3c 0f 5d 98 bd aa 88 5a 3d
       -0.05256047 0.023153529 -0.074396245 0.05335299
0000f0 3b 9e 5c bd cc 7f 4c bc ba 85 49 3d ff 96 66 bc
       -0.053861838 -0.012481641 0.049199797 -0.014074086
000100 fb 2b 96 3a 38 75 2e bd dd 73 51 3d f0 2c 80 3c
       0.0011457199 -0.042592257 0.051135886 0.015646428
000110 a1 80 00 bd cf 96 6a bd 17 18 b3 3d 9e 5e 84 3d
       -0.03137267 -0.05727273 0.08744829 0.06463359
000120 0d 6c 03 bc 64 32 48 3c 49 5b 3d 3d a7 12 fc bb
       -0.008021367 0.012219045 0.046229634 -0.007692653
000130 52 45 0f bd 2c 54 36 bd 40 32 74 bc be 94 aa 3d
       -0.03497822 -0.044513866 -0.014904559 0.083291516
000140 af 3b 9c bd fa 4c 91 bc db 4d 90 3d 55 8f 89 bc
       -0.07628571 -0.0177369 0.070461 -0.016791979
000150 dd c2 4e 3d e2 b1 13 3c 8e a8 18 bb 4c 0c a3 bd
       0.050478805 0.009014579 -0.0023293826 -0.0796133
000160 94 64 1d 3d 27 35 b4 3d f9 17 64 bd 4a 75 aa 3d
       0.038425997 0.087992005 -0.055686925 0.08323152
000170 6f 93 a6 bd 19 23 4d bd a7 cc f6 3c 0b d3 88 3d
       -0.081335895 -0.0500823 0.030126883 0.06680878
000180 81 fb be 3c 9b ff 7f bd 28 e5 b0 3d 75 27 ae bd
       0.023313286 -0.062499624 0.08637458 -0.085036196
000190 b6 34 2f 3d 61 95 9a 3d 93 cb 45 bd ed 52 b6 bc
       0.04277488 0.07548023 -0.048289847 -0.022256339
0001a0 6d 13 87 bd 17 ba 59 bc 92 d8 ad 3d af 03 85 bd
       -0.06595502 -0.013288996 0.08488573 -0.06494843
0001b0 39 76 b2 3d 66 a1 2e bd 49 b3 15 bc b7 36 c5 bb
       0.087139554 -0.04263439 -0.009136983 -0.0060184854
0001c0 83 06 10 bd 8a 8e 65 bc ac 93 25 3d 86 b7 27 b9
       -0.03516246 -0.014011035 0.040424034 -0.00015994729
0001d0 f5 98 35 bd 3f 4b 51 bd 95 e0 af 3d 37 e7 15 3c
       -0.044335324 -0.05109715 0.085877575 0.009149364
0001e0 de 03 b3 bd 99 ab 45 3d 0c 5c 00 3d 9f 47 10 bd
       -0.08740972 0.04825935 0.031337783 -0.035224553
0001f0 a0 3a a4 bc e7 ae 82 3d be 24 5c bd 49 95 79 bb
       -0.020047486 0.06381016 -0.053745978 -0.0038083366
000200 58 11 13 3b d5 22 4e 3d d6 c9 f1 3c b8 ae 9f bb
       0.0022440758 0.050326187 0.029515188 -0.004873123
000210 83 2d 28 3d da c4 5b 3c de f6 3a 3c 21 21 d0 bd
       0.04105903 0.013413632 0.011411397 -0.10162569
000220 85 21 8b bd 10 de ab 3c 1e bc d0 bc b5 04 a4 bd
       -0.06793503 0.020979911 -0.025480326 -0.0800871
000230 1f fc 4e 3d 7b 69 39 b9 5a 3a 95 bd d9 2b 06 bd
       0.05053341 -0.0001768227 -0.0728652 -0.03275666
000240 91 5a 8d 3d 66 a1 ce bd 78 fd 52 bd 0d 1b 6e bd
       0.0690204 -0.10089378 -0.051511258 -0.058131266
000250 ec 53 9c 3d 48 d8 f9 bb 69 18 60 bd eb 89 22 bd
       0.07633194 -0.0076246597 -0.05471078 -0.03968231
000260 39 3d d9 3d 9d 94 1a 3d 54 f5 08 bd cf 0d b0 bd
       0.106073804 0.037739385 -0.033437088 -0.08596384
000270 db 40 b9 bd eb 1a 64 bd d8 e0 e6 bc 84 9a 39 3d
       -0.09045573 -0.055689733 -0.028183386 0.045313373
000280 69 6f a7 bd ce 9b 09 bd 24 5a a2 3d eb 1d e4 bd
       -0.08175547 -0.033595853 0.07927349 -0.11138519
000290 d1 f9 83 bc 05 1f 4a 3c 1d f9 34 bd 2b 24 fd 3d
       -0.016110333 0.012336497 -0.044182885 0.12360414
0002a0 56 bb 64 3d df c8 79 bd 7e 27 c2 3b 79 3b 6d 3d
       0.05584272 -0.06098258 0.005925118 0.057918046
0002b0 e2 cc 2a 3c 49 40 a3 3c 93 fd 7b bd 85 ba e7 bc
       0.010424824 0.019928114 -0.061521124 -0.028287182
0002c0 59 b1 a8 bd 38 7d 3e bd 43 54 57 bd bd 9b 25 bc
       -0.082369514 -0.046506137 -0.052570593 -0.010107932
0002d0 e5 f6 92 bd ec 46 86 bd 31 de 85 bc 71 b5 75 bd
       -0.07175998 -0.06556496 -0.0163413 -0.05998749
0002e0 61 ca 2e bd 3f 76 32 b9 ee 3c 8f 3d ca 0c 5f 3b
       -0.042673472 -0.00017019453 0.06994043 0.0034034722
0002f0 89 f9 a0 bd fa 91 b3 3d 04 6c a2 bd 61 96 17 bc
       -0.07860095 0.08768077 -0.079307586 -0.009252162
000300 ae 5a 87 bd d2 4d 36 bd 02 1e 70 bd 4c 69 82 3d
       -0.06609093 -0.04450781 -0.058622368 0.0636774
000310 ac 55 17 bc b1 2a 46 bd f7 28 24 bd de 2c 8d 3d
       -0.009236734 -0.048380557 -0.04007813 0.06893323
000320 f2 26 0f 3d f0 4e 84 3d b4 ee 06 39 ad a0 df 3c
       0.03494925 0.06460369 0.0001286816 0.027298296
000330 36 ec 59 bc 4c 5c b2 3c 01 26 96 bd ba 1e 1d bc
       -0.013300946 0.021772526 -0.073314674 -0.009589845
000340 41 ce 8d ba 35 c7 9b 3d e5 3a 82 bd 97 be 76 bd
       -0.0010818915 0.07606355 -0.063588895 -0.060240354
000350 61 b8 67 bd 13 a4 ad 3d ed de 02 3e 47 7c de bd
       -0.05657232 0.0847856 0.12780352 -0.10863548
000360 be 87 8c bd c0 ee 3b 3c 1e 28 8e bd b1 df 8d bd
       -0.06861828 0.011470497 -0.069412455 -0.069274314
000370 95 d0 e6 3b 7b 84 66 bd 79 fd a7 bd 51 fc 48 bd
       0.007043908 -0.056278687 -0.08202643 -0.049068753
000380 31 f3 6d bb b1 b6 02 3d b1 92 65 bc 82 d8 1e 3d
       -0.0036308283 0.03191251 -0.014012025 0.038780697
000390 fe a1 ad ba 02 16 93 3c 0a 0f 97 bd 01 15 71 3c
       -0.001324713 0.01795483 -0.07375915 0.01471448
0003a0 cc c9 04 3c f2 73 82 3d 98 97 02 bc be b2 03 bd
       0.008104753 0.06369771 -0.007970713 -0.032152884
0003b0 bd 57 b7 bd 7f 8d e1 bc 65 51 8a 3c 32 bc be bc
       -0.089522816 -0.02753329 0.016884515 -0.023283098
0003c0 1d da 32 bd 2a 8a 87 bd 0d 9e 85 3c 0b 0b 61 bd
       -0.04366504 -0.066181496 0.016310716 -0.054942172
0003d0 31 42 10 3c 4f c7 dc bd 69 75 b4 bd 2d 42 49 3c
       0.008804844 -0.107802026 -0.08811457 0.012283844
0003e0 1d d8 41 bd 46 2e a5 3d 38 c5 46 bd 87 fe 81 bc
       -0.047325242 0.080654666 -0.048527926 -0.015868438
0003f0 ce 06 9c 3c 26 26 ed bc c0 8a 82 bd 99 c7 14 3d
       0.019046213 -0.028948855 -0.06374121 0.036323164

network.0.conv2.bias f4 [64]
000000 fe 6c 85 bc e2 22 5f bd 8b a3 2e bd aa fe 71 3d
       -0.016287323 -0.054476626 -0.042636435 0.059080757
000010 55 b7 2d bd 0f 81 60 3d d2 e2 79 3d da e6 88 3c
       -0.042411167 0.05481058 0.06100733 0.016711641
000020 b0 c5 1f bc e5 05 27 bc c5 15 ac bd 9c 37 be bc
       -0.009751722 -0.010194276 -0.0840259 -0.023219876
000030 30 a6 1c 3d cb 6a aa 3b f6 49 db bd bd af 71 3d
       0.038244426 0.005200719 -0.10707466 0.059005488
000040 fb 46 87 3d ca 11 3b bc ba 88 b7 bc 72 35 6c bc
       0.06605335 -0.011417815 -0.022404063 -0.014417039
000050 b8 4c 48 bd aa 17 c8 bd 33 e2 25 bc 6d 0b f6 3c
       -0.04890129 -0.097701386 -0.010124731 0.030034745
000060 f1 98 c1 3c 82 9c 05 3d 39 4b 06 bc ab 05 71 bd
       0.023632498 0.03261996 -0.008196645 -0.058843296
000070 2c 35 03 3d d3 15 bf bc 54 03 12 3b d4 d2 22 3d
       0.03203313 -0.023325836 0.0022279816 0.039751843
000080 8b 81 55 bc 39 fb 19 bd 3e c6 97 bd ac 59 4a bd
       -0.013031374 -0.0375931 -0.074108586 -0.049401924
000090 49 25 f3 ba 1d a0 3c bd 00 9b 8f 3d 71 2d 80 3d
       -0.001855054 -0.046051133 0.07011986 0.06258667
0000a0 9e 43 a3 bd 85 46 06 bc 73 5b 71 3d 23 db 8c 3d
       -0.07971881 -0.008195524 0.058925103 0.068777345
0000b0 24 2b 22 3d 10 32 9a bc 6c 3a 3a 3d a3 85 85 3d
       0.039591923 -0.0188227 0.04546587 0.0651963
0000c0 36 da 4e bd cc d1 b5 3c 91 cd 3e 3d e0 4a f8 3c
       -0.05050107 0.022194766 0.046582762 0.03030914
0000d0 f1 99 1b bd 16 03 ab bd 31 b1 34 3d d2 6b 10 3d
       -0.037988607 -0.08350198 0.044114295 0.035259075
0000e0 ef 19 c4 3b 76 b0 fd bc 99 dc bb bd 55 d9 be 3c
       0.005984537 -0.030967932 -0.09172935 0.023296991
0000f0 33 ed 42 bd 47 af ae bd 5d 81 09 bb 82 2b 85 3c
       -0.047589492 -0.08529525 -0.0020981648 0.016256098

network.0.net.0.weight f4 [64, 4, 2]
000000 de d6 a3 3e c4 79 2f bd c9 61 a4 be 97 61 3a be
       0.31999868 -0.042840734 -0.32105854 -0.1820129
000010 ff 5b 71 3e 42 e7 6c bd ea 8a 92 3d 94 97 c6 bc
       0.2357025 -0.057837732 0.07155402 -0.0242422
000020 16 17 ca bd 46 b7 81 bd 10 7e f7 bd dc d1 bf be
       -0.098676845 -0.06333785 -0.120845914 -0.37464797
000030 f6 03 2e bc 7e 84 43 be 5a d4 b2 3e f4 66 d1 3e
       -0.010621062 -0.1909351 0.34927636 0.4089886
000040 14 5e 36 3e 8f 3c 77 3e c5 ee a6 3e 6c cd cb 3d
       0.17809325 0.24144195 0.32604042 0.099512905
000050 67 51 ab be e1 7f a2 3c f8 e4 90 3e 34 e2 1e 3e
       -0.33460543 0.019836368 0.2829969 0.15515977
000060 df 38 ab 3e a3 6f 79 3e 53 e8 9d bd 0a f4 45 be
       0.33441827 0.24358992 -0.07710328 -0.19331375
000070 41 7f 86 3e 47 87 e8 bd 7c 28 a2 3e 07 7b 58 be
       0.26268962 -0.11353927 0.31671512 -0.21140681
000080 7c 81 01 be 9d 7e ab be 9a 53 99 3c 98 83 c4 be
       -0.1264705 -0.33495036 0.018716622 -0.38381648
000090 46 13 c0 3d 45 39 ff 3d 71 ed 74 be da 74 4a 3e
       0.09378676 0.12462095 -0.23918702 0.19771138
0000a0 28 dd a7 bd ea bc 82 3e 4d 6b 70 be f9 7f 8f be
       -0.08196479 0.25534755 -0.23478432 -0.28027323
0000b0 c4 d9 c3 3d 29 37 d6 bd 00 86 83 be 1c b6 ff 3c
       0.0956302 -0.1045974 -0.2568817 0.031214766
0000c0 8a 35 87 be 24 be a0 3e 26 1a 99 be a2 6b e0 bc
       -0.26408035 0.31395066 -0.29902762 -0.027395073
0000d0 a0 a2 c7 be a2 ad 76 3a e2 28 ae bd e7 3d 78 3e
       -0.3899126 0.00094100286 -0.085038915 0.24242364
0000e0 6d f8 f6 3b 81 13 c1 bc 9a 22 9d 3e 8c 5b 38 be
       0.007536939 -0.02356887 0.3069046 -0.18003672
0000f0 2e cc 75 be ec 3e e2 3c 1d 5a 47 be 5f 44 13 3e
       -0.2400367 0.027617894 -0.19467969 0.1438155
000100 ca de 2f 3d 82 0b fc bd c7 db 95 be 4a 80 71 3e
       0.042937078 -0.123068824 -0.2926924 0.23584095
000110 fe 60 4c be 89 70 47 3e d0 3f 9f bd f5 8c 14 3e
       -0.19958875 0.19476523 -0.07775843 0.14506896
000120 e0 24 17 3e 53 f1 3b 3e b7 2b d5 3e 7f b5 6d 3e
       0.1476016 0.18353777 0.41634914 0.23213767
000130 a9 6f 27 3e d3 2f ba 3c 11 5f 6f 3e 4e bc 66 3e
       0.16351189 0.022727882 0.23376109 0.2253277
000140 de 94 7d be 5e f6 6b 3d c5 05 e9 bd d7 d8 9f 3e
       -0.2476382 0.057608 -0.113780536 0.31220123
000150 8e 67 92 be fb f7 24 3e c0 ee 83 be 5f b9 85 bd
       -0.2859463 0.16110222 -0.2576809 -0.06529497
000160 36 25 2f 3d 0c 5b e6 3d 2c 02 ee 3d af 9a 8e 3e
       0.042760096 0.112478346 0.11621508 0.2785239
000170 af 72 87 be db 4a 99 be 26 ac c9 3e aa b4 8b be
       -0.26454684 -0.29939923 0.3938915 -0.27286273
000180 a8 eb 8c 3c 89 f6 1e 3c ae 8a da be 46 7f bd 3e
       0.017202213 0.009702333 -0.4268393 0.37011164
000190 de 39 a6 3c ef 70 65 3d 4d 06 2a bd 59 5b c0 3e
       0.020291265 0.056015905 -0.041509915 0.37569693
0001a0 31 8f 04 3e df 70 b4 be f6 7e 83 3c 93 b3 a1 be
       0.12945248 -0.35242364 0.01605175 -0.31582317
0001b0 4c 95 98 3d 5a a3 9d be ca 0b 48 3e a9 22 53 be
       0.07450351 -0.3078869 0.19535747 -0.2061869
0001c0 8b 2a 1b bd da 14 90 3d 36 53 19 3e 4d 57 b4 be
       -0.03788237 0.07035227 0.14973149 -0.35222855
0001d0 8a 84 55 3e 8f 7f b3 3e 93 dc 2c be b5 6e c2 be
       0.20851341 0.35058257 -0.16881017 -0.37975088
0001e0 c0 b0 71 be 0b 2e e9 bc 19 92 97 3e 10 ef 88 bd
       -0.23602581 -0.028464338 0.2960365 -0.066862226
0001f0 78 ed 02 be c6 68 5b be 89 51 7f 3e 1a 8f ab be
       -0.127859 -0.21426687 0.24933447 -0.33507615
000200 df 26 82 3d 7d ea 38 be 76 a2 85 be 86 8f 9b 3d
       0.0635507 -0.180582 -0.2610051 0.07595734
000210 d4 80 7c 3d bb 98 4d be 81 cb 37 3d c5 e4 97 be
       0.061646298 -0.20077793 0.04487181 -0.29666725
000220 0f c8 49 3d 3d f8 9b 3d 56 04 92 be e0 90 97 3d
       0.049263056 0.07615707 -0.28518933 0.074006796
000230 24 2d 20 3e 97 5f 90 3e 5c a8 90 3e a2 be a1 bd
       0.1564222 0.2819793 0.28253448 -0.078976884
000240 3e d7 a1 3e 62 f8 85 3e 25 cc 02 3e fb 45 c2 bd
       0.3160953 0.26166064 0.12773187 -0.09486004
000250 e5 e6 7a 3e e6 05 84 3e e2 b2 9d 3e fe c7 2c be
       0.24502142 0.2578575 0.3080054 -0.16873166
000260 69 49 6e 3e 37 36 44 be 0e ab 9f 3d 02 0f 74 3e
       0.23270191 -0.19161306 0.07796298 0.2383385
000270 41 d3 4e 3e 2c c1 0f 3e b2 96 a5 be ea cb 42 3e
       0.20197774 0.14038533 -0.32341534 0.190231
000280 30 3b 87 3d e1 3c 85 3e b0 00 76 bd 2b 89 35 be
       0.06603086 0.2602301 -0.06005925 -0.17728107
000290 3c f9 3d be 13 fc a0 bd 79 c1 a7 bc b6 4b 00 bd
       -0.18552107 -0.07860579 -0.020477997 -0.031322204
0002a0 1f 4d 82 3e 05 e6 96 be 2c eb 2b 3d 35 2e 13 3e
       0.25449464 -0.29472366 0.041972324 0.14373095
0002b0 a3 d6 21 3e 0e 19 6a be b9 ff 63 3e bd 30 74 3d
       0.15804534 -0.2286112 0.22265519 0.059616793
0002c0 ab d0 b7 3e 16 a2 a4 be 9f e2 39 3e 06 d6 09 be
       0.3590139 -0.32154912 0.18152855 -0.1346055
0002d0 07 39 b1 bc a6 f2 29 3e 13 be 56 bc 98 74 35 3e
       -0.021633638 0.1659647 -0.013106841 0.17720258
0002e0 e9 6c 31 3e f0 7d ab 3e 28 34 3a be 64 8a a6 3e
       0.17326702 0.3349452 -0.18183959 0.3252746
0002f0 ba e0 9e 3d 33 96 08 be e3 fc 9c 3e 91 ff 97 3e
       0.07757707 -0.13338546 0.30661687 0.2968717
000300 6d a7 a1 3e 6e 33 a9 be 2b 0a 57 3e ac 26 bc bd
       0.31573048 -0.3304705 0.20999973 -0.091870636
000310 08 2d 7e 3e dc 8b 66 3e f2 4a e5 bd 03 83 a3 3e
       0.24821866 0.2251429 -0.11195935 0.31935892
000320 bc 92 af 3e 6f 3a 65 be 80 39 a4 3e 71 81 b5 be
       0.34291637 -0.22385572 0.3207512 -0.35450318
000330 a2 40 3d bc 41 e6 b5 3d c9 d4 04 3e e7 5d 70 be
       -0.011551054 0.08881808 0.12971796 -0.23473321
000340 63 12 c7 bc b2 2d ee bd 44 8c b9 be ab 88 89 be
       -0.02430076 -0.116298094 -0.36239827 -0.26862082
000350 b7 0f 57 3d 56 a7 7e 3e 2e 6d 30 3e f6 cf dc 3c
       0.05250522 0.24868521 0.17229149 0.026954632
000360 1e 27 4e be 70 56 2c 3e d8 8d 87 bd 9f 4a b0 3e
       -0.2013211 0.16829848 -0.066188514 0.3443193
000370 44 8f 4a 3e 4a 0c a9 be 4a 5a 17 be a8 6b 75 3e
       0.19781214 -0.33017188 -0.14780536 0.23966849
000380 db 2f 79 be a2 f1 01 3e cd f8 b1 3e 74 7c 60 3e
       -0.24334662 0.12689832 0.34760132 0.21922475
000390 af 5b 36 be 01 ae b3 be 9f a7 45 bd 99 73 98 be
       -0.17808412 -0.35093692 -0.04825556 -0.29775694
0003a0 3f 3f ad be 0d cb 80 3e f9 83 60 be 1b 1a b7 3d
       -0.33837315 0.25154915 -0.21925344 0.08940526
0003b0 4b 7b 85 be 83 50 e4 bc f0 3c a4 3d bb 3e 03 be
       -0.26070628 -0.027870422 0.080194354 -0.12816899
0003c0 e9 4c 64 bd 58 b7 2a bd cb 7b 03 3e fb 32 a8 be
       -0.05573741 -0.041678756 0.12840192 -0.32851395
0003d0 c2 30 47 3d 01 8a a5 3e 4a d6 15 3e 3e 80 d1 bd
       0.048630483 0.3233185 0.14632526 -0.102295384
0003e0 39 15 98 3d fe c0 83 be cf 84 84 3e 8b 0e 17 3e
       0.07425923 -0.2573318 0.25882575 0.14751641
0003f0 ad ee 65 bd c1 8c a2 3e 47 02 f9 bd c7 55 d3 3e
       -0.056135822 0.31748012 -0.121586375 0.4127638

network.0.net.0.bias f4 [64]
000000 6d 99 1a 3e 77 be 50 3e 3e 59 56 3d 1c 1f 32 be
       0.1509759 0.20385157 0.0523312 -0.1739468
000010 ef ad cf bd 23 4e d1 3c 52 ac 04 be d7 9d 32 3e
       -0.10140597 0.025549954 -0.1295636 0.17443024
000020 06 da 8e 3e 0f ee 85 be bf a4 46 be b0 bc b0 be
       0.27900714 -0.26158187 -0.19398783 -0.34518957
000030 2c 3b 37 3d 9c 61 53 3e 16 d4 96 3e 46 f2 93 be
       0.044734165 0.20642704 0.29458684 -0.28895777
000040 e2 d5 32 be c8 3c fa 3d 2b 51 e8 bb da 8a 70 bd
       -0.17464402 0.12218624 -0.007089754 -0.05872617
000050 0d ed af be 30 16 91 3d a4 dc 13 ba 93 76 0e be
       -0.34360543 0.0708431 -0.0005640483 -0.1391242
000060 66 60 09 3d 27 10 30 be 7f a5 9e 3d 00 7d c0 3d
       0.0335392 -0.17193662 0.077464096 0.09398842
000070 e9 71 a3 3d 8b 8d 37 be cc 02 15 be 0c 0f ff bd
       0.07980711 -0.17925088 -0.14551848 -0.12454042
000080 67 d9 82 3e b9 78 11 be d6 10 45 be 74 63 50 3e
       0.2555649 -0.14206208 -0.19244704 0.20350438
000090 6c fa 2d be a8 7d 7c be 66 40 36 bd 60 f5 b4 3d
       -0.1699006 -0.24657309 -0.04449501 0.08835864
0000a0 06 50 bc 3d 5e 25 8a be cd 86 7a 3e 1d e8 ff bd
       0.09194951 -0.26981634 0.24465485 -0.12495444
0000b0 d0 b0 8a be 59 98 3e be f1 00 a8 be 03 fd 6c bd
       -0.27088022 -0.18612804 -0.32813218 -0.05785848
0000c0 36 2f 49 3e 62 e6 b4 be 0c 1d 92 3e f4 d9 6b 3e
       0.19646916 -0.35332018 0.28537786 0.23032361
0000d0 cd 6a 06 be 82 52 b1 3a 18 a4 a1 be 93 74 64 3d
       -0.13126679 0.0013528618 -0.31570506 0.055775236
0000e0 09 92 b3 be a2 b4 73 3e 14 b6 fd 3d af c7 24 3e
       -0.35072353 0.23799375 0.12388244 0.16091798
0000f0 97 67 e8 bd 33 73 e1 bc c0 65 5a 39 fd 2c 36 3e
       -0.11347883 -0.027520752 0.00020828005 0.17790599

network.0.net.4.weight f4 [64, 64, 2]
000000 ca 09 f4 3c ef 48 80 3d 1a c1 92 3d 6e 3e de bb
       0.029789824 0.06263911 0.071657375 -0.0067823445
000010 a7 cf 73 bc d9 80 70 3d 81 65 0d 3d 60 2b 1c 3c
       -0.014881051 0.05871663 0.03452063 0.009531826
000020 a6 6e 7d bd 00 2c 9f bb e2 e9 85 3c 19 c2 3c bd
       -0.0618731 -0.00485754 0.016346876 -0.046083543
000030 66 84 7c 3d 1b eb 4b bd 24 9b 44 3d 10 3a e9 bb
       0.061649702 -0.04978476 0.047999516 -0.0071175173
000040 df 9e a3 3d ca 7d 9a 3d 0f fb 9d 3b 34 ce 38 bd
       0.07989287 0.075435236 0.0048211883 -0.045118526
000050 1d c7 e4 3c 65 bd 93 3c 9f d4 87 bd fe 60 1e bd
       0.027926976 0.018034646 -0.06632351 -0.038666718
000060 3f 53 95 bd 88 49 fa 3c 4d b2 a2 3d aa f4 0c 3d
       -0.072912686 0.03055264 0.079441644 0.034413017
000070 ee 09 d5 bc 81 bb 4c bd a9 7e b5 bc ef af 03 3d
       -0.026005711 -0.049983505 -0.022155123 0.032150205
000080 fb ea 4c bd c1 a4 57 bc 26 58 5a bd a8 04 32 bd
       -0.050028782 -0.013161839 -0.05330672 -0.04346147
000090 52 84 3f bd 78 6d bd bb 12 a2 5b bd be 9a 68 3d
       -0.04675705 -0.005780872 -0.05362136 0.0567882
0000a0 0f 7b 50 3d 94 49 53 3d 33 18 2e bd 02 32 b9 3b
       0.050898608 0.05158384 -0.042503547 0.0056517133
0000b0 ee bd 12 bd 54 58 92 bd 22 b0 9c bd 28 6e 43 3d
       -0.035825662 -0.071457535 -0.07650782 0.047712475
0000c0 9a 30 b3 bd 7b 97 36 3d 53 e9 78 bc a1 37 9c bd
       -0.087495044 0.044578057 -0.015192348 -0.07627798
0000d0 27 94 6b bd 79 c2 a6 3d ac 0d 90 3d ad df 81 3c
       -0.057514336 0.081425615 0.07033858 0.015853727
0000e0 a6 49 57 bd 78 ac bd 3c 0f 5d 98 bd aa 88 5a 3d
       -0.05256047 0.023153529 -0.074396245 0.05335299
0000f0 3b 9e 5c bd cc 7f 4c bc ba 85 49 3d ff 96 66 bc
       -0.053861838 -0.012481641 0.049199797 -0.014074086
000100 fb 2b 96 3a 38 75 2e bd dd 73 51 3d f0 2c 80 3c
       0.0011457199 -0.042592257 0.051135886 0.015646428
000110 a1 80 00 bd cf 96 6a bd 17 18 b3 3d 9e 5e 84 3d
       -0.03137267 -0.05727273 0.08744829 0.06463359
000120 0d 6c 03 bc 64 32 48 3c 49 5b 3d 3d a7 12 fc bb
       -0.008021367 0.012219045 0.046229634 -0.007692653
000130 52 45 0f bd 2c 54 36 bd 40 32 74 bc be 94 aa 3d
       -0.03497822 -0.044513866 -0.014904559 0.083291516
000140 af 3b 9c bd fa 4c 91 bc db 4d 90 3d 55 8f 89 bc
       -0.07628571 -0.0177369 0.070461 -0.016791979
000150 dd c2 4e 3d e2 b1 13 3c 8e a8 18 bb 4c 0c a3 bd
       0.050478805 0.009014579 -0.0023293826 -0.0796133
000160 94 64 1d 3d 27 35 b4 3d f9 17 64 bd 4a 75 aa 3d
       0.038425997 0.087992005 -0.055686925 0.08323152
000170 6f 93 a6 bd 19 23 4d bd a7 cc f6 3c 0b d3 88 3d
       -0.081335895 -0.0500823 0.030126883 0.06680878
000180 81 fb be 3c 9b ff 7f bd 28 e5 b0 3d 75 27 ae bd
       0.023313286 -0.062499624 0.08637458 -0.085036196
000190 b6 34 2f 3d 61 95 9a 3d 93 cb 45 bd ed 52 b6 bc
       0.04277488 0.07548023 -0.048289847 -0.022256339
0001a0 6d 13 87 bd 17 ba 59 bc 92 d8 ad 3d af 03 85 bd
       -0.06595502 -0.013288996 0.08488573 -0.06494843
0001b0 39 76 b2 3d 66 a1 2e bd 49 b3 15 bc b7 36 c5 bb
       0.087139554 -0.04263439 -0.009136983 -0.0060184854
0001c0 83 06 10 bd 8a 8e 65 bc ac 93 25 3d 86 b7 27 b9
       -0.03516246 -0.014011035 0.040424034 -0.00015994729
0001d0 f5 98 35 bd 3f 4b 51 bd 95 e0 af 3d 37 e7 15 3c
       -0.044335324 -0.05109715 0.085877575 0.009149364
0001e0 de 03 b3 bd 99 ab 45 3d 0c 5c 00 3d 9f 47 10 bd
       -0.08740972 0.04825935 0.031337783 -0.035224553
0001f0 a0 3a a4 bc e7 ae 82 3d be 24 5c bd 49 95 79 bb
       -0.020047486 0.06381016 -0.053745978 -0.0038083366
000200 58 11 13 3b d5 22 4e 3d d6 c9 f1 3c b8 ae 9f bb
       0.0022440758 0.050326187 0.029515188 -0.004873123
000210 83 2d 28 3d da c4 5b 3c de f6 3a 3c 21 21 d0 bd
       0.04105903 0.013413632 0.011411397 -0.10162569
000220 85 21 8b bd 10 de ab 3c 1e bc d0 bc b5 04 a4 bd
       -0.06793503 0.020979911 -0.025480326 -0.0800871
000230 1f fc 4e 3d 7b 69 39 b9 5a 3a 95 bd d9 2b 06 bd
       0.05053341 -0.0001768227 -0.0728652 -0.03275666
000240 91 5a 8d 3d 66 a1 ce bd 78 fd 52 bd 0d 1b 6e bd
       0.0690204 -0.10089378 -0.051511258 -0.058131266
000250 ec 53 9c 3d 48 d8 f9 bb 69 18 60 bd eb 89 22 bd
       0.07633194 -0.0076246597 -0.05471078 -0.03968231
000260 39 3d d9 3d 9d 94 1a 3d 54 f5 08 bd cf 0d b0 bd
       0.106073804 0.037739385 -0.033437088 -0.08596384
000270 db 40 b9 bd eb 1a 64 bd d8 e0 e6 bc 84 9a 39 3d
       -0.09045573 -0.055689733 -0.028183386 0.045313373
000280 69 6f a7 bd ce 9b 09 bd 24 5a a2 3d eb 1d e4 bd
       -0.08175547 -0.033595853 0.07927349 -0.11138519
000290 d1 f9 83 bc 05 1f 4a 3c 1d f9 34 bd 2b 24 fd 3d
       -0.016110333 0.012336497 -0.044182885 0.12360414
0002a0 56 bb 64 3d df c8 79 bd 7e 27 c2 3b 79 3b 6d 3d
       0.05584272 -0.06098258 0.005925118 0.057918046
0002b0 e2 cc 2a 3c 49 40 a3 3c 93 fd 7b bd 85 ba e7 bc
       0.010424824 0.019928114 -0.061521124 -0.028287182
0002c0 59 b1 a8 bd 38 7d 3e bd 43 54 57 bd bd 9b 25 bc
       -0.082369514 -0.046506137 -0.052570593 -0.010107932
0002d0 e5 f6 92 bd ec 46 86 bd 31 de 85 bc 71 b5 75 bd
       -0.07175998 -0.06556496 -0.0163413 -0.05998749
0002e0 61 ca 2e bd 3f 76 32 b9 ee 3c 8f 3d ca 0c 5f 3b
       -0.042673472 -0.00017019453 0.06994043 0.0034034722
0002f0 89 f9 a0 bd fa 91 b3 3d 04 6c a2 bd 61 96 17 bc
       -0.07860095 0.08768077 -0.079307586 -0.009252162
000300 ae 5a 87 bd d2 4d 36 bd 02 1e 70 bd 4c 69 82 3d
       -0.06609093 -0.04450781 -0.058622368 0.0636774
000310 ac 55 17 bc b1 2a 46 bd f7 28 24 bd de 2c 8d 3d
       -0.009236734 -0.048380557 -0.04007813 0.06893323
000320 f2 26 0f 3d f0 4e 84 3d b4 ee 06 39 ad a0 df 3c
       0.03494925 0.06460369 0.0001286816 0.027298296
000330 36 ec 59 bc 4c 5c b2 3c 01 26 96 bd ba 1e 1d bc
       -0.013300946 0.021772526 -0.073314674 -0.009589845
000340 41 ce 8d ba 35 c7 9b 3d e5 3a 82 bd 97 be 76 bd
       -0.0010818915 0.07606355 -0.063588895 -0.060240354
000350 61 b8 67 bd 13 a4 ad 3d ed de 02 3e 47 7c de bd
       -0.05657232 0.0847856 0.12780352 -0.10863548
000360 be 87 8c bd c0 ee 3b 3c 1e 28 8e bd b1 df 8d bd
       -0.06861828 0.011470497 -0.069412455 -0.069274314
000370 95 d0 e6 3b 7b 84 66 bd 79 fd a7 bd 51 fc 48 bd
       0.007043908 -0.056278687 -0.08202643 -0.049068753
000380 31 f3 6d bb b1 b6 02 3d b1 92 65 bc 82 d8 1e 3d
       -0.0036308283 0.03191251 -0.014012025 0.038780697
000390 fe a1 ad ba 02 16 93 3c 0a 0f 97 bd 01 15 71 3c
       -0.001324713 0.01795483 -0.07375915 0.01471448
0003a0 cc c9 04 3c f2 73 82 3d 98 97 02 bc be b2 03 bd
       0.008104753 0.06369771 -0.007970713 -0.032152884
0003b0 bd 57 b7 bd 7f 8d e1 bc 65 51 8a 3c 32 bc be bc
       -0.089522816 -0.02753329 0.016884515 -0.023283098
0003c0 1d da 32 bd 2a 8a 87 bd 0d 9e 85 3c 0b 0b 61 bd
       -0.04366504 -0.066181496 0.016310716 -0.054942172
0003d0 31 42 10 3c 4f c7 dc bd 69 75 b4 bd 2d 42 49 3c
       0.008804844 -0.107802026 -0.08811457 0.012283844
0003e0 1d d8 41 bd 46 2e a5 3d 38 c5 46 bd 87 fe 81 bc
       -0.047325242 0.080654666 -0.048527926 -0.015868438
0003f0 ce 06 9c 3c 26 26 ed bc c0 8a 82 bd 99 c7 14 3d
       0.019046213 -0.028948855 -0.06374121 0.036323164

network.0.net.4.bias f4 [64]
000000 fe 6c 85 bc e2 22 5f bd 8b a3 2e bd aa fe 71 3d
       -0.016287323 -0.054476626 -0.042636435 0.059080757
000010 55 b7 2d bd 0f 81 60 3d d2 e2 79 3d da e6 88 3c
       -0.042411167 0.05481058 0.06100733 0.016711641
000020 b0 c5 1f bc e5 05 27 bc c5 15 ac bd 9c 37 be bc
       -0.009751722 -0.010194276 -0.0840259 -0.023219876
000030 30 a6 1c 3d cb 6a aa 3b f6 49 db bd bd af 71 3d
       0.038244426 0.005200719 -0.10707466 0.059005488
000040 fb 46 87 3d ca 11 3b bc ba 88 b7 bc 72 35 6c bc
       0.06605335 -0.011417815 -0.022404063 -0.014417039
000050 b8 4c 48 bd aa 17 c8 bd 33 e2 25 bc 6d 0b f6 3c
       -0.04890129 -0.097701386 -0.010124731 0.030034745
000060 f1 98 c1 3c 82 9c 05 3d 39 4b 06 bc ab 05 71 bd
       0.023632498 0.03261996 -0.008196645 -0.058843296
000070 2c 35 03 3d d3 15 bf bc 54 03 12 3b d4 d2 22 3d
       0.03203313 -0.023325836 0.0022279816 0.039751843
000080 8b 81 55 bc 39 fb 19 bd 3e c6 97 bd ac 59 4a bd
       -0.013031374 -0.0375931 -0.074108586 -0.049401924
000090 49 25 f3 ba 1d a0 3c bd 00 9b 8f 3d 71 2d 80 3d
       -0.001855054 -0.046051133 0.07011986 0.06258667
0000a0 9e 43 a3 bd 85 46 06 bc 73 5b 71 3d 23 db 8c 3d
       -0.07971881 -0.008195524 0.058925103 0.068777345
0000b0 24 2b 22 3d 10 32 9a bc 6c 3a 3a 3d a3 85 85 3d
       0.039591923 -0.0188227 0.04546587 0.0651963
0000c0 36 da 4e bd cc d1 b5 3c 91 cd 3e 3d e0 4a f8 3c
       -0.05050107 0.022194766 0.046582762 0.03030914
0000d0 f1 99 1b bd 16 03 ab bd 31 b1 34 3d d2 6b 10 3d
       -0.037988607 -0.08350198 0.044114295 0.035259075
0000e0 ef 19 c4 3b 76 b0 fd bc 99 dc bb bd 55 d9 be 3c
       0.005984537 -0.030967932 -0.09172935 0.023296991
0000f0 33 ed 42 bd 47 af ae bd 5d 81 09 bb 82 2b 85 3c
       -0.047589492 -0.08529525 -0.0020981648 0.016256098

network.0.downsample.weight f4 [64, 4, 1]
000000 7a 23 d1 be cc 24 e3 be 08 5b 22 be 60 7b bb bd
       -0.4084738 -0.4436401 -0.15855038 -0.09154391
000010 4a e6 0b be 90 99 90 3e 7d b5 8a be 12 41 10 3e
       -0.13662067 0.2824216 -0.2709159 0.14087322
000020 9c db 90 be 59 61 fb be 1a ad d4 be 6a 5a a4 be
       -0.2829255 -0.49097708 -0.41538316 -0.3210023
000030 a9 5f fc 3e ba 8d 5b 3c 49 40 cb be 81 ef 0d bf
       0.49291733 0.013400489 -0.39697483 -0.5544358
000040 09 ef 5f bd cc b2 4a 3e 18 b5 9b 3e 9a b8 78 3e
       -0.05467132 0.19794768 0.304116 0.2428917
000050 fc 6b f2 be a9 87 14 be 31 7f 12 bf 5d d9 e5 3d
       -0.4734801 -0.14504875 -0.5722533 0.112230994
000060 05 4e 7f 3e 40 24 cd be 11 66 c7 be 37 06 de be
       0.24932106 -0.4006672 -0.38945058 -0.43364117
000070 ae be f1 3d 32 63 ab 3e ed 4d 46 3d 2c 52 8d be
       0.118039474 0.33474118 0.04841416 -0.27601755
000080 20 75 c6 3e ba e4 d3 be 1b b3 b9 be f3 9c 5e be
       0.38761234 -0.41385442 -0.3626946 -0.21739559
000090 af 70 83 bd 10 a8 c5 3e ab 4c a3 be e7 21 34 3e
       -0.06417977 0.38604784 -0.3189443 0.17591058
0000a0 61 a7 a3 be 83 5f 76 be 8e 37 66 3e a0 c7 b3 be
       -0.31963637 -0.24059872 0.2248213 -0.3511324
0000b0 6c be bf 3d dc fa 15 3f a6 ce ee be 3b 19 66 be
       0.09362492 0.58585906 -0.46642035 -0.22470562
0000c0 e6 ef 0e ba 85 23 db be 89 ba a0 3e be 37 0c bd
       -0.0005452618 -0.42800537 0.31392315 -0.034232847
0000d0 17 55 00 bf 8c 5b c4 3e ac 2d 1c 3e 83 6a 77 bd
       -0.50129837 0.38351095 0.15251797 -0.060404312
0000e0 fb e7 f3 be 23 b7 99 bc a5 52 03 bd 39 e2 9b 3e
       -0.47637925 -0.018764084 -0.032061238 0.30446032
0000f0 76 38 71 be 22 1a c0 3d 66 db e1 be 74 46 06 3f
       -0.23556694 0.093799844 -0.441127 0.5245125
000100 b4 ec d9 be bd 6f 0d 3e c0 62 29 3e ab 5d 69 3e
       -0.42563403 0.13812156 0.16541576 0.22789638
000110 53 5c b3 be a3 31 0e 3e cf 0e bd be 84 fc e0 3e
       -0.35031375 0.13886122 -0.3692536 0.43942654
000120 89 49 b6 3e 39 8d 20 be 87 2b 06 bf bd 16 e1 3e
       0.35602978 -0.15678872 -0.5241017 0.4396266
000130 de 68 8b 3e 7c 33 6d be 2b 5d f9 be 00 36 d4 3e
       0.27228445 -0.23164171 -0.48703894 0.4144745
000140 d1 07 7c bc 27 5b 76 3e dc 44 45 3e e2 f6 01 bf
       -0.015382723 0.2405821 0.19264549 -0.5076734
000150 53 58 5a be a5 78 1f be 95 cd 65 be d4 29 ce be
       -0.21322756 -0.15573366 -0.22441705 -0.40266287
000160 1d 4b e6 3e 0c f8 c4 be 65 a8 0d bf f1 98 97 be
       0.44979182 -0.38470495 -0.55335075 -0.29608873
000170 88 66 03 bf aa f9 de 3e eb 8d 9e bd b8 8c 31 bc
       -0.51328325 0.43549854 -0.077419125 -0.010836773
000180 95 94 b5 3d 7b 31 2f be 3f 8a e3 3d e3 44 a6 bc
       0.088662304 -0.17108719 0.11110353 -0.02029652
000190 7e c3 36 3e f1 07 5f be 68 f4 c6 be e9 a7 aa 3e
       0.17848012 -0.21780373 -0.38858342 0.3333123
0001a0 92 e5 95 be 48 3b 93 be 20 95 a0 be 38 e2 c8 bd
       -0.2927671 -0.28756166 -0.31363773 -0.09808773
0001b0 03 21 c4 3e 96 0d e2 3e a0 f1 b2 be 42 dd 93 3e
       0.38306436 0.4415099 -0.3494997 0.28879744
0001c0 9f 64 a4 bd ce 42 89 bd b2 aa fe be 19 c5 47 be
       -0.080270045 -0.06702195 -0.49739605 -0.1950878
0001d0 7e c2 6a be d7 88 8e be ad 47 1e 3f 8f 21 85 bc
       -0.22925755 -0.27838776 0.6182812 -0.016251354
0001e0 8a 13 04 be f6 a1 d6 3e 8a ce 1d be 41 3b 42 3e
       -0.12898079 0.4192044 -0.1541082 0.18967916
0001f0 67 ea d2 3e 77 0d a4 3e a0 33 6a be a8 6f a2 be
       0.4119446 0.32041523 -0.22871256 -0.31725812
000200 30 74 6d be 88 a7 18 be e0 15 81 3e f4 c3 2b 3e
       -0.23188853 -0.14907658 0.25212002 0.16773969
000210 5d 0d 94 bd f2 51 0d bf bb ff 5c be d9 cc 85 3d
       -0.07229111 -0.55203164 -0.21581928 0.06533212
000220 67 d9 08 bd b4 75 0f 3f 9a 1c 06 3f 93 b4 cb be
       -0.033410456 0.56038976 0.5238739 -0.39786205
000230 ef 31 a3 3e 6d 21 83 3e 55 af 2b 3d 0b 0e 25 3e
       0.31874034 0.2561144 0.041915257 0.16118638
000240 00 f2 e7 3e e7 b6 df 3e d2 00 d2 be 3c 6a a5 be
       0.4530182 0.4369423 -0.4101625 -0.32307613
000250 60 18 38 bd 7b ee b6 3d e2 b6 86 bd fb e2 10 3e
       -0.04494512 0.08932205 -0.06577851 0.14149086
000260 ab 94 7c 3e 70 4c 44 be e0 bc c7 3e 35 7d 9c be
       0.24666087 -0.19169784 0.39011288 -0.30564275
000270 ad 54 98 3e c5 70 97 be ac 79 f4 be 71 85 1f bf
       0.29752102 -0.29578224 -0.47749078 -0.6231299
000280 e8 7f 17 be bc cb 52 3e ff 8b bc 3e f8 62 37 3e
       -0.14794886 0.20585531 0.3682556 0.17908847
000290 de dc a4 3e ca c5 94 3c 99 6f 4f bd 3f 8f e5 be
       0.32199758 0.01816072 -0.050643537 -0.4483585
0002a0 b7 3b ce be ff bc 40 be 08 c4 bb 3e 3d f7 89 be
       -0.40279934 -0.18822096 0.36672997 -0.2694644
0002b0 e4 7e 15 bd dd 33 0b bf c4 78 d4 3d e0 6c c4 be
       -0.036497965 -0.5437601 0.10374597 -0.38364315
0002c0 56 54 04 be 6d 5e a5 3e cf 2c 82 be b5 68 d3 bd
       -0.12922797 0.32298604 -0.2542481 -0.10322706
0002d0 02 91 8c 3e eb 71 19 3e f2 29 af be bd 8e 3d bd
       0.27454382 0.14984863 -0.3421169 -0.046278704
0002e0 e0 d4 d3 bd 00 ec 6a be f4 1c 9c 3e c0 a0 18 bd
       -0.10343337 -0.2294159 0.3049084 -0.03726268
0002f0 bb 8b ce 3e ae 0c 62 3e bb a9 16 3d 1b 5b 11 be
       0.4034098 0.2207515 0.03678296 -0.1419491
000300 fd e6 a5 be ae de 8d 3e f4 37 20 be 3a 31 8a be
       -0.32402793 0.27708954 -0.15646344 -0.26990682
000310 27 b6 fa be e3 58 a9 be c9 a1 1e 3e e7 38 90 3e
       -0.48967096 -0.33075628 0.15491404 0.28168413
000320 8c 1b 30 3e a4 8d 11 3e 96 cd 63 bd 03 5c fc 3e
       0.17198008 0.14214188 -0.055615984 0.4928895
000330 46 43 5b 3e 51 2b c9 bd 8f 88 c2 be fc 5d 80 3e
       0.21412382 -0.09822715 -0.3799481 0.25071704
000340 3a e3 26 be b8 89 4e bf cd c1 19 3e ef 04 f7 3e
       -0.16297618 -0.8067889 0.15015335 0.48245952
000350 72 3b 85 3e 4a f4 96 be 3a a4 ab 3c bd 47 28 be
       0.26021916 -0.29483253 0.020952333 -0.16433616
000360 b4 ef 5e 3e da 8e 7f 3e 31 c2 1c 3e 2b 4f d0 be
       0.21771127 0.24956837 0.15308453 -0.406854
000370 04 e7 ff 3d 1f 73 9b be 36 7c bb 3e ac 70 da 3e
       0.124952346 -0.30361268 0.36618203 0.42664087
000380 f6 54 d7 3e 75 90 09 bf ed 85 0a bc 17 25 c8 be
       0.42057008 -0.5373605 -0.008454782 -0.39090797
000390 a6 63 af be 3c 8d 73 3e 09 58 70 3d 8b 75 9a be
       -0.34255713 0.23784345 0.058677707 -0.30167803
0003a0 b0 ad 02 3f c0 7a 12 be d6 10 eb 3d 93 65 d9 3d
       0.51046276 -0.14304638 0.114778206 0.10615077
0003b0 80 27 52 bf 79 4e 28 be 65 0b 1c bd 46 89 9b be
       -0.8209152 -0.16436185 -0.038096804 -0.3037817
0003c0 e0 f8 8c be 54 10 63 3e 54 7a 6c 3e c0 ce 10 3c
       -0.27533627 0.22174197 0.2309354 0.008838356
0003d0 f4 2c 1a be db 08 f0 3e c5 d7 89 bd c5 58 ea bd
       -0.15056211 0.46881756 -0.06730608 -0.11442713
0003e0 2c d8 70 be eb 82 ba bd 8f 74 04 3f 54 b6 bd be
       -0.23519963 -0.09107002 0.51740354 -0.37053168
0003f0 71 cb 06 3f ec b5 ea 3e 95 38 45 3e c9 5e 73 be
       0.52654177 0.4584192 0.19259866 -0.23766626

network.0.downsample.bias f4 [64]
000000 3c 32 da be 51 9c 40 3e 26 7e 44 3e 45 e7 1c be
       -0.4261645 0.1880963 0.19188747 -0.15322597
000010 e9 44 94 3e 23 67 6d 3d e2 34 ef 3e c8 48 d3 3e
       0.28958824 0.057959687 0.46720034 0.41266465
000020 88 ee ff be bc 46 d0 3d 79 89 54 3d 40 69 3d be
       -0.49986672 0.101697415 0.051888917 -0.18497181
000030 13 07 c9 be 8a 9e 83 3e bb 5a 36 be 37 2e c5 be
       -0.3926321 0.25706893 -0.17808048 -0.38511822
000040 bd ac 7c be 51 7d a1 3e dd 6e 3b be 58 25 cc be
       -0.2467527 0.3154092 -0.1830401 -0.3987224
000050 78 58 fd 3d 7f 5f 84 be 16 da e7 bd dc 6e d3 be
       0.1237039 -0.25854108 -0.113208935 -0.41295516
000060 05 bd c5 3d b7 35 02 3e 38 ea de be 5f 10 ce be
       0.09655193 0.12715803 -0.4353807 -0.40246865
000070 37 15 40 3e 53 2c 45 be d6 e2 18 be c4 35 d2 3e
       0.18758093 -0.1925519 -0.14930281 0.41056645
000080 7a 41 f1 be f8 12 86 3e 06 8d 3d bd 32 28 0d be
       -0.47120267 0.26186347 -0.04627707 -0.13784865
000090 7b 41 26 3e de e0 c9 be 79 c5 eb 3e 16 3b b5 be
       0.16235916 -0.39429373 0.46049097 -0.35396641
0000a0 a1 e6 19 bd bc d3 2b bd cd 7b cd bd a9 09 9d 3e
       -0.03757346 -0.041949973 -0.10033379 0.30671433
0000b0 3b a0 51 3e a9 f2 8a be d6 b4 8e be 23 68 8f bd
       0.2047128 -0.2713826 -0.27872342 -0.070022844
0000c0 93 0d cd 3e 27 35 96 3e 90 b1 96 3a 4e ab ef 3e
       0.4004942 0.29337427 0.001149701 0.46810383
0000d0 b3 b2 62 3e f8 80 f4 3d 4d 96 db 3e 76 0b 58 3d
       0.22138481 0.11938661 0.42888108 0.052745305
0000e0 b4 b7 a4 be 0b a4 b7 b9 89 b4 a3 3d da e3 cc 3d
       -0.32171404 -0.00035026702 0.07993419 0.10004397
0000f0 d0 5c b5 be 45 60 e2 be 54 8e 64 3e 08 29 cf be
       -0.35422373 -0.44214073 0.22319919 -0.40460992
